model/balance/max.pt (torch, 863166 bytes, 12 tensors)

log_std f4 [50]
000000 51 aa 92 bf 83 3f 88 bf 30 de a0 bf a4 e8 8e bf
       -1.1458226 -1.0644382 -1.2567806 -1.1164746
000010 37 ee 58 bf 70 38 1b bf f9 fd fe be 9e 90 ee be
       -0.84738487 -0.6063299 -0.4980314 -0.4659471
000020 27 41 99 be 43 70 9a bf 8f f1 76 bf 8a e6 9d bf
       -0.2993252 -1.206551 -0.9646234 -1.233598
000030 0a 28 a0 bf fb 57 1f bf d5 70 21 bf 09 a5 12 bf
       -1.2512219 -0.6224362 -0.63062793 -0.57283074
000040 a7 e9 da be 52 37 3a bf 8f 84 95 bf f5 33 8f bf
       -0.42756388 -0.7274066 -1.1681079 -1.1187731
000050 38 a3 88 bf 56 aa 8c bf cf 82 90 bf 62 f4 88 bf
       -1.067481 -1.0989482 -1.128992 -1.069958
000060 a1 0c 50 bf 63 25 26 bf fd d5 46 bf 8c ce 09 bf
       -0.8126927 -0.649008 -0.7767027 -0.5383079
000070 47 b4 35 bf d8 fc 09 bf 2b e8 92 bf 73 4b c2 bf
       -0.70978206 -0.53901434 -1.1477102 -1.5179275
000080 ef 19 af bf 8b a6 6c bf eb 8a bc bf 01 21 a7 bf
       -1.3679789 -0.92441624 -1.4729894 -1.3056947
000090 fb 64 83 bf 01 9a 07 bf 6a 98 1a bf 12 ba 06 bf
       -1.0265192 -0.52969366 -0.60388815 -0.5262767
0000a0 27 8b 50 bf c8 4c b3 bf 87 4c b8 bf 35 40 5a bf
       -0.8146233 -1.4007807 -1.4398354 -0.8525422
0000b0 3a e6 aa bf 40 8a 9d bf d6 20 8d bf dd f3 bc be
       -1.335151 -1.2307816 -1.1025646 -0.36904803
0000c0 4d 11 0b bf 7e 51 29 bf
       -0.54323274 -0.6613997

p_fc1.weight f4 [256, 136]
000000 5c a7 08 3e 3b 23 03 3d b8 28 b4 3c 6a 4d e4 3d
       0.13345093 0.03201602 0.021992072 0.11147578
000010 8c 74 f5 3d 52 56 8c bd 5a 08 c6 3d ec fc 96 bd
       0.1198512 -0.06852402 0.09669562 -0.0737246
000020 f9 dd 06 3d c7 75 c3 3d 74 c5 67 bd 15 d9 34 bd
       0.032926533 0.095439486 -0.05658479 -0.044152338
000030 f2 a6 c0 3d a8 2a 54 bb c2 b8 a8 3d 30 f4 a4 3c
       0.09406842 -0.0032374058 0.08238365 0.020135969
000040 36 66 99 3c 35 b7 3f 3d 2a 38 f9 bc c3 36 02 bc
       0.018725496 0.04680558 -0.030422289 -0.0079476265
000050 3d a6 45 bc 5e a8 86 bd 62 0c 2e bd 3d bb 09 be
       -0.01206356 -0.06575082 -0.042492278 -0.13450332
000060 91 5d f2 3c 5a da 0d bd 07 fe 0c 3d 65 64 44 bd
       0.029585632 -0.034632064 0.034421947 -0.047947306
000070 75 dd 0d bd 20 d8 14 be fb 05 52 3e 8c cc 80 3d
       -0.034635026 -0.1453557 0.20510094 0.06289014
000080 60 b9 cb 3b 34 62 4c 3e 1e 6c fa bc 6b 89 d4 bd
       0.006217167 0.19959337 -0.030569132 -0.10377773
000090 72 67 b4 3d 6b 80 15 be 6f 9d 91 bd 13 72 92 3e
       0.08808793 -0.14599769 -0.07110106 0.28602657
0000a0 c5 be a2 bd 28 48 88 bd b4 46 1a bd c7 25 a4 bd
       -0.07946543 -0.06654388 -0.037665084 -0.08015018
0000b0 55 df 0a bd e4 da 12 3e 16 33 08 bc 80 fb 03 bd
       -0.033904392 0.14341313 -0.008312961 -0.03222227
0000c0 f3 8e 9b bd bb 99 00 be dc bd f0 bd 5c 67 00 3e
       -0.07595625 -0.12558644 -0.11754963 0.12539428
0000d0 8d df f5 3c 5a af 06 3d fd de 52 bd 7b 69 c6 bc
       0.030013824 0.032882072 -0.05148219 -0.024220219
0000e0 4d ac c6 bd 44 11 fc bc b4 54 e4 bc fd a4 f6 3b
       -0.097008325 -0.030769952 -0.02787242 0.0075269924
0000f0 cb 9f 77 3d b6 8e f6 3c 61 e7 97 bd 9a 60 be bd
       0.060455125 0.030097347 -0.07417179 -0.09295769
000100 e5 77 9e bd 12 f5 29 be 09 5a 3f be 38 b3 25 be
       -0.07737712 -0.16597393 -0.1868669 -0.16181648
000110 7c dd ff 3d 1e 06 ad 3d 65 13 4c bd dc c3 0a 3e
       0.12493417 0.084484324 -0.049823184 0.13551277
000120 a7 65 a8 bc de 0b 94 bd a1 4e c6 bd 07 ad 2d be
       -0.020556284 -0.07228826 -0.09682966 -0.16960536
000130 3c 8c df bd 6f 0e aa bd fa 4c 96 bd bc e2 45 be
       -0.109154195 -0.08303534 -0.07338901 -0.19324774
000140 50 29 d7 bd 2c c0 69 be 9d e0 ac bd 79 b3 66 be
       -0.105059266 -0.22827214 -0.08441279 -0.22529401
000150 b0 70 11 bc 2c 87 9d be 94 12 84 bd c1 cd 0f 3e
       -0.008876964 -0.3076719 -0.06448856 0.14043333
000160 23 fb 83 be b9 48 12 3e c9 e0 35 3e a6 a8 8f be
       -0.2577754 0.14285554 0.1776153 -0.28058356
000170 94 06 04 3e c3 2c 1e bd 8f 67 a3 be 43 a2 40 3e
       0.12893134 -0.038616907 -0.31914946 0.18811898
000180 d0 72 56 be 02 15 c0 bd aa e4 4b bd 4a a7 60 be
       -0.20942235 -0.09379007 -0.049778618 -0.21938816
000190 1e b5 c7 bd a7 4f a6 bd 81 c9 a2 bd 91 0f 52 3d
       -0.09751342 -0.08120661 -0.0794859 0.051284377
0001a0 16 ec 93 3d 59 d6 25 3e 34 20 1c bd 67 f0 85 3e
       0.07222764 0.16195048 -0.03811665 0.26159975
0001b0 72 3f 60 bc 2b 91 57 3d 43 cc 14 3e bb 48 23 bd
       -0.013687002 0.052628677 0.14531045 -0.039864283
0001c0 bc dc f7 bc 4b df be 3d 1f a6 1e be 5c 3a 06 3e
       -0.030256622 0.093199335 -0.15493058 0.131082
0001d0 78 95 a0 3d 19 82 8a be 37 29 14 bd d3 b2 b2 3c
       0.07841009 -0.27052382 -0.036172118 0.021813786
0001e0 0c 80 a7 3d a5 85 59 bd 8e 51 d6 3d 02 56 be 3c
       0.0817872 -0.05310597 0.10464774 0.023234371
0001f0 4a 77 3d 3c 26 bb a0 bd 1f 85 2e 3e 69 5f 56 bb
       0.011564085 -0.07848196 0.17042969 -0.0032710677
000200 ee 46 13 3e 8e e6 bb 3e 29 2f a2 bd 0c 4d 0a 3e
       0.14382526 0.36699337 -0.07919151 0.13505954
000210 b4 bd 1e be 16 34 f1 bd 0b 41 5e be 60 33 8d 3c
       -0.15502053 -0.11777513 -0.217045 0.017236412
000220 0e f8 b2 bd c9 44 68 bd df b2 49 bd 59 ce 5e be
       -0.08738719 -0.056706224 -0.04924285 -0.21758403
000230 90 d3 83 3d 8e e7 1d 3d 63 23 45 be ef e2 d8 bd
       0.06436837 0.038550906 -0.1925178 -0.10590159
000240 94 fa 50 3d f9 cc 9a bc 60 f0 d2 bd 66 11 f0 3d
       0.05102022 -0.018896567 -0.10299754 0.117220685
000250 38 33 33 bd 7c 27 d8 3d b9 6b 83 3d 43 e0 74 3c
       -0.043750018 0.10554406 0.06417031 0.014946046
000260 c4 00 c2 bd a4 39 57 bd db bd 1f 3d d1 83 10 bc
       -0.09472802 -0.052545205 0.03899942 -0.00882049
000270 98 40 bb bd dc 80 27 bd 1d 71 9d 3d 88 59 98 3d
       -0.0914318 -0.040894374 0.0768759 0.07438952
000280 07 d8 a6 bd 94 4e 77 bd 6e 68 7a bd f2 2e f4 bd
       -0.08146673 -0.060377672 -0.06113475 -0.119230166
000290 3f 21 ab bd 62 5c f3 bd b6 57 6a be fe af c2 bd
       -0.083559506 -0.11882855 -0.22885022 -0.09506224
0002a0 af 09 9a bd 53 1a 8a be c3 96 e7 bd 36 09 10 be
       -0.07521378 -0.2697321 -0.113080524 -0.14066014
0002b0 34 e1 79 be 7f 0e 84 3c 49 56 8a bd 2d 44 4d be
       -0.24402314 0.016120194 -0.06754739 -0.20045538
0002c0 94 ae 46 bc a3 d9 1e bc e1 af 30 be bb 58 14 bd
       -0.012126584 -0.009695443 -0.17254592 -0.036217432
0002d0 02 91 0c be 2f c8 e2 b9 a4 d2 fa bd 9b 81 40 bd
       -0.13727191 -0.00043255228 -0.12247208 -0.0469986
0002e0 3e 66 8d 3d c9 c7 77 bd dc e3 e1 bc 00 01 3f bd
       0.06904267 -0.060493264 -0.027574472 -0.046631813
0002f0 d7 2b 02 be d2 76 68 3d e2 68 1e be 32 fc df 3b
       -0.12712036 0.05675394 -0.15469697 0.006835484
000300 6f 7d 91 3d be c0 3f 3a 48 d0 e6 bd 08 c8 29 bd
       0.07104003 0.00073147926 -0.11270195 -0.04145053
000310 6a 96 a1 bd d9 14 0e 3e c9 0d be bc 42 8d 63 3d
       -0.07890017 0.1387514 -0.023199933 0.055554636
000320 4a c5 3c 3d f1 8c 00 3d 26 00 fb 3d 68 85 81 3d
       0.046086587 0.031384412 0.12255888 0.06324273
000330 af 1b 56 be c9 b6 c8 bc 90 ce b5 bd 1a b8 53 bd
       -0.20908998 -0.024501221 -0.08877289 -0.051689245
000340 df f2 ad bd 80 7d d7 bd 27 41 b0 3d 6e 33 a7 be
       -0.084935896 -0.10521984 0.08606177 -0.32656425
000350 f1 fe 5d be db 69 79 3e d4 bd 9d be 7b 75 03 be
       -0.21679284 0.24356787 -0.3080889 -0.12837784
000360 aa 0f 61 3e 37 2b 16 3d a9 d8 82 3d 63 0c 85 bd
       0.21978632 0.036662307 0.06388981 -0.06496503
000370 72 95 06 ba da 58 f5 bd f7 0c f4 bd 95 1c c0 bd
       -0.00051339634 -0.11979838 -0.11916535 -0.093804516
000380 6b fc 60 bd 11 01 8e bd a5 77 7b bd 85 f2 ea bd
       -0.054928225 -0.06933797 -0.0613934 -0.11472038
000390 ce f6 7a bd 1f 44 b7 bd e6 51 38 3d aa 25 ba bd
       -0.061270528 -0.0894854 0.04499998 -0.09089215
0003a0 c1 62 ab 3e 49 4b 3b 3d 83 88 f0 3d c5 be d8 3d
       0.3347378 0.045726094 0.117447875 0.105832614
0003b0 8a b6 6d 3d 5f 4d 6b 3e 8b 55 c1 bd 2a e9 1a 3c
       0.05803541 0.22978733 -0.09440144 0.009455005
0003c0 c7 f6 52 3e b0 11 6f be b4 92 8c 3d 3a d3 8c 3e
       0.2060195 -0.23346591 0.06863919 0.27504903
0003d0 e2 d6 6c 3d 30 ed c1 3d 17 f2 0e 3e 00 8a 06 bd
       0.057822116 0.09469068 0.13959537 -0.03284645
0003e0 fa fc 42 be ff 4a bf bd 7f be 0b be 6a 19 86 be
       -0.19041815 -0.09340476 -0.13646887 -0.26191264
0003f0 54 92 b1 bd 3b fc 27 be 39 95 93 be 48 68 9f ba
       -0.08670488 -0.16404812 -0.28824785 -0.0012161816

p_fc1.bias f4 [256]
000000 a8 2f 15 bd cc 49 f0 3b 29 94 df 3b 67 44 80 bc
       -0.0364224 0.007333016 0.006823082 -0.015657617
000010 88 a2 26 bb 8c 4e a6 ba 80 78 ed 3b 6f 7a e5 3b
       -0.0025426466 -0.0012688204 0.0072470307 0.0070031206
000020 19 d3 f4 3c 4e fc 69 3b ca ce 9c bc 62 ae 3e 3b
       0.029885815 0.0035703364 -0.019141573 0.002909564
000030 09 c4 a3 bc 69 c9 3c bc 9a 7d 5d bc 07 d1 29 3c
       -0.019990938 -0.011522629 -0.013518715 0.010364777
000040 31 67 64 3c e3 5b 97 3b fa 1e 1f 3c d0 2f b9 3b
       0.013940618 0.004619108 0.009711975 0.0056514516
000050 d3 42 83 bc 61 0f 08 3b 5e 27 1a 3c 50 6a 89 bb
       -0.016023075 0.002076112 0.0094088 -0.0041935816
000060 32 28 06 bc 75 65 fe 3b dc c9 6b 3c 4c af 25 3c
       -0.008188294 0.0077635595 0.014391389 0.010112595
000070 5a 94 35 bb 4c 8e a5 bb 1e b2 3b bc 57 21 b3 3b
       -0.0027706833 -0.0050523635 -0.011456041 0.005466621
000080 c9 ca 08 3c 95 b8 25 bc 3e 81 e5 bc c0 d0 fd bc
       0.008349129 -0.010114809 -0.028015729 -0.030983329
000090 18 ab 6a bc e3 a5 f0 3b 02 35 51 bc 39 27 4e bc
       -0.0143230185 0.007343994 -0.012768986 -0.012582594
0000a0 e0 d7 d5 3b ed 0a 1a bd 3f 6e 41 3c e4 39 52 bc
       0.0065259784 -0.037608076 0.01180607 -0.012831185
0000b0 63 2d be b7 5e f0 7d 3c 0c f3 19 3c 86 42 bb bc
       -2.26709e-05 0.015499203 0.009396326 -0.02285887
0000c0 b8 3c ca bc 6b 6c 04 bd 47 15 21 bc e7 fc 4e 3c
       -0.024687156 -0.032329958 -0.009831733 0.012633539
0000d0 ab 22 7a 3c f6 96 23 bd cc 1e 6c bb 0e 96 fc ba
       0.015267055 -0.03993889 -0.0036029099 -0.0019270794
0000e0 68 2f eb 3b d2 36 51 bc 8d 7b de 3b 99 82 d3 3b
       0.007177282 -0.012769418 0.0067896307 0.0064547774
0000f0 62 d9 0f bb 87 79 07 3c 27 cc 81 3c f0 bb 3b 3d
       -0.0021949639 0.0082687205 0.015844418 0.045833528
000100 cf 76 f3 3b 26 83 26 bc eb cc 8d bb c3 48 d9 3b
       0.0074299346 -0.010163104 -0.0043274066 0.0066309883
000110 c5 75 34 bd 91 cb 4e bb 74 8f 1c bc b8 39 1e bc
       -0.044057626 -0.003155444 -0.009555686 -0.009657316
000120 44 b4 9c 3c 14 ac 85 bc 4d 74 06 bd a9 99 a7 3a
       0.019128926 -0.016317405 -0.032825757 0.0012786883
000130 68 eb e8 bc e3 6d 76 bb e5 05 38 bc 2e 85 07 bc
       -0.028432563 -0.0037602119 -0.011231874 -0.008271499
000140 f8 a1 f7 3a 46 28 02 3c d5 28 3b 3c 40 3b 24 3c
       0.0018892875 0.007944172 0.011423309 0.010023892
000150 ce fb 46 bd 85 92 43 bc 7e d9 9d bc d4 8f 92 3c
       -0.048579983 -0.011936788 -0.019268747 0.017890848
000160 49 22 89 3c 34 a6 f8 bb 2f 57 0a bc 45 8d cd 3c
       0.016739981 -0.0075881723 -0.008443638 0.025091777
000170 8c 42 c4 3c 15 be d6 bb e9 43 5b bc 20 6e 51 bb
       0.023957513 -0.0065534213 -0.01338289 -0.0031956509
000180 98 4e 53 3d 23 ca 92 bb 69 47 78 3c 91 3c bd bb
       0.051588625 -0.004479663 0.015153744 -0.0057750423
000190 05 fb e2 bc 48 fe bb 3b 48 45 39 3a ad 44 ac 3a
       -0.027707586 0.0057371 0.00070675137 0.0013143026
0001a0 fb d2 02 b7 be 78 b3 ba 56 38 cc bb f0 5a 90 bb
       -7.7977265e-06 -0.00136926 -0.0062323017 -0.004405372
0001b0 96 93 66 bb 6f aa 01 bc b7 9c 7f bc ff 22 b6 bc
       -0.0035183183 -0.00791417 -0.015601329 -0.022233484
0001c0 fe 29 52 bc b4 9c 9a bc 90 95 b3 3a 12 e4 69 bd
       -0.0128273945 -0.01887355 0.0013701189 -0.05710227
0001d0 eb 0a 0d bc c9 1a 1b bc 76 3c 63 bc 97 e6 91 bb
       -0.00860856 -0.009466835 -0.0138693955 -0.0044525373
0001e0 93 e9 14 3c b7 5d dd bc 7a 60 fc ba 19 d8 f8 bc
       0.009088892 -0.027022226 -0.0019254826 -0.03037648
0001f0 b9 3d 0d 3b 91 4e df 3a 28 c1 9b bb 8c 8e 3e bc
       0.0021551682 0.0017036964 -0.0047532506 -0.0116306655
000200 f2 d8 d3 3c 2e 14 92 bb 48 36 46 3c 4c 48 70 3b
       0.025860284 -0.004457972 0.012097903 0.0036664186
000210 d8 75 be bb 23 e5 a0 bc f7 28 6a bc d8 92 97 bb
       -0.005812388 -0.01964051 -0.014291993 -0.0046256594
000220 6f c2 d0 3a 96 fb 1b ba 8b 8e a2 bb cf d7 b9 bb
       0.0015927086 -0.000595027 -0.00496084 -0.0056714783
000230 c7 d8 9b bc 00 06 f1 bb 22 fe 31 3c f3 c5 02 bd
       -0.019024266 -0.0073554516 0.010863813 -0.03192706
000240 8c f9 68 bb 1c d3 e3 3b ad e6 66 3c 3b 1f a1 3c
       -0.0035549132 0.0069526564 0.014093083 0.019668212
000250 4b 33 05 3c e0 da bc 3a a2 38 15 bc 00 e4 84 bc
       0.008129905 0.0014408492 -0.009107741 -0.016222
000260 3f ea 12 bd 82 b0 cc 3c ea 56 68 bb 88 03 cb 3b
       -0.035867926 0.02498651 -0.0035452195 0.0061954893
000270 63 d8 fd bc 4d cc ad bc 4d 34 df bc 34 e3 06 bd
       -0.03098697 -0.021215582 -0.027246619 -0.03293152
000280 7e 96 6d 3c c5 ae a3 b8 07 95 b4 bb 7b 99 90 bb
       0.014501212 -7.804999e-05 -0.0055109295 -0.0044128275
000290 49 86 06 3c 5b cc fe 3c 59 a0 0e 3c 54 fa e9 bb
       0.008210727 0.031103304 0.008705222 -0.007140437
0002a0 10 5b 3b ba 7b a1 66 bc 42 2f a4 bc 59 d3 c8 3c
       -0.0007147053 -0.014076586 -0.020042066 0.02451484
0002b0 7d 33 74 ba a9 0f 80 3c b9 4a 4f 3c 5d 7b d2 bc
       -0.00093155337 0.015632467 0.012652093 -0.02569359
0002c0 c3 90 a1 bc c2 df e8 bc 8d bb 34 bc 95 e3 5d 3b
       -0.019722348 -0.028427009 -0.011031044 0.0033857573
0002d0 e5 a4 e4 ba f9 18 c0 3b f6 6b f4 3b 92 d5 95 3b
       -0.0017444162 0.005862352 0.007459159 0.0045725787
0002e0 60 60 2a 3c d5 a5 5b bc 0f e5 4a 3c 28 53 4f bc
       0.010398954 -0.013406237 0.012383713 -0.012654103
0002f0 1b c0 e3 bc ea cb 52 3c d1 4a 62 3c 5a 2d 28 3a
       -0.027801564 0.012866 0.013811783 0.00064154493
000300 06 61 11 bc c1 47 9e 3c a7 d1 d5 bc 30 9e 48 3b
       -0.00887323 0.019321324 -0.026100947 0.0030611865
000310 17 ce f6 3a df 65 df 3b a8 8e 3e 3b aa a5 9b 3c
       0.001882973 0.006817564 0.002907673 0.018999893
000320 67 83 a1 bc f9 4d 57 bc 1e 0c 6b 3c a8 00 1a 3c
       -0.019715978 -0.013141149 0.014346151 0.0093995705
000330 70 3b 5f bc 91 c1 b7 3b ab 84 52 bc a9 be 77 3b
       -0.013625011 0.0056077917 -0.012849013 0.0037802851
000340 44 36 3d bc 79 bc c2 ba db 6d 59 3c 64 ed af bc
       -0.011548582 -0.0014857195 0.0132708205 -0.021475501
000350 16 88 8e bc 08 0d 7e 3c 53 d7 11 bc e3 f9 9f 3b
       -0.017398875 0.015506037 -0.008901435 0.0048820837
000360 3a 8e 9a bc 0a 82 42 3b ad b6 e8 3b 8f f5 1b 39
       -0.018866647 0.002967956 0.007101855 0.0001487343
000370 a2 e6 25 3b 2b 2f fd bb 9c fd 07 3c b2 74 0a 3c
       0.002531447 -0.00772657 0.008300211 0.008450674
000380 b0 88 d0 bb 11 8a b5 bb 93 5e a1 bc 8d 4f d6 bb
       -0.0063639507 -0.0055401404 -0.019698417 -0.006540245
000390 31 6e f0 bb 71 28 9f ba 69 07 ad bb 50 fc fe 3c
       -0.0073373546 -0.001214279 -0.0052804244 0.031126171
0003a0 4b 3f 0f bc a5 f7 ba 3a 00 b7 06 3d 14 93 7f bb
       -0.008743118 0.0014264478 0.032889366 -0.0038997578
0003b0 5e 74 95 bb 6f 17 a4 3c f7 03 3d bc 33 f6 38 3c
       -0.004560991 0.020030705 -0.01153659 0.011289167
0003c0 c3 0a a4 bc b2 75 62 3c 27 22 07 bd 9e 5d 82 3c
       -0.020024663 0.013822006 -0.032991555 0.01591378
0003d0 d1 58 5c bc c8 0f 79 bb be f3 96 3b e4 d8 33 bb
       -0.01344891 -0.003800379 0.004606693 -0.002744251
0003e0 b4 3c 2b bb b5 a7 06 bd 5e f3 85 bd 7e 1a 0a bc
       -0.0026128711 -0.03287478 -0.06540559 -0.008429168
0003f0 1f 16 c4 bc 60 1a 94 3b 6a 38 26 3c b8 1c 43 3c
       -0.02393633 0.0045197457 0.010145286 0.011908703

p_fc2.weight f4 [256, 256]
000000 73 2e fa bd 08 ca 03 3c ab 61 71 3d 92 ba c4 bd
       -0.12215891 0.0080437735 0.058931034 -0.09605898
000010 03 88 2e bd 7f 92 0b 3d b4 b1 d1 bc dd c8 c0 3d
       -0.04261018 0.034075256 -0.02559743 0.09413312
000020 19 46 1b 3e a0 18 03 3e 42 1e b1 ba 33 4c 4f 3d
       0.15163459 0.12802362 -0.0013513046 0.05060978
000030 a7 73 2b be 2f d7 cd 3d 36 30 40 bd 4d 0b eb 3d
       -0.16743337 0.10050809 -0.046920978 0.11476765
000040 cd e1 ae 3d 44 42 11 3d e3 11 9a bd 23 e5 1d bd
       0.08539162 0.035463586 -0.07522943 -0.0385486
000050 39 81 81 3d ee b0 89 3d c9 6d 25 bd 38 aa 4c bb
       0.063234754 0.067232 -0.040387902 -0.0031229388
000060 e6 29 28 be 6b 10 eb bc d3 2d 23 3e 27 08 ec 3d
       -0.16422233 -0.028694352 0.1593545 0.115249924
000070 ee c5 b4 3d bd 8c 43 3d f4 f6 23 3e 12 ba 29 3d
       0.088268146 0.04774164 0.16012174 0.041437216
000080 67 56 f7 3b 75 71 be bd aa 7a cd 3b 4b 2a 21 bc
       0.0075481418 -0.09298984 0.006270726 -0.009836744
000090 8d 47 12 bc 03 fc a7 3c 7e 61 1f 3e c1 01 c7 3b
       -0.008928192 0.02050591 0.15564534 0.006073207
0000a0 22 73 62 bd aa ed 98 bc 28 9a 47 be cd 24 bc 3d
       -0.05528558 -0.018668015 -0.194924 0.09186707
0000b0 1e 3e ba bd dc 46 d3 bd 77 fd 3d 3e 54 f1 a1 3d
       -0.09093879 -0.1031625 0.1855372 0.07907358
0000c0 91 b4 6a ba 36 6d 38 3d 28 e7 10 bd 93 eb 2c bc
       -0.0008953298 0.045026027 -0.035376698 -0.010554212
0000d0 b7 88 34 bd 1c 25 fc 3d 20 ad 29 3d 49 c5 2b 3e
       -0.044075694 0.123117656 0.04142487 0.16774477
0000e0 a5 b6 0c bc 37 32 6c 3d c3 8f af 3b 59 0f 0a 3b
       -0.008588468 0.057665076 0.005357714 0.0021066277
0000f0 3f 3a 83 bd 13 f8 de bd 36 eb 88 bc 57 00 ea bd
       -0.06407594 -0.1088716 -0.01671372 -0.11425846
000100 cf 1a b6 3c 7b 5d ff bc e0 99 06 be ee 57 9b 3c
       0.02222958 -0.031172505 -0.13144636 0.018962827
000110 11 95 39 bd 8d 0b f4 3b 01 13 58 be 93 79 26 3d
       -0.045308176 0.007447666 -0.21101 0.040643286
000120 c4 7f ae bd d1 bc 43 bd 7c 99 dc 3d eb 66 92 bd
       -0.08520463 -0.04778749 0.10771462 -0.07148536
000130 e5 e6 b9 3d 3b e8 93 bc c9 93 5c bd 0c f9 f8 3d
       0.09077243 -0.018055072 -0.053851876 0.12156877
000140 57 df 29 3e 26 82 20 3e a2 5e 0a 3e 92 26 95 3d
       0.16589104 0.15674648 0.13512662 0.07282747
000150 72 8c 04 3e ab 7a 05 3e 8e e8 89 3a 85 d9 86 3d
       0.129442 0.13035075 0.0010521577 0.06584457
000160 b5 e1 0e 3e 80 c1 79 be df 08 54 be 76 bb 1f be
       0.13953288 -0.2439022 -0.20706509 -0.15598854
000170 dd 3c 15 3d 74 6f 11 be 41 78 8b 3c 93 07 a9 3d
       0.036434997 -0.14202672 0.017025115 0.08253398
000180 6c ef f3 bd 81 88 af 3d fc 45 df 3d df b1 73 be
       -0.119109005 0.08570958 0.1090202 -0.23798321
000190 c5 ab d5 38 93 88 c8 3d 8a 99 32 3c 6f 4e c6 bd
       0.00010188626 0.097916745 0.010900864 -0.09682929
0001a0 bb a7 e6 bc 5e 16 ce 3d 4a ad 88 bd 39 f9 43 3b
       -0.028156152 0.1006286 -0.06673677 0.0029903187
0001b0 9d 20 dd bc 82 4e 77 be 5b 0c 33 3e 89 df 98 bc
       -0.02699309 -0.24151042 0.17485182 -0.018661277
0001c0 5a 34 8a 3c 54 66 c8 bd fe 0b 3a bd 65 29 89 3d
       0.016870666 -0.097851425 -0.045421593 0.066973485
0001d0 24 26 f1 39 8d 5e f3 bd 0e 8f 1a bd c6 de a3 3c
       0.0004599552 -0.118832685 -0.037734084 0.020003688
0001e0 f0 9f dc bd ea 7d 6f 3d d2 a0 d1 bd a3 74 54 3d
       -0.10772693 0.05846969 -0.10235752 0.051869046
0001f0 c2 bb 95 3d 3e 09 88 bd 83 b4 05 3e 58 d3 78 3b
       0.073112026 -0.06642388 0.13057141 0.0037967768
000200 a7 86 e0 3d 0e a1 eb 3d bc e4 31 bd bb 35 e3 3c
       0.10963183 0.11505328 -0.04343103 0.027735582
000210 41 82 ee bd c7 b6 07 b9 9e 79 64 3b 87 d3 b8 3d
       -0.11645938 -0.00012942693 0.0034862529 0.09024721
000220 b5 62 85 39 ba 2c 42 bd 46 85 df bd c5 71 96 bd
       0.0002544128 -0.047405936 -0.10914092 -0.073459186
000230 69 2a ac 3d 8a 04 a4 bc a8 c4 4f be 23 31 e3 3d
       0.084065266 -0.020021696 -0.20289862 0.110933565
000240 44 4e 5e 3d af 20 02 3d a5 85 f2 3d c7 a3 25 bd
       0.05427386 0.03176945 0.11841897 -0.040439393
000250 17 36 bc bd 48 c9 06 be a1 30 be 3d 81 23 5e bd
       -0.09190004 -0.1316272 0.09286619 -0.054233078
000260 24 6d 75 3d b9 a2 61 bd 6c f9 a2 bd 5f 90 9c 3d
       0.059918538 -0.055086825 -0.0795773 0.07644724
000270 d6 bc 0e 3e bb ee 92 3d e9 c9 31 bc e1 c0 23 3e
       0.13939223 0.071744405 -0.010851362 0.15991546
000280 2e d7 b0 bd 56 35 9d bd 61 12 ec 3d f5 47 16 3e
       -0.08634792 -0.07676189 0.11526943 0.14675887
000290 6d 08 0f 3e 49 c2 ba 3d ea ab 29 3d dd 11 eb bd
       0.13968058 0.09119088 0.041423716 -0.114780165
0002a0 e1 f7 cd 3b 57 d1 f5 3d 54 2f 96 3d b9 4e 15 bd
       0.006285653 0.12002819 0.07333246 -0.03645203
0002b0 73 10 7b 3d 88 a2 11 bd 1a 66 1d 3d 1b 5e 60 bc
       0.061294984 -0.035555393 0.03842745 -0.0136943115
0002c0 d6 e9 bb 3b 35 99 08 bd e9 b1 b1 3d 6b 52 10 bd
       0.0057346625 -0.033349235 0.08676512 -0.03523485
0002d0 64 72 b2 3d 45 9b be 3c 9b 13 93 bd 00 4d 16 bd
       0.087132245 0.023267398 -0.07181474 -0.036694527
0002e0 c8 ad f7 3c 5e f5 4a 3b 2f d0 3e be 8b 0d 45 3d
       0.030234233 0.0030969004 -0.18634103 0.04810862
0002f0 0a f4 ec bd 5f ba b0 bd 4a 9c 12 bd 77 1e a0 3c
       -0.11569984 -0.086292975 -0.03579358 0.019545777
000300 28 b6 0b bd d7 f5 e5 bd 26 3f 37 bd 39 77 1c be
       -0.034109265 -0.11228531 -0.044737957 -0.15279855
000310 3c a1 84 3d 34 8e a4 bc 2a 41 12 be bc 67 41 bd
       0.064760655 -0.020087339 -0.1428267 -0.04721807
000320 60 42 10 bc dc 60 42 be 55 28 ed 3b d6 16 4f be
       -0.0088048875 -0.18982261 0.007237474 -0.20223555
000330 65 72 b2 bb d1 fa 88 bd f1 a3 57 ba a4 cf e7 3c
       -0.005445766 -0.066884644 -0.00082260283 0.028297253
000340 ee 9c d3 3d 9f ab 04 be cf 4c 04 3d 0c 1d e2 3c
       0.10332666 -0.12956093 0.032299813 0.027601741
000350 0e f7 cd bd 8c 62 53 bc 6e d9 9a bd 0d 3b 8b 3d
       -0.100568876 -0.012901913 -0.07561003 0.067983724
000360 9c 7b ef 3d 3e 88 b6 bc 4c b3 a7 3d 5c 52 ab bd
       0.116934985 -0.022281762 0.08188495 -0.08365318
000370 71 4a a5 3d 85 88 a0 3b 1e 82 9c bc cb f6 20 3d
       0.08070839 0.004899087 -0.019105013 0.03929786
000380 05 14 2c 3e dc 81 aa bb 4c 93 18 bd 25 f8 a0 bd
       0.16804512 -0.0052034687 -0.03724985 -0.0785983
000390 5e e4 25 3e bd 98 fa 3c 69 1e 3f be a6 15 ea 3d
       0.16200396 0.03059041 -0.18663944 0.1142991
0003a0 d9 db 4d 3d 56 d0 09 bc c2 bc 01 bd c5 b8 1d 3d
       0.05025849 -0.008411488 -0.031674154 0.038506288
0003b0 96 f5 5a bc e1 6c 1a be 18 61 4c 3d 26 50 27 be
       -0.013364216 -0.15080597 0.049897283 -0.16339168
0003c0 a5 18 72 3d 57 fb 66 bd e1 eb 25 bd cb 41 3f 3d
       0.059105534 -0.05639204 -0.040508155 0.046693604
0003d0 7d 1a d2 3c 12 2a 73 bd 79 5a ed 3d 1a 7c ca 3d
       0.025647396 -0.059366293 0.11589522 0.09886952
0003e0 24 55 6d bd 4d a3 55 3e 6a 00 01 3e 82 2b 5b be
       -0.057942525 0.20863076 0.12597814 -0.21403316
0003f0 8b 61 b6 3d 72 ac d4 3d 8f 6e 61 bd 6b 1e 59 3d
       0.089053236 0.10384454 -0.055037078 0.053007524

p_fc2.bias f4 [256]
000000 b5 c9 c5 bb a5 7e 39 bc be 70 b1 3c f5 05 be bc
       -0.0060360082 -0.011321698 0.021660205 -0.0231962
000010 05 ff 4a bc 68 8f f2 3b cd eb 9c 3c 3e a5 a4 bc
       -0.012389903 0.0074023493 0.019155407 -0.020098325
000020 6f a5 5a 3d bc cb 63 3c 91 b4 e1 3c eb 0e 07 bc
       0.053380426 0.0139035545 0.027551921 -0.008243303
000030 eb c2 53 3c 26 b0 0c 3d e1 d7 c2 3c 5d ee 38 3c
       0.01292489 0.034347676 0.02378458 0.011287299
000040 71 e2 c9 3b b4 8d 2e bd bb 86 8e 3c b1 e3 08 bd
       0.006161027 -0.042615607 0.017398229 -0.03342027
000050 2c 18 ce 3b 27 ea d8 3c 2d f2 0a 3d 0b 81 69 3d
       0.0062895026 0.02647884 0.033922363 0.05700783
000060 d3 86 21 3d ac c3 99 bc 33 2d 3a bd 0e 71 31 3a
       0.03943522 -0.018770061 -0.04545326 0.00067688606
000070 df 6b b5 3c 80 82 b3 bd 96 aa 28 3c f6 52 95 bc
       0.022146164 -0.08765125 0.010294577 -0.018228035
000080 2d fd bc bc a2 32 d6 3c e0 c7 29 bc 4a f9 7d 3c
       -0.023069942 0.02614719 -0.010362595 0.01550133
000090 19 e5 27 bd 30 36 d4 39 96 35 f5 3b 58 70 94 3c
       -0.04098997 0.00040476164 0.0074831946 0.018119976
0000a0 82 6a ac 3c ea 8b fe ba a8 30 3f bc 41 81 e7 3c
       0.02104688 -0.001942036 -0.011669315 0.028259875
0000b0 43 f0 c4 bc a5 e7 f3 3c 29 30 25 bc 34 1a ed 3c
       -0.024040347 0.029773543 -0.010082283 0.028943159
0000c0 6d 46 03 bd 24 44 b5 3c c3 1d 8d bc 7d a9 93 39
       -0.032049585 0.022127219 -0.017226106 0.00028164304
0000d0 a9 40 4c 3d 23 62 c7 3c 43 18 3a 3d 13 e6 d0 bc
       0.049866352 0.024338787 0.045433294 -0.025500333
0000e0 00 46 17 3d 2b c5 68 bc 87 04 21 bd 85 d6 1c 3d
       0.03693199 -0.014207165 -0.03931096 0.03829052
0000f0 98 49 c9 3c 69 92 87 3c 71 f1 6e bb 35 9d 70 bb
       0.024571225 0.016549306 -0.0036459828 -0.0036714796
000100 04 ca 2e b9 de 23 01 bc cd 88 b1 3b 00 fe 03 bd
       -0.0001666919 -0.007882087 0.0054179193 -0.032224655
000110 32 20 a3 3b 30 42 a7 bc 09 0f aa bb af c1 dc 3c
       0.004978203 -0.020417303 -0.0051897806 0.026947824
000120 fd e3 43 3c c9 4c 64 3d 1d ac 2f bd ee be 75 bb
       0.011956212 0.05573729 -0.04288875 -0.0037497836
000130 46 62 42 3d e7 8c 33 bc 34 21 df 3b a1 ea 56 3d
       0.047457002 -0.010958887 0.006809378 0.052469853
000140 25 4e ba 3c 1b 87 2a 3c 2a 54 1d bc b9 cb 02 bd
       0.02274234 0.010408188 -0.009602586 -0.031932566
000150 28 89 b8 3c b6 92 dc 3c ed bd 71 3c 18 bb 2e bd
       0.022526339 0.026925426 0.0147547545 -0.042658895
000160 59 b9 32 bc 87 68 97 bc b3 c5 ac 3c 56 2e 22 bd
       -0.010908448 -0.01848246 0.021090364 -0.03959497
000170 43 1b 22 bc c0 d8 a4 bb 65 dc e9 3c d3 e0 53 3c
       -0.009894195 -0.0050307214 0.028547475 0.01293202
000180 a3 20 64 3c 91 48 94 3c 0f f4 0d bc 5a 24 eb 3c
       0.013923797 0.018101009 -0.008664145 0.028703857
000190 6e b2 86 bc fd e0 e4 3b af ac aa 3c 4a 9c 3e 3b
       -0.016442504 0.0069848285 0.020834295 0.0029084855
0001a0 58 09 06 bd 9c 9a 53 3d 68 35 06 3c e3 f3 cc bc
       -0.032723755 0.05166112 0.008191444 -0.025018638
0001b0 c9 c5 9a bc b3 4a ee 3b 9d 19 c2 bc c9 71 48 bc
       -0.01889314 0.0072720884 -0.023693854 -0.01223416
0001c0 cb b0 d2 3b b1 01 e2 3c b6 8b e0 3c e1 2a 49 3d
       0.006429767 0.027588697 0.02741037 0.049113158
0001d0 91 81 4c 3d 4a 34 25 3d 2c b2 14 3d 7c ff 33 3c
       0.04992825 0.04033307 0.03630273 0.010986205
0001e0 99 bd 85 3c 51 50 3f bc 14 90 19 3c 30 90 b5 bb
       0.016325759 -0.011676864 0.00937273 -0.00554087
0001f0 28 f0 29 3d 41 8b 82 3c 5e e7 f4 3c 9c ef 2f bd
       0.041488796 0.015935542 0.02989548 -0.04295312
000200 9a 85 0c 3d 86 e5 99 bc fe 24 72 b8 7c 2b c6 bb
       0.0343071 -0.018786203 -5.7731748e-05 -0.006047664
000210 a1 98 bd bc f3 74 16 3d 06 6c 1f 3d 11 2a 21 bc
       -0.023144068 0.036732625 0.03892138 -0.00983669
000220 c1 c3 10 ba 86 3b 6c 3d 17 0a 45 3d be 12 dd bc
       -0.00055223337 0.057673953 0.048105326 -0.026986476
000230 3d 43 1a 3d 19 3f 1a 3d 61 ed 73 3c 17 8b 25 bc
       0.03766178 0.03765783 0.0148881385 -0.010103962
000240 a2 1a 1d bd d8 43 76 3b a0 1b aa 3c 66 7d 01 bd
       -0.038355477 0.003757706 0.020765126 -0.03161373
000250 0a 7b 06 3b e5 d7 11 bd c4 56 44 3c b7 4f 0f bc
       0.0020520114 -0.035606284 0.011983577 -0.008747033
000260 af f8 f9 bb 1e aa 08 3b e8 d8 39 3c 95 8b 96 bb
       -0.0076285223 0.002085335 0.011343218 -0.004594276
000270 78 b8 1d 3d 95 dc bd 3c 93 50 45 3d c9 2d 86 bc
       0.038506 0.02317647 0.048172545 -0.016379254
000280 0f b5 4c 3c 66 8f df bb 37 9b 8b bc 65 ed cf bb
       0.01249434 -0.0068225143 -0.017041786 -0.0063454383
000290 3c 42 e6 3c ab cc c9 bb 86 b3 20 3d fe 81 ae 3c
       0.028107755 -0.0061584315 0.039233707 0.02130222
0002a0 93 a0 1e 3c 1f 26 70 3b 03 80 50 bd 88 13 ba 3c
       0.009681839 0.0036643816 -0.05090333 0.022714391
0002b0 30 ac 8e bc 0d b5 53 3a 0b 19 78 3c c4 3d 5e bc
       -0.01741609 0.000807599 0.015142689 -0.013564531
0002c0 c1 f6 de ba 7d 74 bc bc c8 a8 06 3c 93 98 cb bc
       -0.0017010794 -0.023004765 0.0082189515 -0.024853026
0002d0 7c 91 72 bd 43 29 3b 3c 35 54 3f 3d 38 31 7b 3c
       -0.059220776 0.011423412 0.046711165 0.015331559
0002e0 31 77 de 3c 6d c1 4e bc 1e 7b 29 3c 84 28 3f 3c
       0.027156444 -0.0126193585 0.010344295 0.0116673745
0002f0 83 8c 0e 3d cc 54 ce bc 81 2e a1 3c 03 f8 39 bc
       0.03480197 -0.025186919 0.019675495 -0.0113506345
000300 1c 45 aa 3c 33 35 0a 3d 0e cd 0e bd f2 91 cf 3c
       0.020784907 0.03374214 -0.034863524 0.025338147
000310 ca 82 f2 3b 60 bb 06 3d 59 9d 53 ba 7c cb 4e 3c
       0.007400845 0.03289354 -0.0008072458 0.012621757
000320 21 40 ab 3c 1f 99 fe 3c 66 47 e0 bc 75 9b ec 3b
       0.020904602 0.031078873 -0.027377795 0.0072206804
000330 9d 18 a3 3c da c1 17 bd f9 a1 94 bc 37 8e 2f bc
       0.019909197 -0.037050106 -0.01814364 -0.010715059
000340 48 e7 3f bc 45 a6 f2 3c 38 18 d1 bb 44 83 2b 3d
       -0.011712857 0.0296203 -0.006381061 0.04187323
000350 40 6c 2e 3d 54 dd 61 3d eb 60 3f bb 30 71 ec 3c
       0.042583704 0.055142716 -0.0029202055 0.028862566
000360 76 3d 80 bc 5b dd 7f 3c 0c 5b 30 3b ce 96 6f 3c
       -0.015654307 0.01561674 0.0026909737 0.014623357
000370 b0 9f f8 bc f6 02 28 3d 65 fc fc bc 22 d6 8b bc
       -0.030349582 0.04101845 -0.03088207 -0.01706988
000380 33 b4 95 ba 92 30 8f bd 41 37 06 3d dc 6f 85 bc
       -0.0011421501 -0.06991686 0.032767538 -0.01628869
000390 3f 1e 5d 3c b3 37 92 3c 24 65 1f 3b 81 65 eb 3c
       0.013495981 0.017848825 0.002432176 0.028734924
0003a0 24 f3 82 3c 84 36 8a bc 37 ec 8f 3c b0 02 e8 bc
       0.01598508 -0.016871698 0.01756869 -0.028321594
0003b0 37 52 46 3d cb fe a0 bc 94 08 cb 3c b1 6f b5 3b
       0.04841825 -0.019652745 0.024784364 0.0055369963
0003c0 15 b0 02 3c 16 36 12 bd b2 c7 b6 3c 14 9a e7 3c
       0.007976552 -0.03569611 0.022312019 0.028271712
0003d0 4c 40 9d 3c 02 57 17 bc c1 f0 d0 bb 04 d0 aa bc
       0.019195698 -0.009237053 -0.0063763564 -0.020851143
0003e0 a4 88 08 3c b6 75 04 bd 4f 31 c7 bc 65 bd 47 bc
       0.008333359 -0.03233882 -0.024315504 -0.012191151
0003f0 7d 9b 1d 3d 56 98 3b 3c ed 40 c6 3b a3 2a 88 3c
       0.038478363 0.011449894 0.00605022 0.016621893

p_fc3.weight f4 [50, 256]
000000 10 ec 1c be 0b 97 73 bc d0 da dc bb c7 30 87 bc
       -0.15324426 -0.014867554 -0.0067399517 -0.016502751
000010 86 cc b6 bd b4 23 bf 3d 81 37 bd 3c e2 8a 26 be
       -0.089257285 0.09332982 0.023097755 -0.16263917
000020 72 31 f8 3d 3e a7 18 3e 7d d5 c0 3c c1 5c aa 3d
       0.12118806 0.14907548 0.0235393 0.08318473
000030 14 ac c3 3d 0a b1 1c 3e ac 88 54 3e 5e 7e 47 3e
       0.09554306 0.1530191 0.20755261 0.19481799
000040 5d a1 17 3e 06 b0 9c 3d ee 05 e6 3d 83 88 a9 be
       0.14807649 0.07650761 0.112316 -0.33111963
000050 bd 7a 5b be f2 59 58 3e 7b 30 0b 3e 27 04 3a be
       -0.2143354 0.21128061 0.13592713 -0.18165646
000060 d6 d3 fc bd 98 df 4a 3e b3 72 f6 bc 2e 0d f5 3d
       -0.12345092 0.19811857 -0.03008399 0.119654045
000070 b3 63 16 3e 4c 7e 26 3d b0 f9 cf 3d 52 da 32 3d
       0.1468647 0.04064779 0.10155046 0.043665238
000080 6e cd 97 bc b3 21 be 3d 5a 94 c0 bc 02 90 13 3e
       -0.018530574 0.09283771 -0.02350824 0.14410403
000090 b7 82 89 bd 87 71 15 be 2c 13 a4 bd c9 6b 7a bc
       -0.06714385 -0.14594088 -0.08011469 -0.015284487
0000a0 1e f5 ae 3e 31 28 66 bd 46 54 52 3e b5 b9 85 3d
       0.34171385 -0.056190673 0.2053996 0.065295614
0000b0 77 70 7a be 90 76 e6 3d b1 5d 5f 3e 46 77 8b be
       -0.24456964 0.11253083 0.21813084 -0.27239436
0000c0 cf d3 9d bd 55 6e 5a 3d 54 4f ed bd fc 25 2f 3e
       -0.07706415 0.053327877 -0.11587396 0.17104334
0000d0 40 2c e1 3d 3f 11 3f 3e b7 5e 95 3d eb 7b b1 bd
       0.10994768 0.18658923 0.07293456 -0.086662136
0000e0 da a1 89 bb 94 16 6f 3d e5 d8 b9 3d 4f 1a 0d be
       -0.0042002024 0.05837114 0.090745725 -0.13779567
0000f0 ef 05 76 3e 59 05 02 3c 57 95 d9 bc 7c 62 8c bd
       0.24025701 0.007935845 -0.026560469 -0.06854722
000100 96 92 79 3d d2 43 60 be c6 e2 cb bd 3d 3c 51 bc
       0.06093081 -0.21900871 -0.09955363 -0.01277071
000110 f4 82 48 3e 60 21 5f 3e 74 24 f2 bd a2 d7 63 be
       0.19581205 0.21790075 -0.11823359 -0.22250226
000120 aa 86 57 3e 46 ae a1 3d 58 aa 97 3d af fc 44 be
       0.21047464 0.07894568 0.07405537 -0.19237016
000130 a1 8f 69 bd 00 6e 9a be 21 fa 16 bd 24 15 80 be
       -0.05702174 -0.30162048 -0.036859635 -0.2501613
000140 8e 44 c6 3d 8b 7e b4 3d 7a ca 6e 3d 2f 1c 51 3e
       0.096810445 0.08813199 0.058298565 0.20420907
000150 0f a4 11 3e ce bc 46 bd c6 83 c1 3d 26 54 68 3d
       0.1422274 -0.048519902 0.09448962 0.056720875
000160 b3 db 16 be cf 2e 1b 3e ea e8 52 be 2c 02 91 be
       -0.14732246 0.15154575 -0.20596662 -0.2832197
000170 d3 70 2e bd 29 b6 05 3e 12 f3 18 be 49 ab 93 bd
       -0.042588066 0.1305777 -0.14936474 -0.072104044
000180 77 e5 47 be 9c 11 3c 3e 1c 8a ab bd ab fe ca 3c
       -0.19521128 0.18366092 -0.08375952 0.024779638
000190 bc 89 5a 3e b1 8d aa bd 69 83 7a bd e4 af 62 3d
       0.21341604 -0.08327807 -0.06116048 0.055343524
0001a0 70 91 a2 bd 1e b2 8b 3e 27 c3 0e be ea a8 32 be
       -0.07937896 0.2728433 -0.13941632 -0.17447248
0001b0 be d4 97 3a 87 e1 57 bd f0 40 a0 be b2 92 54 be
       0.0011583788 -0.052705314 -0.31299543 -0.20759085
0001c0 e0 4e fd bd 07 e8 8f 3a b3 82 9c 3e de c7 49 be
       -0.1236856 0.0010979184 0.30568466 -0.1970515
0001d0 a4 f1 cc bd 04 26 38 3e 48 4e 3c 3d 8f 92 5a be
       -0.10007027 0.17983252 0.045973092 -0.2134497
0001e0 ee 5a 54 bd 10 8f 18 be 8d 27 ac 3e 81 80 23 3e
       -0.05184453 -0.14898324 0.33623925 0.15966989
0001f0 1a aa 94 3d 08 3e 4b be 18 c7 4a bb 9e e0 6a be
       0.07259007 -0.19847882 -0.0030941423 -0.22937247
000200 82 12 4e 3e 62 9a 8f 3e e6 f8 a5 be 48 7d 12 be
       0.20124248 0.28047472 -0.32416457 -0.14305604
000210 c9 6c ec bd 9b a7 d1 bb 9f e6 c8 bd ca 78 78 3d
       -0.115441866 -0.006398154 -0.098096125 0.06066207
000220 f1 96 5a be 85 bf a2 bd 6c c9 32 3e c3 e4 8c bd
       -0.21346642 -0.07946686 0.17459649 -0.0687957
000230 f9 34 e1 bc 09 8c 0a 3e a0 41 58 3d b0 45 54 3d
       -0.02749108 0.13529982 0.05279696 0.05182427
000240 fe 4c 88 be 55 fa 8d 3e fe 1c 6f 3e 8f b7 4e 3e
       -0.2662124 0.2773005 0.23350903 0.2018721
000250 a9 1a 91 be 6a 5c b2 be 90 eb 0b be b3 4b a3 be
       -0.28340653 -0.3483613 -0.13664079 -0.3189369
000260 43 19 18 be 4c d7 98 bd d1 50 83 3e ef a9 1d 3e
       -0.14853387 -0.074629396 0.25647596 0.15396856
000270 28 17 25 3e 6c 50 c7 3d 1b 5f c1 bd ba ad d0 bd
       0.16122115 0.09732136 -0.09441968 -0.10189386
000280 79 32 d7 bc 2c 1d 8b 3e ce da 91 bd 00 ea e0 bd
       -0.026269184 0.27170694 -0.07121812 -0.10982132
000290 91 e4 2c bd aa b1 de 3d 72 f4 5e be 8e 40 6d bd
       -0.042210165 0.108737305 -0.21772936 -0.057922892
0002a0 69 2a 04 be 6b c9 8c bc d1 d7 f4 3d 4c 8c af bb
       -0.12906803 -0.017185887 0.11955226 -0.005357301
0002b0 b5 c3 57 be b3 0e fb bd eb b2 51 bd 3f 4f ab 3c
       -0.2107075 -0.12258663 -0.05119602 0.02091181
0002c0 ce f6 20 3e 82 c6 7f 3d 71 5b 4e 3e 62 86 e1 bd
       0.15719149 0.06244517 0.2015207 -0.110119596
0002d0 28 36 0f 3e 2a e5 a7 bd cb d1 14 bc fc 2e 86 3d
       0.13985503 -0.081980065 -0.009083222 0.0655193
0002e0 14 66 26 bc 2a be 85 be 41 84 2d be 6e 02 58 bd
       -0.010156173 -0.26121646 -0.16944982 -0.052736692
0002f0 47 d7 3b bb 17 c4 54 3e 04 d9 23 bc 47 57 07 bd
       -0.002866225 0.20777927 -0.010000471 -0.03304222
000300 7a 99 11 3e 77 dc cb 3d cd 50 06 3e db 77 4d be
       0.14218703 0.0995416 0.1311676 -0.20065252
000310 bb 65 45 be 89 f4 0c 3d 1e 6d 3f 3e c3 66 19 be
       -0.19277088 0.034412894 0.18693969 -0.14980607
000320 98 7c d8 bb 40 b1 09 bd 81 c2 32 3e 78 d3 d8 bd
       -0.0066066496 -0.033616304 0.1745701 -0.105872095
000330 d2 9b 3d bd bc c8 0d 3e 0e 1a 94 be 8a 94 64 3e
       -0.04629118 0.13846105 -0.28926128 0.22322288
000340 c2 d5 87 3d ca 3e 3e be 0e ea 1b 3e 23 bc af 3d
       0.06632568 -0.1857864 0.15226004 0.08580806
000350 93 88 a0 3e 4a 43 66 3e 47 7f f7 bd 82 0e 11 3e
       0.31354198 0.22486606 -0.12084823 0.1416569
000360 29 f5 db bd 93 f5 ee 3b a3 11 4f 3e 39 b1 7e 3e
       -0.1074012 0.0072924583 0.20221572 0.24872293
000370 f9 6d 38 be 62 14 83 be 4a 1e 94 bd 51 ff 0e bd
       -0.18010701 -0.25601488 -0.0723234 -0.034911457
000380 56 bf 23 bd 7f d7 09 be 5b 88 ce bc 54 75 30 3e
       -0.039977394 -0.13461111 -0.025211504 0.17232257
000390 8b 37 ec 3d 4e ad ba bd c5 9f c8 3d b3 4c 89 be
       0.115340315 -0.091150865 0.097960986 -0.2681633
0003a0 50 de 88 3e ec 5c 46 3d 28 a7 0d 3c ef 25 18 be
       0.2673211 0.04842846 0.00864581 -0.1485822
0003b0 73 42 74 3e c2 5c fc bd c9 67 f1 bd 94 dc 08 be
       0.23853473 -0.1232238 -0.117873736 -0.13365394
0003c0 11 8e 29 bd 23 e2 95 3e ef 9f e9 bd b2 70 84 3d
       -0.04139525 0.2927409 -0.11407458 0.064668074
0003d0 e9 9f b5 bd 21 08 f5 3d 73 93 58 3d 21 1d b6 bc
       -0.08868391 0.11964441 0.052874994 -0.022230687
0003e0 a6 45 32 be b9 fc eb bc 8e 5d d5 bd 26 1f a0 3d
       -0.17409381 -0.028807031 -0.10418235 0.07818441
0003f0 9e da 8e be 8b ce 2e 3e 4e 5b 3a be e8 4f 00 3e
       -0.27901167 0.17070977 -0.18198892 0.12530482

p_fc3.bias f4 [50]
000000 2f df 15 3c 5a 4f ba 3c 1e e1 a2 bd d5 62 b8 bd
       0.009147449 0.022742916 -0.07953094 -0.09003226
000010 ba 03 13 3d e8 dd 34 bd fd c8 33 3d cb d3 23 3d
       0.035892226 -0.04415694 0.04389285 0.039996903
000020 0f 3c 95 3d 64 8d 7f bd da a6 c3 bb 3c 7e 2c bc
       0.07286846 -0.0623907 -0.005970818 -0.0105281435
000030 0d a6 63 3d 1f 23 4b bc 42 e0 b1 3c ef c8 91 3d
       0.05557828 -0.01239851 0.02171338 0.07118403
000040 2e 1d db 3c 0b 0a 59 3a a6 ef 0b 3d 5f 29 af 3b
       0.026747312 0.00082793896 0.034164093 0.005345508
000050 c2 0f 9e bc e1 9b a6 3c 17 4c 17 bd 4b b8 fc 3c
       -0.019294623 0.020338 -0.0369378 0.030849596
000060 1c 79 c6 bb a4 8c ac 3c b0 4d 85 bb 42 00 a0 bd
       -0.006056918 0.021063156 -0.004068099 -0.07812549
000070 3d 13 e3 bc 05 3e 13 bc 1a 07 f0 bc 78 04 f8 3c
       -0.027719134 -0.008986955 -0.029300261 0.030275568
000080 e0 74 fe bc 1c 22 af 3c b9 3f 6d bc 12 6e 0c bd
       -0.03106159 0.02137857 -0.014480525 -0.03428466
000090 a4 2c 18 3b 05 3c 54 3d d6 0e 08 3c 49 2d 83 3c
       0.0023219967 0.05181505 0.008304318 0.016012805
0000a0 d0 3d a0 bc 67 73 ac bc d3 29 7a 3c c5 6c 12 bd
       -0.019560724 -0.021051122 0.015268761 -0.035748262
0000b0 f5 af 42 bd 3a dd dd 3c 0c 4d 1c bd 7e 83 13 3d
       -0.047531087 0.027083028 -0.038159415 0.036014073
0000c0 85 d8 0d bc d1 bd f9 3c
       -0.008657579 0.03048602

v_fc1.weight f4 [256, 136]
000000 fb 67 40 3d 04 ac 2c be 7c 7c 95 3c 03 7f 1f be
       0.046974164 -0.16862494 0.018247835 -0.15575795
000010 17 5b 04 3d 32 ba 3e bd b5 72 62 be 61 4b 08 3e
       0.032313433 -0.04656429 -0.2211407 0.13310005
000020 ad 23 e3 3d cf aa 0b bd c9 57 5f 3d e8 96 81 3d
       0.11090789 -0.034098443 0.054527078 0.06327611
000030 82 f1 45 be cf 33 d6 3c f5 b4 55 3d 89 d5 d9 3d
       -0.19330409 0.026147751 0.052174527 0.10636432
000040 b6 b0 0b be 10 de c8 3c 16 27 41 3e 5b a2 f1 bb
       -0.13641629 0.02451995 0.18862566 -0.0073740906
000050 d6 2a 26 3c 70 a8 13 bd 57 ea 00 be 5f 6b 61 bd
       0.010142049 -0.036049306 -0.12589394 -0.055034038
000060 bc bd 45 bc a5 cb a0 3d c7 c0 84 bd c3 81 1c 3e
       -0.012069162 0.07851342 -0.06482082 0.15283875
000070 82 73 a4 bd 87 71 b0 3c 8d b1 3b 3f ef e8 21 3e
       -0.08029844 0.021538509 0.73317796 0.15811513
000080 a3 40 f9 bb f5 fd 68 3d a2 18 15 3e f8 55 66 3b
       -0.0076065823 0.056882817 0.14560178 0.0035146456
000090 82 14 52 3d 72 aa 8b 3c d7 6d cc bc 7b 24 fa 3d
       0.05128909 0.017049048 -0.02495472 0.12213989
0000a0 10 83 8b bd 6a eb 3c 3d a2 5c 18 be 05 37 90 3d
       -0.068121076 0.046122946 -0.14879087 0.07041744
0000b0 f6 fb cd 3c 8e 4e 0e bd 96 1d 6c 3d 8e f4 91 bd
       0.025144558 -0.034742884 0.057645403 -0.07126723
0000c0 c3 cc a9 bd 2b a7 e6 3b 87 72 69 bd e2 1b 84 3c
       -0.08291008 0.007038971 -0.056993987 0.016126577
0000d0 82 70 20 be 81 c6 5a 3d 0d f2 d3 3d e2 0f 67 bd
       -0.15667918 0.053411964 0.10348902 -0.05641163
0000e0 b3 6a c4 3c de 2b e9 3d 7d 02 d1 3d ba f0 14 3e
       0.02397666 0.1138532 0.10205553 0.14544955
0000f0 22 e9 e2 3d 69 56 59 3c ca 23 b6 3d 25 2e 90 3d
       0.11079623 0.013265231 0.08893545 0.07040051
000100 bd 98 f5 bb f4 d8 f4 3d e3 1e c3 be 32 2e 87 bd
       -0.0074950145 0.11955443 -0.38109502 -0.06600608
000110 d5 3f 81 3e eb b9 54 bc 12 02 a3 3c 0d b6 24 be
       0.25244012 -0.012983779 0.019898448 -0.16085072
000120 63 60 73 3b 4b ba c0 3b 4a d3 3e be 58 ea f0 3c
       0.0037136308 0.005881583 -0.18635288 0.029408619
000130 b4 a5 fa 3d a7 31 94 be f5 f9 da bd 12 94 5f 3d
       0.122386366 -0.28944132 -0.10692207 0.05458457
000140 05 61 a3 be 83 2f 5f be 98 6e c9 bd fe 0f 1e 3e
       -0.31909958 -0.21795468 -0.09835547 0.15435788
000150 26 95 99 bd 52 d7 00 3c c4 99 b3 3d 28 93 8f 3d
       -0.07499151 0.007863836 0.08769563 0.0701049
000160 56 8d ac 3b 61 d2 41 bd 14 27 87 bb d8 80 d0 3d
       0.005265872 -0.047319774 -0.0041245315 0.10180825
000170 84 de 03 be a1 35 53 bc ab e8 e7 bd 59 26 fb bd
       -0.12877852 -0.012891204 -0.11323675 -0.122631736
000180 7c 0a c8 be c4 52 be bc df 20 1c 3f 0b 1f bc be
       -0.390705 -0.023232825 0.6098766 -0.36742434
000190 16 f1 8f bd ad bd 10 3f 37 53 10 be 24 72 88 3d
       -0.07028405 0.5653942 -0.14094244 0.066623956
0001a0 cb 07 a7 3e 0a 28 16 be 01 7e d9 bc 61 9c 26 3e
       0.32623133 -0.14663711 -0.026549341 0.16270591
0001b0 46 c9 ab bd 5e 79 02 3e 3c b1 95 3e 55 2a 56 be
       -0.08387999 0.1274161 0.29236782 -0.20914586
0001c0 cc 69 b6 3c 59 20 4c 3e e3 07 f6 bd d0 1b 45 bd
       0.022267245 0.19934215 -0.12013223 -0.048122227
0001d0 17 2f 22 3e e3 bb 3e 3d 5b 79 1c bd f9 10 9f bc
       0.15838276 0.0465659 -0.03820167 -0.019417273
0001e0 1e b2 ce bd ba fa e7 bc ef 7f 83 3e 06 27 3a 3d
       -0.10092567 -0.028317798 0.25683543 0.045447372
0001f0 54 a1 83 3d 7c 60 20 3d 36 4f b3 bc 4a 44 4c 3d
       0.06427255 0.039154515 -0.021888357 0.049869813
000200 d6 20 5a 3c 5b 95 4b bd a8 f2 90 3d 4a 7b 40 bd
       0.013313493 -0.049702983 0.07077533 -0.046992578
000210 e9 a8 1a bf 09 e7 e1 bc d9 d9 05 3f 66 b0 7f be
       -0.60413986 -0.027575986 0.52285534 -0.24969634
000220 01 e2 c7 bd 99 d8 f3 bb a5 89 77 3e ce 6c d2 3d
       -0.09759904 -0.007441592 0.24173601 0.10274659
000230 35 ab 05 3c b0 88 c0 bd 71 72 e3 3d c7 64 88 3d
       0.008158495 -0.09401071 0.11105812 0.06659847
000240 18 d1 6a be 53 e6 02 3e 82 94 ab 3c a2 ea 72 bd
       -0.22931325 0.12783174 0.020944837 -0.059305795
000250 84 cc e0 3d 57 73 41 3d 4c 43 8d bd f7 14 0a 3e
       0.10976508 0.047229137 -0.068976015 0.1348456
000260 4b 57 2f bc a3 7d 77 bd 5d 8b 83 3d 30 83 dc bd
       -0.010701965 -0.06042255 0.06423066 -0.107672095
000270 07 d1 f8 3d 01 c3 c1 bc 3a a6 bc 3d c2 73 05 bc
       0.12149244 -0.023652555 0.09211393 -0.008145275
000280 43 98 bb bd 6d 09 57 3c ee 0c 99 bd 9b 30 66 3d
       -0.09159901 0.013124806 -0.07473169 0.056198698
000290 8d be cc 3d 03 7a 89 bd a2 68 23 3e 48 e6 cf 3d
       0.09997282 -0.06712725 0.15957883 0.101513445
0002a0 31 9e 1f bd 80 92 44 3e fe d9 08 3e c9 e7 61 be
       -0.038969222 0.1919651 0.13364407 -0.22061075
0002b0 36 b6 31 3e a8 7a 00 3e 05 90 21 be bc d9 09 3c
       0.17354664 0.1254679 -0.15777595 0.008413728
0002c0 02 6f af 3c 83 d3 8d be 14 36 1f be 96 ab 4a 3d
       0.021415237 -0.27700433 -0.15547973 0.049480043
0002d0 24 5a ad bd 7a bd bf 3b d4 be c7 bd ce 01 91 be
       -0.084644586 0.005851445 -0.097531945 -0.2832169
0002e0 ce ab d5 bd 83 c8 d7 3d 16 34 15 3e ef d0 60 3d
       -0.1043316 0.105362915 0.1457065 0.054886755
0002f0 c8 3e ba 3d 13 6d 47 3e 70 c8 bf 3d 00 4b 00 3d
       0.09094006 0.19475202 0.09364402 0.031321526
000300 a8 31 53 be ed bf 0e 3e 31 fe ca bd d0 97 0e be
       -0.20624411 0.13940401 -0.099117644 -0.139251
000310 8e b0 50 bd ac 57 e4 bd 7d 7b 00 be 1e 95 83 3c
       -0.050949626 -0.111495346 -0.12547107 0.016062316
000320 e1 d4 e2 bd 5c 10 28 bc f5 4e 32 be 2a af 2b be
       -0.1107576 -0.010257807 -0.17412932 -0.16766039
000330 cf 57 d9 bc 53 df 69 be 10 67 a6 bc 1d f0 a9 3d
       -0.026531128 -0.22839098 -0.020312816 0.08297751
000340 de 35 62 bb 2a 5c e4 bb 4f d2 a9 3d 35 de 07 be
       -0.003451697 -0.0069689946 0.08292066 -0.13268359
000350 2e 2a 20 3c bd a3 d3 3d 52 6c 0b be 66 c3 ac 3c
       0.009775681 0.10333965 -0.1361554 0.021089267
000360 2a 32 61 3d 0a bc 48 bf 3b 64 bd bd 2c 32 83 3f
       0.05497948 -0.78411925 -0.09247633 1.0249686
000370 b7 6f c4 be 60 90 0a bd 62 11 87 3e 94 af 2c 3c
       -0.38366482 -0.033829093 0.2638045 0.010539908
000380 20 2f b1 3c 36 24 e9 3d 50 75 8f bd eb 1f 31 b9
       0.021628916 0.1138386 -0.070047975 -0.00016891926
000390 ff 74 52 3e e4 e6 0f be 3c e2 29 bd f3 df 1c 3d
       0.20552443 -0.14052922 -0.04147552 0.038299512
0003a0 51 6a 84 3e c7 fa 0c be 05 c9 0c 3e 84 5f 77 3e
       0.25862363 -0.13767539 0.13748558 0.2415753
0003b0 70 21 e3 3c 9e d1 42 3e 6d 03 09 3e fb 5f a6 3d
       0.027725905 0.19025275 0.13380213 0.081237756
0003c0 92 59 1b 3d 4c 6b 26 3e 20 23 85 3d ea 20 36 bc
       0.037927218 0.16251868 0.0650084 -0.011116246
0003d0 2e 09 68 3e 84 66 bc 3d 00 39 3b be 8d e8 a7 3d
       0.22659752 0.09199241 -0.18283463 0.081986524
0003e0 4e fe af bd fd 30 d1 bd 05 a9 52 bc 58 9f b1 bc
       -0.08593427 -0.10214422 -0.01285768 -0.021682426
0003f0 91 fe dd bd fb 80 97 38 12 73 5f 3d 9f a3 1e be
       -0.1083957 7.2242656e-05 0.0545531 -0.15492104
