model/run/max(1).pt (torch, 863294 bytes, 12 tensors)

log_std f4 [50]
00000000: 2074 1dbf a705 05bf 717a 30bf 4f9a 0ebf
00000010: 40be ffbe ddbd dbbe 320e a7be 4775 acbe
00000020: b6c1 79be 5765 ecbe 5192 12bf be3e 26bf
00000030: 87cd 00bf 727a f5be e8d4 0dbf ba99 c1be
00000040: 6715 c3be 00cc f6be 7366 36bf 7110 30bf
00000050: 473d 2abf 274a 3fbf ea10 4dbf b23e 3dbf
00000060: ade6 20bf 2f5d e5be b8ba 21bf ad44 ecbe
00000070: 3711 b4be 5c94 15bf 96bd 9ebf b3ea 96bf
00000080: 4c51 92bf efde 9bbf e14e 82bf ae65 55bf
00000090: 01b9 92bf 9455 06bf 553a e4be 10ac 01bf
000000a0: 4da3 9dbf b33c 84bf b272 9bbf f16a 90bf
000000b0: 07d2 8abf de5a 89bf bd06 68bf 95cc efbe
000000c0: 9b71 b4be c14d b9be
-0.6150532 -0.5196175 -0.6893683 -0.55704206 -0.49949837 -0.42918292 -0.32628018 -0.33683226
-0.24390301 -0.46171066 -0.5725451 -0.64939487 -0.5031361 -0.4794498 -0.55402994 -0.37812597
-0.38102266 -0.48202515 -0.71250075 -0.6877509 -0.6649975 -0.7472252 -0.80103934 -0.7392379
-0.62851983 -0.44797656 -0.63175535 -0.46146145 -0.35169384 -0.58429503 -1.2401607 -1.1790375
-1.143106 -1.2177409 -1.0180322 -0.83358276 -1.1462709 -0.5247433 -0.44575754 -0.5065317
-1.231546 -1.0331024 -1.2144377 -1.1282636 -1.0845345 -1.0730855 -0.9063528 -0.4683577
-0.35242924 -0.36192134

p_fc1.weight f4 [256, 136]
00000000: ada2 08be 8f91 eb3d 47a0 67b9 94cb 24bb
00000010: b028 f53c 9ade 6bbd 468a 763c 6828 a9bd
00000020: 853b 23be 1bc0 02be 1583 30bc 1dec 0bbe
00000030: 4867 a43d 62ef 0f3e 844a ff3c 5ed8 ce3c
00000040: dd97 bfbc 30f1 843d 5066 58be 638e 613d
00000050: 1f38 253d a83c 6dbe 638a d2bd e62e b9bd
00000060: e427 2bbe 61f7 5a3d 072a 62bb fefa 92be
00000070: 943b eb3d 5048 c23c 93b9 06be 0935 2fbd
00000080: 6acd 33bd d601 c73d 7e69 02be 0e45 39bc
00000090: 4e7a 543d df19 32bd 2520 893d cb9d 933e
000000a0: c282 e23d e670 113d 1208 ae3d 0bf4 e9bd
000000b0: 7194 bc3b f97e b93d bf90 a43d 0aa6 323d
000000c0: a091 32bb 96a8 543c c9cd 103d e03e 1f3e
000000d0: a8b5 043e 84fd 9e3d 36c2 f5bc 8b9c 45bc
000000e0: a4cc 0bbe 69ef e63d 3d84 91bd eb10 07bd
000000f0: 3b0b dd3d 122d 54bd 74ce f83c 6a1c 89bc
00000100: 4fc4 38be 21cf 8dbc abef b4bc 943e 513d
00000110: 6e92 cb3d 2545 193e 775a f03c 0892 ea3d
00000120: 7df4 953e 80c0 0a3e 7ae3 813b 75d2 763e
00000130: d7e7 f4bc d8c0 703d db5d 423e 0119 72bd
00000140: 2103 31bd 9086 6dbd b8ff fcbd 490a 8c3d
00000150: 9bd0 223e 8beb 10be ad85 d3bd acf5 103e
00000160: 8bb7 66be b4b6 5e3d b3fe 2a3e 292d e0bd
00000170: aad4 13be 745f 283e eda5 5bbe 5cbf 09bd
00000180: cb57 f0bd 2dfe 9bbd b317 d73d e2d5 9fbd
00000190: fd3d 863d 4fe2 bdbd f1c2 b43c c8e0 343d
000001a0: 20d0 e03b 8c56 b63c 237c 183d 6929 ddbc
000001b0: 9882 b6bd c364 8f3d bf47 e8bd be94 543d
000001c0: 4147 2bba 0f38 15be a828 88be b785 40be
000001d0: 734c 7d3d 814b 36be dc94 edbc 3c39 7cbb
000001e0: b241 b1bc a484 c2bb 59b4 adbd 6247 22bd
000001f0: 54a2 01be 6f68 063e 64aa a5bd ed0e 2a3c
00000200: a8be 763d 9142 fe3d 1ce4 4e3e b704 cebc
00000210: 3c01 89bc 6f6d d3bd 9d7d 80bd 9ed3 843d
00000220: 012f 1ebd 334c 723c bacb b63d 6a03 4c3e
00000230: 94df 07be 9daa 813d 8a27 223e 68b6 72bd
00000240: af61 d0bd cad5 8f3c 3102 c1bb cf5d 3b3b
00000250: 6f51 883d 40c5 92bd 1779 8bbd d1d0 093e
00000260: 940b a3bd 7e26 283e 0086 2e3e 4d4e 99bd
00000270: e193 3f3c e51e e9bd 8f84 b73c 2a04 9abd
00000280: 7433 a33d f3f9 a8bd 5f75 70be 5afd ffbc
00000290: 3935 7dbd 370d 61be 383a d93d ac75 603d
000002a0: 2148 f6bc 6ca5 02bd 7fe4 adbd aab4 583d
000002b0: 9715 26be fc6b 87bd 1922 b23d 3274 78be
000002c0: 2c42 af3c 8ba8 a33d b9e3 11be cd96 88bd
000002d0: 9dba d0bc 6864 b2bd ffda 5f3c a317 283c
000002e0: e8cf f5bc d57d 62bd e370 733e c46e d9bd
000002f0: 7bf2 2bbd 8054 be3c 26ad 1a3c b696 f63d
00000300: f4fe d8bd 1fde a33d 61db b4bd c063 80bd
00000310: d892 be3d c4b5 a3bd 0e4b 1bbe 763c de3b
00000320: 8ef9 c0be 9041 8ebd 067b a5bb 73fd 8fbd
00000330: 218a 8c3d 817b aa3d 86ea 83bc b0a3 40be
00000340: a9a7 80bd bf2d 313d 4bdd 41be 5f91 fbbd
00000350: c376 ba3d 04b9 29be 5d93 11be 60e7 a83c
00000360: 9467 58be 66f3 94be 94df 393e db7c a8bd
00000370: 315d 30be d776 b33d 4e29 643d 7c01 663d
00000380: f3bd 25be ba7a a93d 8fd4 b83d b6ba d2bd
00000390: f56a d0bb 3f18 953d b623 30be e1ad 173e
000003a0: 5afb dbbd fccf d7bd 18d8 46bd f609 5bbe
000003b0: 5b84 bb3b 98d3 7b3c d183 03be ecb9 cabd
000003c0: 3bf9 b63d 7af1 21be f8ed 2c3d 94d2 afbd
000003d0: 2537 87be f1e4 15be fa5f e73d 1526 ebbd
000003e0: 51ae 50be 041d 903d 980c 113e e8fa b0bd
000003f0: dea2 d7bb e53a cb3d c16b a93e 4692 803d
-0.13343306 0.115023725 -0.00022089585 -0.0025145756 0.029926628 -0.057585336 0.015047615 -0.0825966
-0.15940674 -0.12768595 -0.01077344 -0.13664289 0.08027512 0.14056161 0.031163462 0.025249656
-0.023387844 0.06491315 -0.21132779 0.05506743 0.040336724 -0.2316767 -0.102803014 -0.09042148
-0.16714436 0.053458575 -0.0034509914 -0.28707117 0.11485973 0.023716122 -0.13156728 -0.042775188
-0.04389707 0.09717147 -0.12735555 -0.011307968 0.05187445 -0.043481704 0.06695584 0.28831324
0.11060096 0.03550806 0.08497633 -0.114235006 0.0057550003 0.09057421 0.080354206 0.04361538
-0.0027247444 0.012979647 0.035352502 0.15551329 0.12959921 0.07763198 -0.029999834 -0.0120612485
-0.13652283 0.112761326 -0.071053006 -0.03297512 0.10793158 -0.051800795 0.030371882 -0.016737182
-0.18043636 -0.01731068 -0.022086939 0.05108507 0.099400386 0.14967783 0.029340012 0.114536345
0.29288092 0.13549995 0.003963885 0.2410372 -0.029895706 0.05877766 0.18981116 -0.059105877
-0.043215875 -0.057989657 -0.12353462 0.06837899 0.15899889 -0.14152353 -0.10328231 0.14156216
-0.22530954 0.054373458 0.16698723 -0.109461136 -0.14436594 0.16442662 -0.21450014 -0.03362976
-0.11735495 -0.076168396 0.10502567 -0.07804467 0.06554792 -0.092716806 0.022065612 0.04415968
0.006860748 0.022258066 0.03722776 -0.026997285 -0.089116275 0.07001641 -0.113418095 0.051899664
-0.000653375 -0.14572166 -0.26593518 -0.18801008 0.061840486 -0.1780224 -0.029001646 -0.0038486263
-0.021637771 -0.005936222 -0.08481664 -0.039618857 -0.1265958 0.13125776 -0.0808914 0.010379535
0.060240418 0.1241504 0.20204204 -0.025148733 -0.016724221 -0.10323607 -0.06273959 0.06485675
-0.038619045 0.014788675 0.089255765 0.19923177 -0.13268882 0.0633137 0.15835395 -0.059255987
-0.10174882 0.017557997 -0.005890154 0.002858985 0.06656157 -0.07166529 -0.068102054 0.13458563
-0.07961193 0.16420934 0.17043304 -0.07485638 0.011692972 -0.11382846 0.022402076 -0.075203255
0.07968798 -0.08250799 -0.23482274 -0.031248737 -0.061818335 -0.21977697 0.106068075 0.05479972
-0.03006369 -0.03189604 -0.08490848 0.05290667 -0.16219173 -0.06612393 0.0869791 -0.24263075
0.021393858 0.079911314 -0.14247026 -0.06669388 -0.02547961 -0.08710557 0.013663053 0.010259542
-0.030006364 -0.055295784 0.23773532 -0.1061683 -0.041979294 0.023233652 0.009440696 0.120404646
-0.105955034 0.080013506 -0.08830906 -0.06269026 0.09305352 -0.079936534 -0.1516535 0.00678211
-0.37690395 -0.06946099 -0.005050066 -0.070307635 0.068622835 0.08324338 -0.01610304 -0.18812442
-0.06281979 0.043256517 -0.18932073 -0.12283587 0.09104683 -0.16574484 -0.14216371 0.02061814
-0.21133262 -0.29091948 0.18151695 -0.08226939 -0.1722305 0.08762901 0.055703454 0.05615376
-0.16185741 0.08275361 0.09024917 -0.102895185 -0.0063604065 0.07280015 -0.17201123 0.14812423
-0.10741301 -0.10537717 -0.048545927 -0.21390519 0.005722565 0.015370272 -0.12843253 -0.09898743
0.08934256 -0.15814772 0.042219132 -0.085850865 -0.2640926 -0.14638115 0.11297603 -0.11481873
-0.20378996 0.07036784 0.1416496 -0.086416066 -0.0065806946 0.099233426 0.33090022 0.062778994

p_fc1.bias f4 [256]
00000000: 5e10 82bc f267 993a 3026 17bd 170f cabb
00000010: c7ca f1ba 3523 783c d2b3 343c cac7 00bc
00000020: cfe4 d73a 030b fabb fa72 123b 89cd 91bc
00000030: 82f2 45bc 83ba a2bc 1983 ae3b 1c77 19bd
00000040: 3bb2 c4bc 95ff 8eb9 d024 54bc d369 f7bc
00000050: a9d1 02bc 3d4f 903a 987b a3bc e795 f23a
00000060: 0000 0000 4d0b f83c 6e02 52bb 6454 3dbb
00000070: ce7e 8fba ac3a 84bb 6fd6 23bc c9cf afbc
00000080: 82ab 763c 1dad 96bb ea29 8239 da7e aabc
00000090: e9ee 68bb e973 003c 5d95 f2bb 61fc 29bb
000000a0: 1688 b7bc b47a b4ba b93d 97bc 8667 9bba
000000b0: fa88 12bc c3a6 df3c 8efe 70bc cda4 28bd
000000c0: d98b cfbb 1674 b2bc eacf 2b3c b7d9 153c
000000d0: 363d 8f3c 7e1e e4bc f20a ef3c 6f8f 75ba
000000e0: f2ae eb3b 4014 59bc f715 653c bc7f 9cbc
000000f0: 2d92 cfbb a185 1a3c 8430 4fbc c475 4c3c
00000100: a000 5dbc c2f3 833c f305 93bc 5481 983c
00000110: cdfe 823b f0f7 a9b9 5208 043d 9994 0ebc
00000120: d01a 15bd b139 0c38 7160 15bc ae21 97b8
00000130: 7857 1c3c d7aa 13bd 8bd3 043c 645f 90bb
00000140: 4617 2abc faa8 87bc 9621 bbbc 8c00 bfbc
00000150: e115 ad3c 781f 9dbb 5028 37b8 c27b 14bc
00000160: bf20 bc3b 1759 56bc c140 f03c 3ad0 9dbc
00000170: 7e38 49bc e79c a9bc 2c07 4e3a fad2 5d3c
00000180: a4ee 1bbc 112a 423c b409 13bc 0d76 2dbc
00000190: 7eef 50bc a65a 433c e21a 23bd 406d 17bb
000001a0: c09c 95bc 520c 3abc c6fc eb3c 678d f5ba
000001b0: 1823 17bb 231d 503c f0a1 f6bc 8cd1 83bc
000001c0: d09c 803c d1ea 023b 7046 fd3b f6f6 8cbc
000001d0: 1ece 943c d7b5 dcbb cc44 c8bc 4b38 0ebb
000001e0: c73e d9bc a869 97bc 3b6b 973c 7ae1 e0bc
000001f0: 8340 9e3a a3a4 4bbc 6f04 533c eaf2 49bb
00000200: b8c9 8a39 fd1b 273b 0688 bcbb 306d 09bc
00000210: a70c 37bc 1813 21bc c8a2 28bd a52b 87bb
00000220: 5a6d bb3b 42cd 853c 8d16 67bc 2681 1238
00000230: c556 41bc ca89 bb3b 4a08 63bb a218 d93b
00000240: 3b5b 45bc d269 15bc 74c1 3f3c 24e1 c8bb
00000250: 5a38 3e39 893e a638 5a9f bebc 7b7a 66bc
00000260: 11e0 9a3c e2af 093c 0bef 24bd af34 1dbd
00000270: 92d3 dfbc 3121 3ebc f3e1 413c 49e8 643b
00000280: 3e72 173b a6c4 07bb 68b8 32bc 64ec 90bc
00000290: e765 9dbc 00e3 a0bb 2b45 a9bb 6539 94bb
000002a0: 5743 aaba 2f86 433c e12b b1bc 0f52 82bb
000002b0: d398 b7bb eced 0bbc 9e94 6ebc 2e79 6b3b
000002c0: 00be 923c 9e08 933c 22aa 1cbc 0910 3a3c
000002d0: b529 8dbb f19e 8b3b 071d 43bc b0fb 50bb
000002e0: cda0 243c b027 d93b cf6d 013d c07b 61bc
000002f0: dbf2 c1bc d840 f53c fc80 1c3c c2df 963b
00000300: ae5b 31bc 4d16 b73c 3f69 663b 6552 0d3d
00000310: 97bd bb3b 8cf5 b8bc fc8b 2f3c bbae 09bd
00000320: c44d 043d aa09 9ebc 828b 343c 93d4 473b
00000330: 92e2 dabb 8d65 073c b1de 09bb 115a 73bb
00000340: 89de cabc e467 57bb 1f2e 123d 8d30 643c
00000350: 53c3 7b3c 4e00 253c bfcb ebbc b28c 3cbb
00000360: 214a e8bb a48c 8abc 9575 03bc a1ca 693c
00000370: 1e27 bdbb 2737 f03b 4c38 8fbc ced0 eebb
00000380: d33d 40bb 54af 1abc 91ea 97bb 23b3 06bc
00000390: 331e 12bd c8c6 e3bb 2790 0fbb 4983 1e3a
000003a0: 7288 2fbc f386 ddbb 0782 34bc 199d 8cba
000003b0: e53d a1bc 0b25 c1bb b42f 9cbc 4711 99ba
000003c0: fe7c e4ba b61c cbbc 821c e1bb f16c 43b8
000003d0: cf3c ba3b 22ff 163c b3e8 f6bb 6b18 f4bc
000003e0: 0074 8abb eeb8 4abc 632d fd3c e980 8ebc
000003f0: 6d4d e73c 4baf d13b aa7c f9bc f329 c4bb
-0.015876945 0.0011703952 -0.036901653 -0.0061663496 -0.0018447273 0.015145113 0.011029201 -0.007860133
0.0016471389 -0.007630707 0.0022346363 -0.017798202 -0.012081744 -0.019864326 0.0053256867 -0.037467107
-0.024010768 -0.00027274774 -0.01294823 -0.030201828 -0.007984557 0.0011009943 -0.019956395 0.0018507809
0.0 0.030278826 -0.0032044905 -0.0028889412 -0.0010947825 -0.0040353145 -0.009999855 -0.021461384
0.015055539 -0.0045982734 0.0002482676 -0.02081244 -0.0035542792 0.007840135 -0.0074030594 -0.0025937783
-0.022403758 -0.0013769479 -0.018462049 -0.0011856414 -0.008943791 0.027301198 -0.014709128 -0.04117279
-0.00633381 -0.02178387 0.010486582 0.009146146 0.017485242 -0.027846571 0.029180024 -0.00093673816
0.007192486 -0.013249457 0.013982288 -0.019103877 -0.006334564 0.009431274 -0.012645844 0.012479249
-0.013488919 0.016107444 -0.017947173 0.018616356 0.00399766 -0.0003241892 0.032234497 -0.008702421
-0.036402524 3.343233e-05 -0.009117232 -7.2065144e-05 0.009542339 -0.036051597 0.008107076 -0.0044059027
-0.010381525 -0.016560066 -0.022843163 -0.02331569 0.021128597 -0.004795011 -4.3668144e-05 -0.009062709
0.0057412083 -0.013082764 0.029327752 -0.01926433 -0.012281535 -0.0207047 0.0007859345 0.01353907
-0.009517346 0.01185085 -0.008974481 -0.0105872275 -0.012752412 0.011923468 -0.03982056 -0.002310589
-0.01826322 -0.011355476 0.028807055 -0.0018734158 -0.002306169 0.012702259 -0.030106515 -0.01609113
0.015699774 0.0019976387 0.007729344 -0.017207604 0.01816469 -0.006735544 -0.024446867 -0.0021701034
-0.026519192 -0.018482998 0.018483749 -0.027451266 0.0012073669 -0.012429389 0.012879475 -0.0030814954
0.00026471703 0.002549886 -0.00575352 -0.008387849 -0.01117245 -0.009831212 -0.041170865 -0.004125076
0.005719823 0.016333226 -0.014104498 3.492939e-05 -0.011800473 0.005723213 -0.0034642392 0.006625251
-0.012045677 -0.009119468 0.011703838 -0.0061303545 0.00018140805 7.927145e-05 -0.023269344 -0.014067288
0.018905671 0.00840375 -0.04026703 -0.03838032 -0.027322564 -0.011604593 0.011833656 0.0034928492
0.0023108865 -0.0020716577 -0.010908224 -0.017690845 -0.01921363 -0.004909873 -0.005165716 -0.0045234435
-0.001299004 0.011933847 -0.021627368 -0.0039770673 -0.005602935 -0.008540612 -0.0145618 0.0035930383
0.017912865 0.017948445 -0.009562047 0.011356362 -0.0043079504 0.0042608907 -0.011908776 -0.0031888299
0.0100481035 0.0066270456 0.031598862 -0.013762414 -0.023675373 0.029938146 0.009552237 0.0046043107
-0.010825081 0.022349501 0.0035157946 0.034502406 0.005729388 -0.022578023 0.010714527 -0.0336139
0.032300726 -0.019291718 0.011019589 0.0030491694 -0.0066798413 0.008263958 -0.0021037275 -0.0037132541
-0.024764316 -0.003286832 0.035688516 0.013927591 0.015366393 0.010070873 -0.028783677 -0.0028770384
-0.007088915 -0.016912766 -0.008023639 0.014269502 -0.0057724854 0.0073307934 -0.0174829 -0.007288075
-0.0029333725 -0.009441216 -0.004636117 -0.00822142 -0.03567333 -0.006951187 -0.002190599 0.00060467847
-0.010713683 -0.006760472 -0.011017329 -0.0010727971 -0.019682834 -0.0058943084 -0.019065715 -0.0011678123
-0.001743227 -0.024793964 -0.0068698535 -4.6593083e-05 0.0056835185 0.009216102 -0.007535064 -0.0297968
-0.004225254 -0.012373192 0.030905431 -0.017395454 0.028235162 0.0063990704 -0.030454952 -0.005986446

p_fc2.weight f4 [256, 256]
00000000: 3789 11be bcdb bcbd 5194 9f3d 0c95 bebd
00000010: 12d4 753d f120 93bd e0e8 ce3d 7adb 953b
00000020: 09f6 0f3d 3364 d7bd b759 3dbc 65d0 b0bd
00000030: 7acb 60bc 7380 cebb ff95 4e3d cb9b 82bb
00000040: 7fd7 b83c 166a 3dbe 54b4 07bc 7c3c 023e
00000050: 28dc 24be 682e cf3d 2532 d1bb beab cabd
00000060: c9a1 d3bd 417e 2b3e 51a0 9f3d 60b2 17bd
00000070: 2fbc f8bd dfd7 99bd f5c0 adbd 747d 21be
00000080: 1e65 04bd cfbe d7bd 6c92 a1bd c21e dabd
00000090: f0e3 d6bd 7520 4c3d 4ae2 13be afb4 ce3d
000000a0: 04dd 9b3c 018e 203d dd5e b9bd 606d 5abd
000000b0: aa5e 50be acac 9abd aca6 23bd 99a1 6f3d
000000c0: bf78 38be 3f48 163e 7b6d 333d 1a92 253c
000000d0: a699 b2bd 5a21 953d 1ae0 5b3d d564 cdbd
000000e0: 5edd 7a3d c9fe 383d 23d9 0a3e c3ca a1bd
000000f0: 2347 563d 05e1 e43d ba9a 13bb f1a8 b83d
00000100: 5feb 07be 107f 90bd 128c 05bd 3b88 923d
00000110: 448b a93b 13eb 903c e4bc 89bb d1f0 903d
00000120: 8aad 6d3c 50de c73d e4e8 82bd 495b 4d3d
00000130: e811 113e 14be 233d bb84 9abd 7eaf cb3b
00000140: 1df9 863b 7961 93bd c6e1 55bd 57cd cabd
00000150: 7ebc 8f3c e231 20bd e50a b43d 2ad8 063d
00000160: 2f22 363d c188 3fbd 46dc 143e 7ae3 a7bc
00000170: d625 b3bd 95e9 a5bd 92cb 91bd e22a cf3d
00000180: 987c 103b 9cbf 8a3b 9539 f23c 66c8 8bbd
00000190: 4f05 00bc ba20 f43d 3c58 85bd c4f2 37be
000001a0: d1d2 ab3d a3ba 70bc 25da d73d ddcd c23d
000001b0: fea9 e63d 5a8b df3c 7a72 a3bd 0e0d cbbd
000001c0: 8e95 6c3e 5b53 0e3e 1d03 223d 0a4e 2bbe
000001d0: 276d b3bd 75e3 db3d d011 633c b690 ae3a
000001e0: f927 57bd 1c68 bb3d 0b8c 693d b55a 8ebd
000001f0: a141 a7bd cb41 21bd 0603 083e 2d20 0c3e
00000200: 63f7 23be 9502 6ebd afd0 6bbe 74a0 673b
00000210: 0157 21bd 9871 11be 45ad bdbd 043c ae3d
00000220: 1449 f5bd 0498 7abd 24de ab3a 80f4 0cbc
00000230: f1d8 5d3d 4940 9ebd 6e0b c83d 6540 873c
00000240: ca0d b6bd e4ed 043d 60a8 253e b455 97bc
00000250: 2cc1 0b3e b5a5 933d d2db e33d 9e6a a53d
00000260: d02f 063a 2b9d 0c3d 948c debd 86a0 01be
00000270: 32c4 a73d 529c ddbd 3fe0 243c 7041 c53c
00000280: b22f b3bc 0b8f 2f3c 89fb d33b c610 a93d
00000290: facd 34be 3766 383e fb5d 633d e4ea 21be
000002a0: 3773 39bd 7178 f7bd 7201 bfbd 9be4 b03d
000002b0: 6026 eebd 0b13 b2bd 8ed7 423b aa3f 85bd
000002c0: 8058 82bb ec3d 653d dd2c 31bc b3ed 42bd
000002d0: 848d d2bd 50e8 0d3d 889f b0bd 6261 8d3c
000002e0: 2d66 853d 7329 3abd dedc 9fbd fa16 2b3d
000002f0: 1285 b13b 731a 053e c46c 29be b8b0 d43d
00000300: 41db 11bd 56cf 3cbe 5944 f23d 727d 323e
00000310: a4f1 0e3e d99c e5bc 66bb 463d 7b5e 11be
00000320: 8f2b 023e 2cc2 e7bc c48b b8bd a554 89bd
00000330: 8e7f 8abd ab5a ad3d 96be 233b 76bf 0e3d
00000340: 31a3 c2bc 87ff 96bd 1092 743d d1be c53c
00000350: 5547 fc3c a0b8 2f3c ebc9 2cbd 4960 9ebd
00000360: 6c3e bc3c 5978 2cbd db53 93bc 8b80 7b3c
00000370: 8e16 dfbc 875d 9e3d 657e f4bd 7aaf c13d
00000380: 08cc a7bc 3978 d9bd 8f75 44bc da1a aa3d
00000390: 35e0 e0bd a335 863d f25f 29bd a710 f5bc
000003a0: b3c8 dcbd 1102 8d3d c680 aebb e043 f03c
000003b0: 2d2c ccbd 81b6 b13c 8274 31bd 7523 613d
000003c0: 89a9 e1bd 070d 983d 1ddd dc3d a39e b93d
000003d0: 8226 853d a7b7 013e f149 13be ffa5 f2bd
000003e0: 0576 07be 9e60 df3d cedd a23d 96a3 e43d
000003f0: 786a 883d 68b2 88bd f187 bfbd fe3b 86bd
-0.142125 -0.092215985 0.07791961 -0.09305772 0.0600167 -0.071840174 0.10103011 0.004573283
0.035146747 -0.10517158 -0.011557034 -0.08633498 -0.013720388 -0.0063019334 0.050436016 -0.003985857
0.022563694 -0.184975 -0.00828274 0.12718385 -0.16099608 0.10116273 -0.0063841515 -0.098960385
-0.103335924 0.16747381 0.0779425 -0.037035346 -0.12145268 -0.07511877 -0.08484069 -0.15770513
-0.032322995 -0.10534441 -0.07889256 -0.10650398 -0.104926944 0.04983564 -0.14441791 0.100930564
0.019026287 0.039197925 -0.09051297 -0.053326964 -0.20348611 -0.07552466 -0.039953873 0.05850372
-0.18014811 0.14675997 0.04380558 0.010105634 -0.08720712 0.07281752 0.053680517 -0.10028998
0.06124627 0.045164857 0.13559394 -0.07900002 0.052313935 0.111757316 -0.0022522644 0.09016598
-0.1327338 -0.07055485 -0.032604285 0.0715489 0.0051740725 0.017690217 -0.0042034257 0.07077182
0.014506707 0.097591996 -0.063920766 0.050135884 0.14166987 0.039976195 -0.075448476 0.0062159887
0.004119052 -0.07196326 -0.052217267 -0.09902447 0.017545935 -0.039110072 0.087911405 0.032920994
0.044466194 -0.046761278 0.14537153 -0.020494211 -0.08747451 -0.08101193 -0.07118906 0.10115601
0.002204692 0.0042342674 0.029568473 -0.06825332 -0.007813766 0.119203046 -0.0651097 -0.17963701
0.083898194 -0.014692935 0.10539655 0.095119216 0.11262892 0.027288128 -0.07980819 -0.09914599
0.23103926 0.13898985 0.03955375 -0.16728988 -0.087610535 0.10736743 0.013859227 0.0013318274
-0.052528355 0.09150717 0.05701832 -0.06950895 -0.081668146 -0.039369386 0.13282403 0.13684149
-0.1601234 -0.05810793 -0.23028825 0.003534344 -0.039389614 -0.14203489 -0.09261564 0.08507541
-0.11976829 -0.06118013 0.0013112468 -0.008603215 0.05416197 -0.07727105 0.09767805 0.016510198
-0.08889349 0.032453433 0.16177511 -0.018473484 0.13647908 0.072093405 0.11125912 0.08076976
0.0005118819 0.034329575 -0.10866657 -0.12658891 0.08191718 -0.10820831 0.01006323 0.024079055
-0.021873329 0.010715256 0.0064691943 0.082551524 -0.17656699 0.18007742 0.05550955 -0.1581226
-0.045275893 -0.12083519 -0.093264475 0.08637353 -0.11628413 -0.086950384 0.0029730531 -0.065062836
-0.003977835 0.055967256 -0.010813919 -0.04758997 -0.10280898 0.03464538 -0.08624178 0.01725835
0.06513629 -0.045449685 -0.07805799 0.04176996 0.0054174745 0.12998371 -0.16545397 0.10385269
-0.035609487 -0.18438467 0.118294425 0.17430666 0.13959366 -0.028028892 0.04851856 -0.14196198
0.12711929 -0.02829083 -0.09011033 -0.06705598 -0.067626104 0.08464559 0.0024985424 0.03485056
-0.023759456 -0.07372957 0.05970961 0.02413884 0.030795733 0.01072517 -0.04218475 -0.07733209
0.022978984 -0.04210696 -0.017984321 0.015350471 -0.027232435 0.07732683 -0.1193817 0.094572976
-0.020483032 -0.10618634 -0.011990919 0.08305903 -0.10980264 0.06553199 -0.041351266 -0.029915167
-0.10780468 0.0688516 -0.0053254096 0.02932924 -0.09969363 0.02169347 -0.043324 0.054965455
-0.110186644 0.0742436 0.107843615 0.09063461 0.065014854 0.12667714 -0.14383675 -0.118480675
-0.13228615 0.109071 0.07952462 0.11164014 0.06660932 -0.06674653 -0.09352101 -0.06554411

p_fc2.bias f4 [256]
00000000: 279b 963c 1262 53bc 32b0 cdbc 0138 8bbb
00000010: 94fc 033d 63b2 84bb 79c4 8cbc 054f 823c
00000020: 80cd 22bb 805f 093d 908a 5fbc 835e 55bc
00000030: 100e 46bc 2f24 22bd cdd7 c5bc b6f9 1cbc
00000040: e67f 943c 9fde c4ba 2352 96ba d2ea 223c
00000050: cfea 243c a46a 7ebb 8f1b e2bb a5b9 5dbc
00000060: aa95 c13c 9bb6 2f3d 127c 03bc 1252 3ebc
00000070: f179 f5bb 7c78 e13c 5a78 a7bb a228 973c
00000080: e70e 253c afec b03c 727a e73c 6ec2 babb
00000090: 4f96 cdbc 9945 dfbc 819d 8d3c f407 bc3c
000000a0: a374 3b3c 9cc6 9eba 5edb 1abc 40db 86bc
000000b0: f968 ed3c 20cc f23c 7f20 c0bc 6005 b3bc
000000c0: c0cd 8bbc 077a 0ebd a63a d8bc a324 82bb
000000d0: 9a9c a1bb aa75 83bc e03a 353c 2bff 733c
000000e0: bf6f 763c e7f7 3cbc 4189 4f3c e4ff eaba
000000f0: 5ad6 11ba 2ac0 bd3a eb64 11bb 9afa 86bc
00000100: 3575 003a 54d0 79b9 4c00 e23c b790 343c
00000110: 678f 5fbc c88b 9ebc ca69 833c 2c3c 3dbc
00000120: 6220 ef3c 7a40 773d 29da c7bb 04d0 e5bc
00000130: 3eb1 cc3a 54a5 fd3c 4497 63bc 6ca7 cd3b
00000140: 2b00 753c 5549 863c bf91 cbbb 3a43 10bc
00000150: 3708 94ba e84d 88bb 9896 8fbc 71b8 68bc
00000160: bbf0 e23c f568 4abc 6c24 8dbb 7e10 723c
00000170: 0b6e 343d 2c9b aebb 6c3f 533c 45ce 2dbc
00000180: f199 343c c375 64bc f664 5b3d c30e 663c
00000190: 8ab0 ee3c 392f 8bbb f591 28bc 688f b63c
000001a0: c569 483c 43c4 7c3b 292d ccbb b617 873c
000001b0: 7a64 a83c 2738 313c 2213 e53c 8cc3 1c3d
000001c0: 1dbb 863b a1ea 07bd 17e9 453b 40a3 04bc
000001d0: d32c 91bb e224 8e3b f10b bcbc 8c32 cabc
000001e0: 6aa0 f43c f682 37bc cc71 f23a 7bb5 95bc
000001f0: 5ca8 d9bb 8d56 69bc 024b 603d ea29 8c3c
00000200: 9074 18bd 082d 04bc 8160 fa3b f3ca 98bc
00000210: ab2a 54ba 6bbc 00bc 5b1f 2e3d d974 9dbc
00000220: b3c5 f43b 5206 863c 1d6b 72bc b2a7 dabc
00000230: 290c 103c cc39 d4bb 194b aa3c 700d f0bb
00000240: 224c ad3a 0b2f 5fbc b058 373d 57d2 f33c
00000250: 0cac d1bc c1ac a5bc e170 7f3b 4a57 0cbd
00000260: 3f19 06bd 82e1 a53c 97b9 2abb 12e6 6c3b
00000270: 6e09 b63b d51b ddbc 06d8 5abc 5cf4 f0bb
00000280: 9c07 3d3c 3e2e 0c3c 55b9 583c ab98 7fba
00000290: cb7f e83b e6f5 9b3c a7e5 20bc 10b4 9c3c
000002a0: 7248 713c 70e1 3fba 0503 fb3b 6592 ca3c
000002b0: 1cee 313c 9885 f93c 8382 57bc 0e1e 6cbc
000002c0: 954b 05bd 77de baba bafb dabb 64e6 063d
000002d0: fecf 613c 46db a63c ede2 db3b 402b d73c
000002e0: 81cf 93bb f8f4 f2bc f6fa d9bb d164 79bc
000002f0: dc4e 8fbb c65f debc 7e3d 003a 23a7 203c
00000300: bfb6 bebc 2cdf 1cbc 0bac 60bb d494 9dbc
00000310: b48f 29bb b328 283c 2faa f63c e5cb da3b
00000320: a621 79bc 47c5 28bc 5526 33bc 9aea 75bc
00000330: 6f6a adbb eccd 383c c857 1f3c f9ce 513c
00000340: 465d 223c de71 6abc 4c7f 1a3b ed9b 67bb
00000350: d74b d4bc aa85 833c c404 583d 8e92 4d3c
00000360: bf04 a83c 88f6 61bc 588d 3dbd 2adb afba
00000370: d425 4dbc 4069 dc3c 7679 383c 678d 66bd
00000380: ded1 0dbd 11d5 c1bb aa78 0f3c c11a 813b
00000390: 213b 4f3b 073d bbbc 7a4e 3b3c b8cd 1d3d
000003a0: b4e4 323c d4df e3bb b4d4 c43a 2acd 5ebc
000003b0: 2537 59bc e286 1dbb 4fc5 15bc b279 ea3c
000003c0: 35ff 58bc 6973 283d 6caf 813c 98e1 1bbd
000003d0: f848 e8bb b3f1 a93c fa24 663c 4d16 cd3c
000003e0: b410 a23c a012 f63c 6cf7 813c f2ef 74bb
000003f0: 0726 763c 894f ccbc 4a19 5b3c 0a15 6fbc
0.01838453 -0.0129018 -0.02510843 -0.0042486195 0.0322233 -0.0040495857 -0.01718353 0.01590682
-0.0024841726 0.03353834 -0.013643876 -0.013023022 -0.012088314 -0.03958529 -0.024150753 -0.00958102
0.018127393 -0.001501996 -0.001146857 0.009943681 0.010065748 -0.0038820887 -0.006900258 -0.013533031
0.023630936 0.042898756 -0.008025186 -0.011616247 -0.007491343 0.027523272 -0.0051107826 0.018451992
0.010074354 0.021597235 0.028256629 -0.0056994474 -0.025096087 -0.027254866 0.017287018 0.022953011
0.011441383 -0.0012113634 -0.009451715 -0.016461968 0.028980719 0.02963835 -0.023452995 -0.021853149
-0.017065883 -0.034784343 -0.026395153 -0.0039716526 -0.0049319984 -0.016047318 0.0110614 0.01489238
0.015041291 -0.011533714 0.012667001 -0.0017929045 -0.0005563252 0.0014476825 -0.0022185396 -0.016476918
0.00049002777 -0.00023824099 0.027588032 0.011020831 -0.01364503 -0.019353762 0.016041655 -0.011549991
0.029190246 0.060364224 -0.0060990048 -0.028053291 0.0015616787 0.030962624 -0.013891045 0.0062760618
0.014953653 0.01639239 -0.0062124426 -0.008805091 -0.0011293952 -0.004159678 -0.017527863 -0.0142041305
0.02770268 -0.012354125 -0.0043073203 0.01477444 0.044050258 -0.0053285565 0.012893539 -0.0106082605
0.011023031 -0.013944092 0.05356308 0.014041605 0.029136915 -0.0042475727 -0.010288705 0.022285178
0.012232249 0.003856913 -0.0062309694 0.016490798 0.020555723 0.01081661 0.027963225 0.038272426
0.004111661 -0.033182744 0.0030198747 -0.008095562 -0.0044303923 0.004337893 -0.022954913 -0.024682306
0.029861648 -0.011200657 0.0018497049 -0.018275013 -0.0066423845 -0.014241827 0.054759033 0.01710983
-0.037220538 -0.008067377 0.0076408987 -0.018651461 -0.0008093516 -0.007857422 0.04251037 -0.019220756
0.0074698566 0.016360436 -0.014796046 -0.026691291 0.008791962 -0.0064766165 0.020787762 -0.0073258206
0.0013221542 -0.013622056 0.044762313 0.029763384 -0.025594734 -0.020223977 0.0038977193 -0.034262933
-0.03273892 0.020249132 -0.0026050562 0.0036147875 0.0055553233 -0.02699081 -0.013357168 -0.0073533487
0.011537459 0.008555947 0.01322778 -0.00097502273 0.0070953122 0.019038152 -0.009820378 0.01912883
0.014726745 -0.00073196646 0.007660272 0.02472801 0.010859992 0.03045921 -0.013153675 -0.0144114625
-0.032542784 -0.0014256974 -0.00668284 0.03293456 0.013782499 0.02036823 0.0067104013 0.02626574
-0.0045108204 -0.029657826 -0.0066522313 -0.01522179 -0.0043734144 -0.027145278 0.00048919755 0.0098054735
-0.0232805 -0.009574693 -0.0034282233 -0.019236006 -0.0025873007 0.01026361 0.030110447 0.006677138
-0.015205776 -0.010300941 -0.010934432 -0.015009547 -0.005292229 0.011279564 0.0097255185 0.012805694
0.009909933 -0.014309375 0.002357441 -0.0035340742 -0.02591507 0.016054947 0.05273892 0.012547148
0.020510076 -0.013791688 -0.046277374 -0.0013416756 -0.012521226 0.026905656 0.011259427 -0.056287196
-0.034623973 -0.005915292 0.008756796 0.003939957 0.0031620937 -0.022856249 0.0114322845 0.038526267
0.010918785 -0.0069541726 0.0015017004 -0.01359872 -0.013257776 -0.0024036695 -0.00914128 0.028622482
-0.01324444 0.04112569 0.015830718 -0.03805694 -0.0070887767 0.020745134 0.014046902 0.025035048
0.019783355 0.030038178 0.01586505 -0.0037374464 0.015023715 -0.024940269 0.013372729 -0.014592418

p_fc3.weight f4 [50, 256]
00000000: 808b 04bb cbbd d0bb e952 47be 064e 4ebd
00000010: 09b3 ec3d 52d4 a5bd 61b1 fabd 415a 6bbd
00000020: 294b 52bc 5415 6f3e 93e2 edbd 0350 3ebe
00000030: 8177 0c3e edbd 49bd 0a13 87bb d192 35bd
00000040: 2f41 aa3d 8ec7 b7bc 1337 923e aaf9 023d
00000050: 1538 2a3e 1685 4f3d 52ce cebc e743 8abd
00000060: 6671 97bc c05a 9bbd ebd5 203e 240d 173e
00000070: 8554 c83c 3ec2 1b3d cd6a 08be 14c4 bd3e
00000080: ae91 c03c d475 4a3e a877 3cbe 3b63 683d
00000090: cf43 0d3c 17b6 31be 2592 57be 4eab cb3d
000000a0: 211a f43d ef84 25be 5bd9 943d a907 fdbd
000000b0: 9384 8abd 5a5c e2bb 3f0a 833c 2be8 593c
000000c0: 9d95 cdbd b36a 2b3e 448a 473e d7d9 1e3e
000000d0: ad14 053d 8338 29bd 3d0b 11be ea0e 163e
000000e0: ac51 44bd ae4d 15bd 1f98 7bbd 83bc 46be
000000f0: 6379 bcbc 6211 b7bd 6fb3 ad3d 9afb 9d3e
00000100: 10b4 703c f7dd 4ebe 4547 07be 5438 113e
00000110: 0eab d73d 70b9 b13d 7758 153e aa23 7cbe
00000120: fb81 993c ef96 473e e034 6bbc 84ad e4bc
00000130: f305 6e3e 45e3 603c 1d44 d63d bb64 553e
00000140: 9af4 32be 2eee 16bd 5009 f4bd f75b e33d
00000150: 1167 213e 9d3c 803e d737 cdbd 6f0d 72ba
00000160: 60d8 b5be 6dc4 dcbd 2672 2ebe b378 463b
00000170: 2f55 013e a801 573d 293b 403e 3ff0 5c3e
00000180: b8fe 8ebe 7b3a 11be 3b4b 013e ad42 b7bd
00000190: cfc0 873b 3f2c a33c 0ac6 55bd 6665 77bb
000001a0: cd5b 193e 1149 3dbe 6dbb 68be 0009 0b3e
000001b0: 17ea 63bd da6b 73be 5623 19be 6756 80bd
000001c0: fd52 0dbe 0f95 30bc 176e 9bbc 6794 08bd
000001d0: b7b4 09be 9e55 f73c c642 9a3c 7aec 4dbe
000001e0: d0ed 3b3e a6e7 d43d 4831 dc3d 2e9f b7bb
000001f0: 3467 7bbd cf9c 21be e49d 2f3e 17e8 673d
00000200: 53c8 69bc c226 253e c778 223e 9622 3ebd
00000210: 69f3 9e3c e154 973d 5a17 0e3e a9e8 af3d
00000220: 4d8d 423e 3533 4e3e 0272 e9bb a3f8 6c3d
00000230: 0ffc 9d3d aeff 5dbe 5300 fd3d 06ba aa3d
00000240: d293 99bd a95b 22be 1890 913e 6de7 853d
00000250: 511c 12be 0412 63be d3b8 f63d b1d7 20be
00000260: bd0e 4fbe 6395 f23a 543f 18be 4745 40bd
00000270: 97cf 55be 5c01 7abc fb11 963e 5e80 65be
00000280: 6975 283e e9d4 7d3e 8db1 f0bd 39ab eebd
00000290: 7a8f 313e b8dc e4bd d266 a2bc 3e9f d6bd
000002a0: d234 e2bd 21fc 04be 9916 c03d 79db 5d3e
000002b0: 16ff f23d 7cc4 ac3e 1032 e2bd 2292 17bd
000002c0: 5834 763d 6a1e f6bc a32c a23d 7de5 2d3e
000002d0: f439 983e 72ce a3bc 458c b03d 1737 1b3e
000002e0: 7199 b4bc bc0a e3bd 5828 59be de22 4abd
000002f0: 8076 39bd 2ed2 283d b922 b63d 045c 5cbd
00000300: 9b5a debd 6b82 9b3d 5120 48be 2073 77bd
00000310: 77d7 533c 95ae d7bc 0215 313e 9c99 af3d
00000320: 4c32 4e3e 2422 6ebe 1899 ab3d 8f3c 2abe
00000330: 0fee ffbd 03d2 153e 8f37 103e bef9 dfbb
00000340: 53d1 afbb 80fe e2bd 331c 9e3e 3270 9fbd
00000350: fadf 00bd 8f96 93bb 96fe 553e 7436 193c
00000360: 80c2 4fbd b710 15be 5562 0d3e 831b 893e
00000370: de00 9bbe 19a5 83bd e2e3 4e3e 8c97 0f3e
00000380: b5e3 a23d 0552 8a3e 6c6e 493d 49e5 593e
00000390: f8d8 0c3e aea6 8bbd e49b eebd 9b94 393e
000003a0: 83d0 893d 0b25 853e 1493 f6bc e621 413e
000003b0: f214 c73d 25df 083e 2282 103c 2a71 20be
000003c0: 89c7 9abe 8dbc 493e 1e34 34bd 05b5 35be
000003d0: 4f4c 08bd d44f a2bc 451f b93d 64dd a93d
000003e0: 6345 0bbd ba64 b5bc d620 f5bd e472 19be
000003f0: 199a 383e dda8 d0be 8e13 aa3c 282f 173e
-0.002022475 -0.0063702813 -0.19465221 -0.050367378 0.11557586 -0.080971375 -0.122408636 -0.05745912
-0.012835302 0.2334798 -0.11615481 -0.1858521 0.13717462 -0.049253393 -0.0041221427 -0.04432947
0.08313214 -0.022434022 0.28557643 0.03197638 0.16622956 0.05066403 -0.025244866 -0.067512326
-0.01848669 -0.075856686 0.15706603 0.14751107 0.024454365 0.03802704 -0.13321991 0.37063658
0.023506965 0.1977151 -0.1840502 0.05673526 0.008622124 -0.17354618 -0.21051843 0.09944783
0.11919046 -0.16163991 0.0726802 -0.12354977 -0.06763568 -0.006907982 0.015996097 0.013299982
-0.10038302 0.16739921 0.19486338 0.15512787 0.03249042 -0.04131366 -0.14164443 0.14654127
-0.04792945 -0.036451034 -0.06142437 -0.19407849 -0.0230071 -0.089388624 0.0848149 0.3085602
0.014691368 -0.2020186 -0.13210781 0.14181644 0.10530673 0.086779475 0.14584528 -0.2462298
0.018738737 0.1949117 -0.014355868 -0.02791477 0.23244457 0.01372606 0.1046221 0.20839207
-0.1747612 -0.03684824 -0.11915839 0.11101525 0.15761973 0.25046244 -0.10020416 -0.0009233569
-0.35516644 -0.10779653 -0.17035732 0.0030284345 0.12630151 0.052491814 0.18772568 0.21576022
-0.2792871 -0.14182465 0.12626354 -0.08948264 0.0041428576 0.01991856 -0.052190818 -0.0037749647
0.14976425 -0.18484904 -0.22727747 0.13577652 -0.055643167 -0.23771611 -0.14954886 -0.0626648
-0.13801189 -0.010777726 -0.018973393 -0.033344653 -0.13447843 0.030192193 0.018830668 -0.2010974
0.18352437 0.10395746 0.10751587 -0.0056036925 -0.06137772 -0.15782474 0.17150074 0.056617822
-0.014268952 0.16128066 0.15866385 -0.046419702 0.019403176 0.07389236 0.13876095 0.08589298
0.18999214 0.20136721 -0.0071241865 0.057854306 0.07714092 -0.21679565 0.123535775 0.083362624
-0.074988976 -0.15855278 0.28430247 0.065382816 -0.14268614 -0.22174841 0.12046971 -0.1570728
-0.20220466 0.0018507655 -0.14867908 -0.046941068 -0.2087997 -0.015259113 0.29310593 -0.2241225
0.16451038 0.2478825 -0.11752615 -0.11653752 0.17339888 -0.11174911 -0.01982442 -0.10479592
-0.11045231 -0.12986805 0.0937931 0.21665753 0.1186506 0.33743656 -0.11044705 -0.037004597
0.060108513 -0.0300438 0.0791867 0.16982074 0.29731715 -0.019995902 0.08620504 0.15157734
-0.022045823 -0.11086032 -0.21206796 -0.04934966 -0.045279026 0.041216068 0.088933416 -0.05379869
-0.10857125 0.07593235 -0.19543578 -0.060412526 0.012929789 -0.026328364 0.1729317 0.085742205
0.20136374 -0.23255211 0.0837881 -0.16624664 -0.12496578 0.14630894 0.14083694 -0.0068351915
-0.0053655296 -0.11083698 0.3088089 -0.077850714 -0.0314636 -0.004504032 0.20897898 0.009351362
-0.0507226 -0.14557157 0.13807042 0.26778802 -0.302741 -0.06427974 0.20204118 0.14022654
0.07953588 0.270157 0.049177572 0.21278872 0.13754642 -0.06818901 -0.116508275 0.18123095
0.067292236 0.26004824 -0.03009943 0.18860587 0.09720792 0.13366373 0.008820089 -0.15668169
-0.30230358 0.19700833 -0.043995015 -0.17744835 -0.0332759 -0.019813456 0.09039167 0.0829418
-0.03400172 -0.022142757 -0.119691536 -0.14985234 0.18027534 -0.40753832 0.020761278 0.14764082

p_fc3.bias f4 [50]
00000000: ad78 283d cc5a be3b 1f03 683a ad24 ba3a
00000010: 22da fd3b 1f60 9dbc d68d 3a3d 5af7 003d
00000020: 1cd9 0fbc 4198 99bc 1c78 9dbc 5691 963c
00000030: 591a 5ebc d0f2 a93c 1052 12bd 7980 b0bc
00000040: 5295 71bb d5bf b6bb 75cd aa3c a430 fc3c
00000050: f76a a0bc 6bb3 a93c 18c0 863c 1e4f 3ebb
00000060: eb1b b2bb 1a4d 363c 9405 ad3c a097 aabc
00000070: 8852 2b3c f44a a9bb 6a40 15bd b170 193d
00000080: 54d5 263c 5218 583c d0c8 803c 0b4f 95bc
00000090: b57b 073d beb1 4b3c b88f 1bb8 ccbe 64bb
000000a0: 1202 493b dcf4 29bb 6b21 813c d741 3a3c
000000b0: f358 b0bb 40d6 b8bc c479 c7bc 6a00 693c
000000c0: 1fa6 84bb 366c 893c
0.04113071 0.0058091637 0.0008850563 0.0014201604 0.0077469507 -0.019210873 0.04554542 0.031485893
-0.00877979 -0.018749358 -0.019222312 0.018379848 -0.013556086 0.020745665 -0.035722792 -0.021545636
-0.0036862683 -0.0055770674 0.020849923 0.030784912 -0.019582255 0.020715436 0.01644902 -0.0029038857
-0.005435457 0.011126781 0.021120824 -0.020824254 0.010456689 -0.005166406 -0.036438383 0.037460987
0.010182697 0.013189392 0.015720755 -0.018226167 0.03307696 0.012432514 -3.708873e-05 -0.0034903763
0.00306714 -0.00259333 0.015763005 0.0113682365 -0.0053816973 -0.0225631 -0.024350055 0.01422129
-0.0040481235 0.016775232

v_fc1.weight f4 [256, 136]
00000000: 7cf0 b8bd 4a46 cbbd bacc 8cbd c417 783c
00000010: 261a b6bd f290 c43d 6ea1 623c 36b6 d13d
00000020: 25bc ebbd 1911 2bbd 4552 823d 0eda cf3d
00000030: 3541 8c3d 7a7c 5e3d e068 af3d ba5a f6bc
00000040: 9432 fdbc 4bab 5a3d 86b6 edbd 3bdf f33d
00000050: 5e5c df3d e51e 14bd bf71 47bc 01f7 a03d
00000060: 60e1 e83d 6a1e b73d 03f5 8cbd 83b7 9fbd
00000070: 8111 6ebd ddc3 dc3d 44fe 70bd b032 eb3c
00000080: a900 173d c7e7 033e 0d3c 07bc ade8 e73d
00000090: fb5c c13d 467a 2b3d cd8e e73b 5e9d 18bc
000000a0: 68b1 c5bd 3b5d 08bd 193f d43d 16c2 e03c
000000b0: 5f7a f23d f507 a7bd f4d0 e8bc 8bf8 43bc
000000c0: a3ef 3e3d 9ab3 cbbc 85e8 f43d e5e9 babd
000000d0: 7a18 e1bd ddc5 01ba 1971 d03c 987e 9c3d
000000e0: 38a3 febd fdf2 293d 8c36 893d 0640 dd3d
000000f0: 4d20 b33c 511d d03d 9b98 f73b 6ca3 22bd
00000100: e436 51bd dee3 df3c 9f42 4cbd 7017 b73c
00000110: 8fc4 adbd 7b09 d93b baa4 e33d dfa9 683d
00000120: 00b5 2abd 694b a53d 52d3 b2bd 2701 64bd
00000130: 7980 a33b ddc0 c6bc d983 bc3d 93d8 5cbd
00000140: ec3d 7bbd 5b2b 0dbc d3e6 ee3d 7b08 9dbd
00000150: ae21 98bd bdb1 fdbd 1ae6 173d fe55 ebbd
00000160: f810 17bd e477 12bd be8d 473d 07eb 5abc
00000170: 989d c5bd 5aed 1e3d 14d5 8c3c c59e bcbd
00000180: ce8b 70bd c20e d63b 76c6 19bd dbe3 d9bd
00000190: 12cd 853d 8915 f1bb 8476 db3c a7b5 ebbd
000001a0: fa7d cdbd eafb 6e3d 83b6 8fbd cc81 b2bd
000001b0: 0c8e 74bc 3de8 20bc cdf9 ce3d ddda b53c
000001c0: 0ee8 e3bd edb4 a93d 251d e1bd 18e2 d43d
000001d0: 1f80 b3bd 52ed 593d 7916 203c c075 55bd
000001e0: 8db4 a3bd de0b 913d fb54 cabc 30ac c9bd
000001f0: 5a0b 4fbd 76ce c83d 4906 c2bd 0a7d af3d
00000200: 4736 513d 55bb b83d da47 bbbc 2e44 03be
00000210: 09d2 83bd c367 8c3b 4f99 c03d 6e9e b8bd
00000220: db18 40bd 57ac ea3d a560 b9bc c1a5 ff3c
00000230: 7efb 58bd 6222 b3bd 0e28 f43d 9fa5 ae3c
00000240: 3b49 dd3d 8fda d6bd 828e 673d 9404 c9bd
00000250: c99d b2bc 7ea1 6dbb a4e6 b8bd 989a c1bb
00000260: 006d df3d e689 98bd 695a 5fbd 0e4c b9bd
00000270: 09e3 6c3b 3973 863d 16ef 073e f362 0cbd
00000280: c906 c7bd cf4e e33d 0614 233b 027e 63bd
00000290: 575e 8cbd 17e5 e23c ec34 58bc 1f23 b5bd
000002a0: 07c6 913c 063b 41bc b36c d93d 5278 d8bd
000002b0: c259 0dbd 8445 fb3c d6bb a2bc 108a 5c3d
000002c0: 3da4 273d 5776 dabd 2c17 043e 31d0 debb
000002d0: 5afb 7cbd 99b7 cb3d 7523 163d 7efd bbbb
000002e0: 3e23 d13d 3047 833d 3908 94bd 2d53 463d
000002f0: 7857 d63c 6ff5 293c 9ee3 ef3d 2e9d 1abb
00000300: 508e 693d 1b7b 2c3d 9c97 b23d ccc5 603c
00000310: e77b 27bd a23c e63c e326 b9bd b2db 96bd
00000320: c88b 9b3c 0e7d 033d f9a4 e73c cc06 053d
00000330: 5350 8cbd 376e 243d ff89 aabd c5ec e7bd
00000340: f93e 2c3d c502 243d 63d5 263d e063 613c
00000350: 87bd a03d a6f9 debd 2108 dd3d 5f31 e8bd
00000360: 402c d8bd 9799 333d f4ee aabd eace 593d
00000370: 2a3e 56bc 67a6 93bd 6167 9d3d 558f 04be
00000380: 2cb9 28bd af96 dcbc 1745 2a3d 49af b7bd
00000390: a1c3 df3d 9c91 673d 5565 49bd dd4c edbd
000003a0: 3662 bcbd c8db b5bd 21da 873c 4a1f 9c3d
000003b0: 545d b13d 87f1 d0bd 7df5 09bd a5bc 183d
000003c0: 8056 303d 6220 8bbd fa77 df3d e4e2 bcbd
000003d0: fc12 61bc e85d 083e 8b0a 00be b805 0abe
000003e0: 37f2 43bd 5eb8 993d 46df be3d 16d9 96bc
000003f0: 67f9 1bbd 6cc8 7dbd 7d03 f63c c0d2 07be
-0.09030244 -0.09925516 -0.06874986 0.015142385 -0.08891706 0.095979586 0.013832433 0.10239832
-0.11510495 -0.041764352 0.06363348 0.101490125 0.06848375 0.05431793 0.08564925 -0.030072559
-0.030907907 0.053386014 -0.11607079 0.11907812 0.109062895 -0.036162276 -0.012173115 0.07859612
0.11371112 0.08941348 -0.0688267 -0.07798674 -0.05812216 0.107795455 -0.058836237 0.028710693
0.036865864 0.12881385 -0.008254063 0.11323676 0.09441563 0.041864656 0.0070665837 -0.009314863
-0.09652978 -0.033292037 0.103635974 0.027436297 0.11839747 -0.081558146 -0.02841995 -0.011961113
0.046615254 -0.024865914 0.11958412 -0.09126643 -0.10990997 -0.00049504434 0.025444554 0.07641333
-0.12433475 0.041491497 0.06699857 0.10803227 0.021865988 0.10161842 0.007556034 -0.039706632
-0.05107774 0.027330335 -0.049868222 0.022350043 -0.08484756 0.0066234446 0.111154035 0.056802627
-0.04167652 0.08071024 -0.087317124 -0.05566516 0.0049896804 -0.024261886 0.092048354 -0.05391748
-0.06133835 -0.008616294 0.1166512 -0.07667633 -0.07428299 -0.123874165 0.037084676 -0.11491011
-0.036881417 -0.035758868 0.04871916 -0.013361699 -0.09649199 0.038800575 0.017191447 -0.092099704
-0.05872708 0.006532521 -0.037542783 -0.10639163 0.06533255 -0.0073573035 0.026789911 -0.11509257
-0.10033794 0.058345713 -0.07017233 -0.08716163 -0.014926445 -0.009820995 0.101062395 0.022199089
-0.11128245 0.08286462 -0.10991887 0.103946865 -0.087646715 0.053204842 0.009770983 -0.05211425
-0.07993422 0.070823416 -0.024698725 -0.09847295 -0.050547935 0.09805004 -0.09473855 0.08568771
0.051077154 0.09020106 -0.02286141 -0.12818977 -0.064365454 0.0042848303 0.09404241 -0.09014593
-0.046898704 0.114586525 -0.022629092 0.031206967 -0.052974217 -0.087467924 0.11921702 0.021319209
0.10804983 -0.104909055 0.05653239 -0.09815326 -0.021803753 -0.0036259587 -0.09028366 -0.0059083216
0.10909462 -0.07448177 -0.05452958 -0.090477094 0.0036146066 0.06564946 0.13274798 -0.034274053
-0.09718091 0.11099016 0.002488376 -0.055540092 -0.068539314 0.02769713 -0.013196211 -0.088445894
0.017794622 -0.011793857 0.10616436 -0.10569824 -0.034509428 0.030672796 -0.019864958 0.053842604
0.040928114 -0.10667103 0.12899464 -0.0067997207 -0.061763145 0.09947128 0.03665491 -0.0057370057
0.102118 0.06410062 -0.07228131 0.048419166 0.026164755 0.010373457 0.117133364 -0.0023592222
0.057020485 0.04210959 0.087203234 0.013719033 -0.040889647 0.028105084 -0.0904062 -0.07366122
0.018987551 0.032101683 0.028276907 0.032477185 -0.06851258 0.04014417 -0.08327102 -0.11324457
0.042052243 0.040041704 0.040730845 0.013756722 0.078486495 -0.108874604 0.10792566 -0.11337542
-0.10555315 0.043847647 -0.08346358 0.053175844 -0.0130763445 -0.07209473 0.076857336 -0.12945302
-0.04119222 -0.02692732 0.041569795 -0.0896898 0.10925985 0.05653535 -0.049168903 -0.11586926
-0.0919842 -0.088798106 0.016583504 0.076231554 0.08660379 -0.10202318 -0.03368138 0.03728928
0.043051243 -0.06793286 0.109115556 -0.092229635 -0.013737436 0.13317072 -0.12504022 -0.13478744
-0.047838416 0.075058684 0.0931993 -0.018414062 -0.038079645 -0.061958715 0.03003096 -0.13263988

v_fc1.bias f4 [256]
00000000: a854 14bc 4c99 23bc 0f22 7cbb 4fb9 44bc
00000010: 4116 8ebb 3efe 0cbd 1ec6 49bc b079 12bc
00000020: c90d f6bc b3d0 223c 52db 4fbb d519 28bc
00000030: b508 1dbd d621 c0ba 5922 f93b 0a32 3b39
00000040: 0226 3b3c 2c4c 7fb9 7609 e8bc 01fb aabb
00000050: b989 8a3c 24ee 2dbc fb31 693c 0cf4 b4bc
00000060: 4776 5abc 8b8a 96bb 567b a63b 694d cabb
00000070: a141 31bb b99f ab3b 081f eebc 1801 d1bc
00000080: cc18 133c 3fad 773c 5a2d 75bc c182 c53b
00000090: 567d 323c 33c1 69bc f25f 8abb f00a f2bb
000000a0: e820 8dbc 10bc 83bb 102d 9a3a cbd6 adbb
000000b0: 7a65 073c 61c7 9f3c c086 9aba 18e9 b73c
000000c0: c3ae 24bc 80bc 3dbb b01d b1bc 8570 9cbc
000000d0: af95 223c 12c8 673c 8eba 9fbc d6f3 963c
000000e0: a620 3dbc 9e38 85bc b050 e2bb c1fa 93bb
000000f0: c984 bbbc 7bde 56bc d38f b2bc 41c0 773c
00000100: bfcc 19bc 7d24 05bc 520d 33ba 845c 2dbc
00000110: ee8c 6dbc 64ad d8bb 0572 f33c f39f 88bc
00000120: c6a3 31bc 1035 1cbc 9b33 1ebc ae3a 16bd
00000130: 4b30 bebb 19f3 4fbc 8801 66bb 7c84 ebbc
00000140: 9cd3 efbc e761 06bb 7133 f4bb f77d b7bc
00000150: 44f0 5a3b f77f 0fbc 5f61 303b 94bb 3e3b
00000160: 3632 b23b 2273 7bbc 9777 f63b e57f aebc
00000170: 820e 8f3c 6739 1ebb ec44 8bbc 26ed f0bb
00000180: 47a9 d1bc 9773 5ab8 80cc 853c c2ab 9fbb
00000190: a01e 11bc 4a03 353c 3b0a ccbb d11a 29bc
000001a0: c828 23bc b6f7 c4bc 6a3e 1abb 6c5e 74bb
000001b0: 4d72 f63c 879f 96bb 82fc 983c e994 70ba
000001c0: 3bc7 53bb 5466 32bc 8feb a7bc 7f7a 303b
000001d0: 1ace 68bc 8890 28bc bb2c feba 12e4 f93c
000001e0: ebf4 b3bc f186 90bc a260 85bc 6c6d 69bb
000001f0: d865 c3bc 8d33 acbc 1b36 9bbc 5dca 68bc
00000200: 9055 1fbc 3d50 fbbb dde8 7cbc 592d 88bc
00000210: 68e8 51bb 370b d7bb 5c06 15bc c317 37bc
00000220: cba9 eabb ac81 85bb 9efa d03c 9671 533c
00000230: 1bc8 6b3b fbe2 88bb 5261 d8bc c8eb c43b
00000240: 4ad4 acbc 87bf 75bc 71e6 03bc fcdc 3fbc
00000250: 90ae f9b9 3d6a a8ba 27d9 e53a 48da 7c3c
00000260: 05b0 72bc 2d3f c23a e56f 71bc 99b5 cdbc
00000270: ff0d cfbc 57a3 353c 23da 97bc 2f8c 3cbc
00000280: ecc5 eb3c 274d 783b d088 94bb 595e 8a3a
00000290: 3dba b8bb cccf bcbc 5e9c 38bb c90e 913b
000002a0: dcbb a9bc 3f58 28bc a38a 3bbc 497b 95bc
000002b0: b174 283c 744b 9fbc e870 5a38 8d6b 3bbc
000002c0: 6fb5 ccbc 9d4f 903b bfb6 abbc 4bd5 a9ba
000002d0: f77f 30bc 0b25 203d 4cb6 10bb ce6e 323b
000002e0: d937 e9bb 98f8 43bc d1b6 cabc 315a cfbb
000002f0: b07b 2dba 44e2 8abc 3215 edbb 5970 9cbb
00000300: 6c13 d9bc bf8a 4fbb ed66 7e3a 109f acbc
00000310: 7ccd 7fbc 9164 87bb e67a e3bc 5a68 863a
00000320: b950 28bc 1768 babb 876b 29bc 01f4 91bc
00000330: 3d31 8f3a e3e2 b23b 5c6b f7bb 5ac3 3cbb
00000340: 49ed d0ba 3049 cdbc 2506 1539 4634 26bd
00000350: ef7d 86bb 7306 96bb 15f2 433a 077c 32bb
00000360: 4cb5 16ba 716a 943c 7127 b93a a220 85bc
00000370: e3db 4b3b d459 183c 1bdf acbc 63e5 0bbc
00000380: afff 543a ea22 8dbb 768b 73bc eccb 2dbd
00000390: aba4 3dbc e5a0 a9bc dcd7 c0bb 4338 053c
000003a0: e777 ffbb 9cc5 69bb be27 64bd 1aa1 34bc
000003b0: 5557 47bc 0000 0000 8f31 15bc 7222 a3bb
000003c0: 8cd4 a83b 2272 093c 801c 03bc b69e 06bb
000003d0: 6d65 b73b 9e4a b3bb e008 4c3a 06e7 e2bc
000003e0: 1ed8 9b3b 3aca 45bc 1b04 753c 74df 1e3c
000003f0: 09ea 59bc 347f 6cbc 4f10 a4bc 2dbc 0abb
-0.009053387 -0.009985279 -0.003847245 -0.012007072 -0.004336149 -0.03442215 -0.012315301 -0.008940145
-0.03003587 0.009937453 -0.0031716418 -0.010260065 -0.03833838 -0.0014658521 0.0076029715 0.0001785235
0.011422636 -0.00024347071 -0.028324824 -0.0052179103 0.016911374 -0.010615859 0.014233108 -0.022089027
-0.013333864 -0.0045941523 0.0050806208 -0.006173779 -0.0027047175 0.0052375463 -0.029067531 -0.025513217
0.00897808 0.015116989 -0.014964426 0.00602755 0.01089414 -0.014267254 -0.0042228634 -0.0073865578
-0.017227605 -0.0040202215 0.0011762697 -0.0053051463 0.00826394 0.019504251 -0.0011789426 0.022450015
-0.010051432 -0.0028951466 -0.021620601 -0.019096622 0.009923383 0.014146822 -0.019498136 0.018426817
-0.0115434285 -0.016262349 -0.0069065914 -0.004515976 -0.022890465 -0.013114567 -0.021797096 0.0151215205
-0.009387194 -0.008126375 -0.0006830293 -0.0105811395 -0.014498932 -0.0066124666 0.029717455 -0.016677832
-0.010842269 -0.009534135 -0.009655858 -0.036677055 -0.005804097 -0.012692236 -0.0035096128 -0.028749697
-0.029275708 -0.0020505132 -0.0074524214 -0.022398932 0.003340737 -0.008758537 0.0026913506 0.0029103504
0.0054381145 -0.015347274 0.0075215804 -0.02130122 0.017462973 -0.0024143101 -0.017000638 -0.007352489
-0.025593413 -5.20829e-05 0.016332865 -0.00487277 -0.008857399 0.011048147 -0.0062268055 -0.010321335
-0.0099584535 -0.024043899 -0.0023535737 -0.0037287725 0.0300838 -0.004596654 0.018675093 -0.0009177463
-0.0032314796 -0.010888655 -0.020498065 0.0026928482 -0.014209295 -0.010288365 -0.0019391993 0.03050426
-0.021967372 -0.01764247 -0.01628143 -0.00356182 -0.023852274 -0.021020675 -0.018946698 -0.014208403
-0.0097249895 -0.0076694773 -0.015436378 -0.016623186 -0.0032029394 -0.006562616 -0.0090957545 -0.011175099
-0.007161354 -0.004074296 0.025510129 0.012905499 0.0035977426 -0.004177449 -0.026413593 0.0060095526
-0.021097321 -0.014999277 -0.008050547 -0.011710402 -0.0004762304 -0.0012849044 0.001753603 0.015432902
-0.014812474 0.0014819853 -0.01473615 -0.025111007 -0.025275229 0.011086307 -0.018536633 -0.011508032
0.0287809 0.0037887783 -0.004532911 0.0010556682 -0.0056374357 -0.023048304 -0.0028169374 0.0044268114
-0.020719461 -0.010274946 -0.011446628 -0.018247264 0.010281728 -0.019445159 5.2080402e-05 -0.011439216
-0.024988858 0.004404022 -0.020961164 -0.0012957243 -0.010772697 0.039097827 -0.0022081314 0.002722669
-0.0071172533 -0.011961125 -0.024745377 -0.0063278903 -0.0006617857 -0.016953595 -0.0072351927 -0.004774135
-0.026498519 -0.0031668392 0.0009704668 -0.02107194 -0.015612956 -0.0041318615 -0.027768563 0.0010254488
-0.010273152 -0.005688678 -0.010340578 -0.017816545 0.0010924708 0.005459176 -0.00755064 -0.0028802962
-0.0015939857 -0.025059313 0.00014212036 -0.040577196 -0.004104368 -0.0045784055 0.00074747327 -0.002723457
-0.0005749061 0.018117161 0.0014126134 -0.016250912 0.0031106404 0.00929876 -0.021102479 -0.008538577
0.0008125258 -0.0043071406 -0.014864793 -0.042430803 -0.011574904 -0.020706603 -0.0058851074 0.00813109
-0.007796276 -0.0035670763 -0.055701964 -0.011024738 -0.012166818 0.0 -0.009106054 -0.0049784714
0.0051522907 0.008389028 -0.0080024 -0.0020541376 0.0055968077 -0.0054715415 0.0007783305 -0.027698051
0.004755988 -0.01207214 0.014954592 0.00969683 -0.013300427 -0.014434624 -0.020027308 -0.002116929
