model/cart/max.pt (torch, 863294 bytes, 12 tensors)

log_std f4 [50]
000000 13 bf 85 be 61 56 63 be 92 ec 1a be 77 da 39 be
       -0.2612234 -0.2220092 -0.15129307 -0.18149744
000010 16 b0 62 be c7 b1 8d be bd 2b 4e be 58 e1 5b be
       -0.22137484 -0.27674696 -0.20133872 -0.2147268
000020 56 0e 64 be 64 20 b3 be 4d 67 23 be 9f ad 81 be
       -0.22271094 -0.3498565 -0.15957375 -0.25327775
000030 6d 2d 6e be e5 90 ae be 48 85 19 be c6 2a 50 be
       -0.23259516 -0.3409492 -0.14992249 -0.20328817
000040 fb 58 db bd cf d1 9a bd 03 62 3b be 53 68 b7 be
       -0.10710331 -0.07559549 -0.18299107 -0.3582178
000050 da 65 9f be 11 4f 47 be 6b d0 b5 be db a7 89 be
       -0.31132394 -0.19463755 -0.35510573 -0.26885876
000060 78 4a a0 be 71 85 f9 bd a9 a4 72 be 56 12 03 be
       -0.31306815 -0.12183655 -0.23695625 -0.12799963
000070 3a f6 32 be 5a 22 9e be a3 76 02 bf af e6 fb be
       -0.1747674 -0.30885583 -0.50962275 -0.49199435
000080 c1 98 bb be 19 e3 82 be 4e 73 07 bf 7d a8 b7 be
       -0.3663998 -0.25563887 -0.52910316 -0.35870734
000090 05 3c 98 be 36 73 50 be 3a 5d 73 be d2 8a 69 be
       -0.2973329 -0.2035645 -0.23766032 -0.22806862
0000a0 f7 46 a9 be 99 0c 8b be 49 2e d2 be d8 95 24 be
       -0.33061954 -0.2715805 -0.41050938 -0.16072786
0000b0 a1 ec 63 be 35 9f b9 be cd 0b 55 be fd 42 0f be
       -0.22258236 -0.36254278 -0.20805283 -0.13990398
0000c0 af 2f 68 bd f2 d9 48 be
       -0.0566861 -0.1961439

p_fc1.weight f4 [256, 136]
000000 b6 40 1f bc 58 3b 03 bd 4b 82 fe bc df 96 56 3d
       -0.009720018 -0.032039016 -0.031067988 0.052389976
000010 dd ba a6 3c 08 0d 43 bd 5a c8 17 3e 4b 41 15 bd
       0.020352775 -0.04761985 0.14822522 -0.03643922
000020 d1 62 9f bd 7a 06 48 bc 10 03 4c bd 67 44 d9 3d
       -0.077825196 -0.012208575 -0.049807608 0.1060875
000030 1a ee 67 3c 6d ec e8 3d 14 46 c7 3d 9a 00 ba bd
       0.014155889 0.1137322 0.09730163 -0.09082146
000040 40 75 33 bd f6 4a 95 3d 40 61 59 bd 8a 09 7a bd
       -0.04381299 0.07289688 -0.05307126 -0.061044253
000050 90 e6 bb bd f2 f7 9d bd 50 09 ca 3c 31 43 35 3d
       -0.09174836 -0.077133074 0.024662644 0.04425353
000060 b7 18 b2 3d 29 9e bc bd 4e 2f 1a 3c 5f 87 41 bd
       0.0869612 -0.09209854 0.009410692 -0.04724824
000070 9e 32 dd 3d 44 4c 53 3c 7b fa 79 3e 10 24 db bc
       0.1080067 0.012896601 0.24411957 -0.026750594
000080 1f 9d ce 3d 4d 04 27 3e a1 e5 da bd 28 3a 05 3d
       0.10088562 0.16310234 -0.106883295 0.032526165
000090 cc 32 47 3d 00 78 1d bd ba 7b 9a bd b0 da fd 3c
       0.048632428 -0.03844452 -0.0754313 0.030988067
0000a0 01 ba e2 3c db 5d e3 3c 85 6c 4d bc 9f ec cf 3b
       0.027676584 0.027754715 -0.01253808 0.006345346
0000b0 a5 7e 58 bd 2b a7 a5 3d ab b9 1c 3d 27 b1 23 be
       -0.052855153 0.080885254 0.038263004 -0.15985547
0000c0 83 1e 3c 3d 40 d5 c2 bd a1 4a d3 bd 60 b3 1d bd
       0.045927536 -0.095133305 -0.10316969 -0.038501143
0000d0 56 d5 27 3d 32 bd fa bd d5 61 bb 3d 1d a0 2f 3d
       0.040974937 -0.122431174 0.09149519 0.042877305
0000e0 e4 dd cd bc 87 34 ae 3d 50 0b 3a bd 23 67 7d bb
       -0.02513022 0.085061125 -0.045420945 -0.003866621
0000f0 a7 42 a9 bd c6 8e de bd 56 24 62 bd 1f df ae bd
       -0.08264666 -0.108670756 -0.055210434 -0.08538651
000100 97 71 d3 3d 6f 2c 05 3b bd 83 28 bd 4a f4 c3 bc
       0.103244 0.0020320674 -0.04114126 -0.023920197
000110 3f ad 4f be 1b 35 4d bd e9 8f 88 bc 41 dc f1 bc
       -0.20280932 -0.050099473 -0.016670184 -0.02952397
000120 e4 47 a3 3d 6f 3c d1 3d 60 80 eb bd 4e 7f a6 3d
       0.079726964 0.10216605 -0.11499095 0.0812975
000130 e9 ae d9 bd 0f 1f 14 be 44 0b 9f 3d 92 d5 87 3d
       -0.106290646 -0.14464973 0.077658206 0.06632532
000140 90 ff 1c be 07 f0 65 bd 81 ec 2a be 62 07 3f 3c
       -0.15331864 -0.05613711 -0.16691782 0.011659475
000150 c3 be 80 bd 58 12 0d 3b fa 2b ee 3d 14 e5 0d bb
       -0.06286385 0.0021525826 0.116294816 -0.0021651434
000160 03 a3 23 bd 5d 81 16 3d 45 62 88 bd c6 ee 1b be
       -0.039950382 0.036744464 -0.066593684 -0.15227804
000170 06 62 40 bd aa 8a d0 3d 1c 96 c5 bd 47 2c aa 3d
       -0.046968482 0.10182698 -0.09647772 0.083092265
000180 d0 1b a1 bd 65 ba 43 be 96 c4 47 be 35 b2 65 3d
       -0.07866633 -0.19114073 -0.19508585 0.056078155
000190 2f eb 90 bd 17 87 53 bd a0 a1 18 bc 07 8e 31 3d
       -0.07076108 -0.051642504 -0.009315878 0.04334834
0001a0 3e a5 0e 3b 86 82 98 bd 30 c1 30 3c 6a b2 0c be
       0.0021765972 -0.0744677 0.010788247 -0.13739935
0001b0 2e a9 9d bb 2d 94 7d bd 2f 2c d6 bd 28 b4 52 3c
       -0.0048114276 -0.06190889 -0.10457646 0.012860335
0001c0 cf 89 51 3d 87 3d 8d 3b 1d c9 e1 bd 87 7c 3a be
       0.051156815 0.004310313 -0.110246874 -0.18211566
0001d0 d3 57 cb 3b e3 5f 4d 3d e6 13 46 be a2 a0 e5 3d
       0.006205538 0.050140273 -0.19343528 0.11212279
0001e0 b8 0f aa bd 59 82 0f be c1 c1 a0 bc ca 55 07 be
       -0.08303779 -0.14014567 -0.019623639 -0.1321632
0001f0 8a 55 db 3c 3f 85 3c bc 1b f9 cd bc ab 98 3a be
       0.026774187 -0.011506378 -0.025143197 -0.182223
000200 6d 89 4a 3e b4 98 ff bd ac ff 07 be be c0 11 3e
       0.19778986 -0.12480298 -0.13281125 0.14233682
000210 d5 04 f6 bc 27 78 f2 bd 26 e2 9d bc 60 56 92 3d
       -0.030031601 -0.118393235 -0.019272875 0.07145381
000220 26 dc 55 bd 6b ca 0e 3e 22 67 08 3d 9e cc 99 3c
       -0.052211903 0.13944404 0.03330148 0.018774327
000230 34 17 f5 bc 86 60 80 3d 05 8a 7a bd 1f fc fe bc
       -0.02991829 0.062684104 -0.061166782 -0.03112608
000240 49 7e f8 bc 98 20 ca 3d 33 bc 0f 3e dd 72 a9 bd
       -0.030333655 0.09869498 0.14036636 -0.082738616
000250 4f fd e3 bd b4 fc 41 3d c0 3e 3b 3d c1 8e cc bd
       -0.11132299 0.047360137 0.04571414 -0.09988166
000260 df 79 53 bd b9 a9 40 bd f3 39 a1 3d b8 36 3e 3d
       -0.051629897 -0.04703686 0.07872381 0.046438903
000270 fe d3 6a bd 74 2b a2 bd 9d 42 9a 3d c2 3a 26 bd
       -0.057331078 -0.07918444 0.07532237 -0.04058338
000280 8b 57 39 3c da 5c 4c bd 0e 38 97 bd 5f 89 97 3d
       0.011312376 -0.049893238 -0.073837385 0.07399248
000290 a1 9b 87 bc c4 c1 ab 3d 3b a7 fc 3d 9a 0e bc 3b
       -0.016553702 0.08386567 0.12336584 0.0057390453
0002a0 13 3e ed 3b ab 67 01 3e 92 46 73 3d 76 58 88 3d
       0.007240066 0.12637202 0.059393473 0.066574976
0002b0 2f 92 dc 3c 98 a7 82 bd 41 34 05 bc 68 5b a1 3d
       0.026925175 -0.06379622 -0.008130134 0.078787625
0002c0 f9 60 fc b9 82 af a9 bc 0c 7c a6 3d d2 0d cf 3d
       -0.00048137436 -0.020713571 0.08129129 0.10110058
0002d0 f0 3c c2 3d f5 a5 cc bc 3d 70 d4 3c 05 7e 78 bd
       0.09484279 -0.024981478 0.025932426 -0.060667057
0002e0 5a 50 ae bd 40 56 3b 3d d5 f0 cf 3b fd 1f e3 3d
       -0.085114196 0.04573655 0.006345848 0.11090086
0002f0 6c 10 5b 3c 6f 5c b0 bd 1c a7 05 bb ab 32 c2 3d
       0.0133706145 -0.0861138 -0.0020393794 0.094823204
000300 97 c7 71 bd 58 5e b7 3d f9 33 18 3d 4e 43 04 3e
       -0.059028234 0.089535415 0.03715894 0.129163
000310 6a 38 aa 3b db f7 24 3d 8a 79 f7 bc b1 4b 4e 3d
       0.0051947134 0.040275436 -0.030209322 0.050365154
000320 cb 9a 3f bd 22 f1 87 3d d5 5c 2f bd 41 1a 0f 3e
       -0.04677848 0.06637789 -0.04281314 0.13974859
000330 67 16 e8 bc 82 e4 19 bd f0 d6 00 bd 6f 92 8c ba
       -0.028330995 -0.037571438 -0.03145498 -0.0010724793
000340 d1 b9 38 3d 91 ba 06 3e 09 d6 77 3e 19 8d f3 bd
       0.045099083 0.13157107 0.24202742 -0.118921466
000350 ce b4 9a 3c 49 5f 51 3e 8d 65 5a bd fa 15 22 3e
       0.018885043 0.20446505 -0.053319503 0.15828696
000360 c8 4e 5e 3e 42 54 05 3d 61 5f 98 bd 7d 39 d7 3b
       0.2170974 0.032551058 -0.07440067 0.0065681324
000370 56 74 18 3c 00 64 8d 3d d3 40 89 bd c2 5e 0b 3e
       0.00930508 0.06903839 -0.06701817 0.13610366
000380 b9 ac 1f bd c9 47 00 bd bb 95 91 3d 3b f8 8a 3c
       -0.03898308 -0.03131846 0.07108637 0.016964069
000390 6a f6 e2 3c 9a 24 26 bd 92 6c 6f bd f3 51 3a be
       0.02770539 -0.04056225 -0.05845315 -0.18195324
0003a0 f2 bd d6 3d 41 b1 36 3e 69 20 52 3d 18 e1 ee 3d
       0.10485448 0.17841054 0.05130044 0.11664027
0003b0 db 71 01 3e ff 17 c8 3d be 6d 9e 3c eb 22 50 3c
       0.12641089 0.09770202 0.019339439 0.012703638
0003c0 08 7f c1 bd e9 20 1e 3e 8a a1 aa 3d a6 7d 2b 3d
       -0.094480574 0.15442242 0.083315924 0.041867875
0003d0 a8 5d 92 3d 0e 00 2e 3e ed cd 31 3d f1 3e 34 3e
       0.0714677 0.16992208 0.043409277 0.17602135
0003e0 ad 98 c7 3d 58 05 33 bd 3d 89 8d 3d ce 23 78 3c
       0.097459175 -0.043706268 0.06910942 0.015145255
0003f0 61 c5 b5 bd c5 b9 51 3e 7d 70 8c 3d ee d4 89 bd
       -0.08875538 0.20481022 0.06857393 -0.06730066

p_fc1.bias f4 [256]
000000 cd 50 12 bc 81 86 15 bc b1 43 9c bc 65 75 34 3b
       -0.008930397 -0.0091263065 -0.019075247 0.0027535793
000010 12 0e 73 3c 40 34 a3 bb a5 26 c3 bc be 35 d9 bc
       0.014834898 -0.004980594 -0.023822138 -0.026514884
000020 88 f3 0a 3c b2 67 08 bc 0b 6a c7 ba 4d 0c 68 3b
       0.008480914 -0.008325504 -0.0015214098 0.0035407722
000030 86 87 d8 bc 98 c6 60 bc 2a f4 72 3c 75 8b ea 3c
       -0.02643181 -0.013719223 0.014828721 0.028630951
000040 a2 d7 c8 ba e2 3b c7 3c 7b b6 00 bb fa a2 9b 38
       -0.0015323053 0.024320547 -0.0019640017 7.421333e-05
000050 30 af 25 bc 3a b1 ba 3c 4f 10 7f 3b 49 9d 17 3c
       -0.010112569 0.022789586 0.0038919633 0.009253808
000060 19 0f 96 bc a9 83 68 3c df 0d 72 bb ab c6 88 3b
       -0.018317746 0.0141915465 -0.0036934537 0.0041740737
000070 7e 14 99 3b 48 2d a5 3b 4f 44 c7 3b 17 82 53 39
       0.0046716323 0.0050407983 0.006081141 0.0002017099
000080 2b 7f 36 b9 b9 d3 a2 bc ca ad 9c bb ff ee eb 3c
       -0.00017404246 -0.019876348 -0.0047814595 0.028800486
000090 4e df a9 bc 32 e3 2c bb 6b 1e 16 bc 4a 50 ac bb
       -0.020736363 -0.0026380536 -0.009162526 -0.0052585946
0000a0 dc 10 64 3c 30 60 69 3c b7 61 b6 bb 2c c5 4b 3c
       0.013920035 0.014244124 -0.0055658477 0.012437146
0000b0 c3 73 8f bc 2c e9 86 bb 65 cd 60 bb ad a1 53 3c
       -0.017511254 -0.0041171517 -0.0034302112 0.0129169645
0000c0 2d 54 0b bb 46 05 3f bb 38 f6 32 bc 05 57 2e 3c
       -0.002125989 -0.002914743 -0.010922961 0.010640864
0000d0 e0 af b3 3c b6 1f f5 bc a6 f0 ad bc a0 2a 28 bc
       0.02193445 -0.029922348 -0.021232914 -0.010264069
0000e0 f6 7e bd 3c 59 d6 18 bb 19 40 85 3b cd 1f 71 3c
       0.023131829 -0.002332112 0.004066479 0.014717055
0000f0 b1 a9 fc 3b c6 40 cb 3c 19 46 2b bc 09 3e c2 3a
       0.0077106585 0.02481116 -0.010453724 0.0014819513
000100 84 d2 9e 3a 19 70 f4 ba 7a 1f 0c 3c 94 f3 8d bc
       0.0012117182 -0.001864913 0.0085524265 -0.017328061
000110 9e 76 ab bc 38 3a 8a 3c ec 34 ac bb d8 f6 c9 3c
       -0.020930585 0.016873464 -0.005255332 0.024653837
000120 95 3a b4 bb 37 bd 99 bc 9b c5 91 3a e1 9b c7 bc
       -0.0055001476 -0.018766982 0.0011121513 -0.024366321
000130 25 a3 e1 bb 0c f3 d1 3b 19 fe 40 bc 11 67 b8 bb
       -0.0068859034 0.0064071473 -0.011779332 -0.005627521
000140 b2 ce 3a 3c 91 d8 84 ba 57 92 84 3b 48 48 d1 bb
       0.011401819 -0.0010135343 0.0040457654 -0.0063867904
000150 06 94 90 3b 4c d5 fe 3b 1b 87 65 39 09 d4 42 bc
       0.004412177 0.007776892 0.00021889473 -0.011891373
000160 91 be dd 3b 09 1c 91 bc 39 f9 db 3c 38 44 52 3b
       0.006767102 -0.017713564 0.026852237 0.0032084119
000170 5e 04 63 3c 70 1f 61 bb e5 f8 b0 bc bc 30 8e bc
       0.013856022 -0.0034351014 -0.021603057 -0.017357223
000180 8a 30 2b bc bd f1 0e 3c cb 56 ba bb 47 97 88 bc
       -0.010448584 0.008724627 -0.005686616 -0.016673697
000190 ba a7 98 bc 2b c0 da 3c 01 b2 e7 bb b4 20 5a bc
       -0.018634666 0.026702961 -0.0070707803 -0.013313461
0001a0 8f 47 94 bc de a8 9e 3c 76 36 af 3c 1e 4e f8 bb
       -0.018100528 0.019367632 0.021388274 -0.0075776717
0001b0 19 88 b2 3b 7d d6 cb bc 19 3d 31 3c 9c f2 1b 3c
       0.005448353 -0.02488255 0.0108177895 0.009518292
0001c0 3d 2d 5e bb 0a 38 e6 bb 10 e5 e4 3a 5d 73 81 3b
       -0.0033901476 -0.0070257233 0.0017463285 0.00395052
0001d0 41 87 0b bc a7 7a 3e bc 99 c8 65 3b 4a 29 c3 bb
       -0.008516134 -0.011625922 0.0035062192 -0.00595585
0001e0 20 12 99 bc 85 36 3b 3c 58 65 54 bc 34 9b c8 3b
       -0.0186854 0.011426573 -0.012963615 0.0061220173
0001f0 1c df cf bc 2d e2 26 3a 60 a0 1d 3c 50 3e 76 ba
       -0.025374942 0.00063661 0.009620756 -0.00093934406
000200 24 a6 15 3c 01 5c f8 3b 22 2e 06 3c 28 45 da 3c
       0.009133849 0.007579327 0.00818971 0.026644304
000210 61 97 83 bc ac e1 89 3b 45 1d 05 bc f3 22 94 3c
       -0.016063394 0.0042078104 -0.008124654 0.018083071
000220 29 80 08 3d 7e e6 0c bc 5c 2c fc 3c 0b 97 1b 3b
       0.033325348 -0.0085998755 0.030782871 0.0023741152
000230 b1 d3 46 bc 8f 9a 3b 3c e7 af f1 3b d5 49 cc 3b
       -0.012135432 0.011450424 0.0073757055 0.0062343874
000240 10 64 dd 3b 54 bf 19 bc fb 7c cc bc 59 b6 f7 3a
       0.006756313 -0.009383995 -0.02496194 0.0018898948
000250 eb 9a ab bb 39 9a 14 bc 27 1b cf bb 55 6b 68 bc
       -0.0052369735 -0.009069973 -0.0063203755 -0.014185746
000260 35 a5 6e 3a fe de c4 3c cc d6 6f 3c 16 9f e5 3b
       0.0009103597 0.024032112 0.014638614 0.00700749
000270 5f 19 d6 bb 45 7d 66 ba 95 8a 63 3a 41 99 71 3b
       -0.006533786 -0.00087924703 0.0008680013 0.0036865028
000280 d7 47 75 3c e8 b9 0d 3b fe db 8e bb 60 2b 4f bc
       0.014970741 0.0021625701 -0.004359721 -0.012644619
000290 6c 3c 8c bb 4a de c7 ba 89 e0 a9 3c bb ba 73 bb
       -0.004279664 -0.0015248742 0.02073695 -0.0037190157
0002a0 45 be 85 3c 24 9a d6 bb 22 67 4b bc 57 a7 25 3b
       0.01632608 -0.0065491367 -0.0124147255 0.0025276744
0002b0 76 4d 4e bc 0d 48 86 3c f4 21 61 bc e1 13 98 3b
       -0.01259171 0.016391778 -0.013741005 0.0046410416
0002c0 0c ae 90 3a 1b 1a 8c 3c 61 97 24 ba 5a f7 9c bc
       0.0011038198 0.017102292 -0.0006278661 -0.019160915
0002d0 6f 92 21 3c a7 b0 ff bc d9 78 44 3c 65 8b 8f 3c
       0.009861573 -0.031212164 0.011991703 0.017522523
0002e0 58 d1 c4 3a 24 0d 8f bc 60 2a 7e 3c 6e da 94 3b
       0.0015016003 -0.01746232 0.015513033 0.0045426404
0002f0 80 e0 48 bb dd 42 4c 3c 05 fe e0 bb be 06 62 3b
       -0.003065139 0.012467113 -0.006866219 0.0034488882
000300 62 d0 54 bb 02 ca 6f 3c 7e d5 8e 3c 88 f5 84 3c
       -0.0032472839 0.014635565 0.017435785 0.01623036
000310 87 52 9c 3c 49 6f 25 3c a5 88 c9 bc 86 a5 18 bc
       0.01908232 0.010097333 -0.02460129 -0.009316808
000320 d2 40 74 bc db 7e bb bb 32 a2 3e bb 18 d2 12 3d
       -0.0149080325 -0.0057219095 -0.0029088375 0.035844892
000330 68 6f ac 3b 22 0d cc 3b 5a 14 b4 3a cb b5 eb 3b
       0.005262304 0.0062271515 0.0013738975 0.0071933023
000340 04 ed 91 3b 59 55 db bc 1d ac dd bb 50 f4 aa bc
       0.0044533033 -0.026774095 -0.0067649023 -0.02086845
000350 28 fd af b9 a4 94 20 bb da 90 5c 3c ea d0 91 3c
       -0.00033567217 -0.002450266 0.01346227 0.017799813
000360 ec 0a ca bb ed 2f ab 3b 88 15 dd 3b eb 7f a3 bc
       -0.006165853 0.005224219 0.0067469515 -0.019958457
000370 9e 97 99 3c 0c d9 2c 3c 17 a8 99 3b 14 d6 92 3b
       0.018749055 0.010549795 0.0046892273 0.0044810865
000380 6f bf a7 bc 50 83 60 3c 9f 7d 94 3c a3 31 64 3c
       -0.020477025 0.013703182 0.018126307 0.01392785
000390 7b ab 45 bc 58 d4 34 3c 87 e2 89 3c e0 c2 17 bc
       -0.01206481 0.011036955 0.01683165 -0.00926277
0003a0 67 8a 17 bc 36 16 ae bc 4a e7 72 3b da 74 85 bc
       -0.009249306 -0.021250825 0.0037064129 -0.01629107
0003b0 34 0b fd 3a fc 5e 86 3c 95 9c 54 bb 92 0d 1a 3c
       0.0019305707 0.016402714 -0.0032441963 0.0094026495
0003c0 82 21 15 bb 93 b1 1e 3c fc 3b 55 3c 89 e6 f8 3c
       -0.0022755568 0.009685892 0.01301479 0.030383365
0003d0 f2 74 4f 3c 44 b6 83 3c 2d e1 2a 3a 2c 10 c1 b8
       0.012662159 0.016078122 0.0006518539 -9.2059694e-05
0003e0 00 a0 90 bc 6f 56 f8 39 e9 f1 b5 3c 64 ed 82 bb
       -0.017654419 0.00047366644 0.022210078 -0.0039955843
0003f0 95 00 8b bb 0a a4 2e 3b 4b 75 d2 bb 9c d0 89 bc
       -0.0042420127 0.0026648068 -0.006422674 -0.016823106

p_fc2.weight f4 [256, 256]
000000 2a e2 f8 bc e2 01 12 3e d8 83 9c bd d3 05 7f 3c
       -0.03038128 0.1425853 -0.07642335 0.015565353
000010 c2 32 d1 3d 33 2a 08 be 73 fd f7 3c a4 5e 2d bc
       0.102147594 -0.13297348 0.030272221 -0.010581646
000020 60 70 ea bc 50 d2 8c 3d cf 87 65 3d 41 31 6c bd
       -0.028618038 0.068760514 0.05603772 -0.05766416
000030 36 ab 22 bc a3 a6 ee bd 56 9e 26 3d 02 3a 0b 3d
       -0.009928515 -0.11652877 0.040678345 0.033990867
000040 7b cf 35 3d b0 8c 9e bb b8 3f a9 bd 4c c4 28 bc
       0.044387322 -0.0048385486 -0.082641065 -0.010300707
000050 b3 30 2e bd 2c aa f2 bb c6 74 38 bd 1b 1d 8c bc
       -0.042526912 -0.00740554 -0.04503324 -0.017103722
000060 e1 11 88 3d 5b 9c 47 3d c4 46 fc 3d d2 77 bc bd
       0.06644035 0.048733097 0.12318185 -0.092025414
000070 d4 50 b2 3d 67 61 dc 3b 94 41 c3 3d a8 b7 2d 3e
       0.08706823 0.0067254785 0.095339924 0.1696459
000080 f3 f3 a3 bc d0 d2 91 bc 35 95 97 bd 09 53 74 3d
       -0.020013785 -0.017800719 -0.07401506 0.0596495
000090 49 e8 e1 bd d1 75 01 3e 14 49 58 bd 6a f7 37 3d
       -0.11030633 0.126426 -0.052804068 0.044913687
0000a0 9d b1 9a 3b 0c 7a 39 3d e4 1e 64 3d 19 b6 30 be
       0.00472088 0.04528241 0.055693522 -0.17256965
0000b0 1e 56 16 be 7e 1b 03 be a1 40 bc bd de 16 aa bd
       -0.14681289 -0.12803456 -0.091920145 -0.08305143
0000c0 a0 ab 53 3d 65 ec cd 3c 9d 01 d7 3a 7a cd 7f bd
       0.051677346 0.025137136 0.0016403679 -0.062451817
0000d0 31 bc 73 bd 9e 73 c1 bb a9 fe 84 3c 9a bb ec bc
       -0.059505645 -0.005903675 0.016234713 -0.02889805
0000e0 31 e0 1e 3d b9 5c b2 3d da 77 50 bd 7d 01 ec 3d
       0.038788024 0.08709092 -0.05089555 0.11523721
0000f0 be b1 8b 3d 44 80 be 3d 31 f8 37 3d d0 c9 36 bd
       0.06821011 0.093018085 0.04491443 -0.044626057
000100 0c 76 1e 3e a5 be 01 3d 85 48 a1 bd 8c 86 24 3d
       0.15474719 0.031675953 -0.0787516 0.040167376
000110 55 e6 3d bd e6 c6 e2 3d 2d 20 1f 3d d8 d7 cf bd
       -0.04636224 0.11073093 0.038849045 -0.10148591
000120 dc 67 74 3d 79 9b 2c 3e f2 cf fa 3d 9c ea 13 3d
       0.05966936 0.16856183 0.12246694 0.036112413
000130 ab 9c ca 3c 3d 9e 2a 3d b7 d1 a9 bc c2 60 8b bd
       0.024732908 0.041654814 -0.020729883 -0.068055645
000140 bd 19 2c 3d bb ce 94 bd 93 57 d1 3d 22 72 df 3d
       0.042016733 -0.07265993 0.102217816 0.10910441
000150 66 f1 18 3e 10 01 33 3c 56 6e 60 3c 50 bb f4 3d
       0.14935836 0.010925546 0.013698181 0.119497895
000160 0a f5 8a 3d 0d 5f ca bc e0 b3 81 bd d0 f8 be bd
       0.06785019 -0.024703527 -0.063331366 -0.09324801
000170 c0 29 88 bc 6e 5f a1 bd 04 d7 fd 3d 15 9a e5 bc
       -0.01662147 -0.0787953 0.123945266 -0.028027574
000180 27 7c dd 3d 4e ec 81 3d ef 4c a1 bd 5a 21 94 bd
       0.10814696 0.063439 -0.07876002 -0.07232924
000190 d5 c1 93 3d d9 e3 14 be 30 c9 9f 3d c2 9a a8 bc
       0.07214705 -0.14540042 0.07802045 -0.020581607
0001a0 86 91 b1 bd 1b ce e9 3c b9 ac 33 3c 50 1c 86 3d
       -0.086703345 0.028540662 0.010966473 0.06548369
0001b0 e1 54 ea 3c 96 2f 34 3c 9e a0 55 bd c8 37 25 bd
       0.028604927 0.0109976735 -0.05215513 -0.0403364
0001c0 1f ee bc bd 99 1e f5 3d 0f d5 85 bd 40 b0 0f be
       -0.092251055 0.11968727 -0.06534778 -0.14032078
0001d0 b3 88 7b 3d ae 84 4d 3d 2a 6a 05 3e 27 f7 75 3c
       0.061409663 0.05017536 0.1302878 0.015012539
0001e0 f1 53 96 bc fb ec d4 3c 1f f2 fd bc 1e 7e 07 3e
       -0.018350573 0.025991907 -0.030999241 0.13231704
0001f0 e7 20 b4 bd e0 c2 62 bd 7b 60 a0 3c 03 f2 47 bd
       -0.08795338 -0.05536163 0.019577255 -0.048814785
000200 8a e5 8f bd 37 d6 10 3d 45 17 e8 bd ca 4b cd bd
       -0.07026203 0.03536054 -0.11332563 -0.10024221
000210 b7 b7 bf 3d ad 5d 99 3b cf 15 87 3c 76 ac 25 bc
       0.09361213 0.0046803565 0.016489891 -0.010111919
000220 d4 fc dd 3d 61 f7 e3 bd c5 6b d3 3d 71 2e eb ba
       0.10839239 -0.11131168 0.1032329 -0.0017942918
000230 95 0e 0c 3c 3d 47 99 3d 60 46 b5 bd 45 07 f0 3c
       0.0085483985 0.07484291 -0.088513136 0.029300341
000240 f5 26 a8 3d 57 ec 86 3d cd f1 52 bd a5 7f cd 3d
       0.082105555 0.06588047 -0.05150013 0.10034112
000250 6e a8 c3 3c 55 41 e7 3c ea 09 a8 bd e3 13 77 bd
       0.023884024 0.028229395 -0.08205016 -0.0603217
000260 37 c1 30 3d 18 33 96 bd 91 87 9c 3d 60 8f a0 bd
       0.043153014 -0.07333964 0.07643045 -0.078398466
000270 36 54 c5 3d 8d de ba 3d b5 bc 8b 3d d5 85 c8 bd
       0.096352026 0.091244794 0.068231024 -0.097911514
000280 2f 98 4c bd 68 d6 16 be 2e e7 85 bd ed 3f e6 bb
       -0.04994982 -0.14730227 -0.06538235 -0.0070266635
000290 e9 2a 9d 3c 54 8b a8 3b 33 fd e4 3d 77 c9 29 bd
       0.0191855 0.0051435623 0.111811064 -0.041451897
0002a0 8c 99 8b bd a3 f6 7a 3c ce 33 bf 3d 70 c7 88 3d
       -0.06816396 0.015317592 0.09336053 0.06678665
0002b0 35 81 6d bc 6a 01 5e 3d 12 b3 27 bc ab e1 d0 3d
       -0.014496137 0.054200567 -0.010235565 0.10199293
0002c0 ab 94 6a 3d c7 ae 85 bd ed 00 21 3e 7a ad 56 bd
       0.057270687 -0.06527477 0.1572301 -0.052411534
0002d0 e1 69 1b 3c 5b 2d 18 3d 4d fb a7 3d 10 30 55 bd
       0.009485693 0.03715263 0.08202229 -0.05204779
0002e0 d3 73 68 bd b5 5d 35 be dd e1 38 be 33 7b 03 be
       -0.056751084 -0.17711528 -0.1805491 -0.12839966
0002f0 dd ea 17 bd 22 cf 4d 3d f5 66 7b bd 2b c2 d8 bc
       -0.037089217 0.050246365 -0.061377484 -0.026459774
000300 80 db 0d 3e e1 f8 0e 3e 28 58 2a 3e 43 20 62 3c
       0.13853264 0.13962127 0.16635191 0.013801637
000310 7b 8a 83 3d 82 4e c6 bd 92 9f 51 bd 64 5a be 3c
       0.064228974 -0.09682943 -0.05117757 0.023236461
000320 0e da d2 3d d9 41 af 3d 75 c5 a2 3c 5c 4b ca 3d
       0.10295497 0.08557481 0.019869545 0.09877655
000330 1c 2b a0 3d 9a cc d8 3d 75 8f 86 3d 8f 67 35 bd
       0.078207225 0.105859 0.06570331 -0.044288214
000340 4f ab 99 3d 23 13 b5 3d b7 f4 8d bd f8 73 59 3d
       0.07503378 0.08841541 -0.06931441 0.053089112
000350 f5 34 70 bd 9e 35 4a bb da a3 88 bc 44 11 9c 3d
       -0.058644254 -0.0030854712 -0.016679693 0.07620481
000360 64 34 bf 3d 85 a7 e6 3c cc 6c 9c bc 8d 7a a9 3d
       0.093361646 0.028156051 -0.019094847 0.08275328
000370 87 b1 a2 3d 59 c5 51 3e f7 01 7a 3d fe 94 3d bd
       0.07944017 0.20485438 0.06103703 -0.04628467
000380 d8 0a b8 bd 7c e2 03 3d e5 15 29 3c ef 5c 2c bd
       -0.08986443 0.032198414 0.0103201615 -0.042080816
000390 c2 50 21 3d 2a 82 c3 3d 55 93 b1 bd 6c 23 8a 3d
       0.039383657 0.09546311 -0.086706795 0.067450374
0003a0 e3 4c 87 bd 97 54 7f 3d 3b c5 69 bd 8a 5f f4 bc
       -0.06606462 0.06233653 -0.05707286 -0.029830713
0003b0 59 de 11 3d c8 da f5 bc f1 a0 83 3d 3e 63 f1 3d
       0.035612438 -0.03001155 0.064271815 0.11786507
0003c0 bd 77 34 3d db 52 84 bd f3 dd 68 bd dd 63 03 3e
       0.044059504 -0.06461116 -0.056852292 0.12831064
0003d0 76 b8 b3 3c 27 b7 df bb c2 8b f7 3d ce 33 46 3c
       0.021938544 -0.0068272534 0.120872036 0.012097312
0003e0 01 e5 a5 bd 6b d5 07 bc 4e 32 22 bd 81 34 a3 3d
       -0.0810032 -0.008290629 -0.039598756 0.07968999
0003f0 1e 97 c0 3d 34 f3 a9 bb 28 e2 ba bd 4e c6 97 3c
       0.09403823 -0.005186463 -0.09125167 0.018527176

p_fc2.bias f4 [256]
000000 ec 44 30 3c a3 49 05 3c 09 6e 1e 3c e8 95 e9 3a
       0.01075862 0.008135232 0.009669789 0.0017821165
000010 79 77 91 bb 45 6e 48 bc 18 07 12 bc 21 31 b2 bb
       -0.004439291 -0.012233322 -0.008912824 -0.0054379855
000020 6f e1 16 bc 3f 28 72 39 35 72 8f 3c 1c 1c 61 3c
       -0.009209021 0.00023093911 0.017510513 0.013739612
000030 3d 40 14 3c 5c 11 ae 3b 63 f5 fc bb 8a 03 46 bc
       0.009048519 0.005312128 -0.007719682 -0.012085805
000040 04 0c 01 3b 33 b0 48 3c dd 72 19 3a 72 76 11 3c
       0.0019691 0.01224904 0.0005853603 0.008878337
000050 94 91 83 3c e9 18 4a 3c 44 58 98 bc 6c 4f 37 3c
       0.016060628 0.012335041 -0.018596776 0.011188369
000060 a7 51 bd bc 45 2e e8 3c 83 8e 46 bb bc f5 46 bc
       -0.023110224 0.028342376 -0.0030297346 -0.012143549
000070 a7 a2 12 bc 1b 6a 31 bc 7c 3a 89 bb 47 2c 95 3c
       -0.008949912 -0.01082852 -0.00418788 0.01820959
000080 61 21 90 bc a4 1e af bb a9 f6 6c 3b c2 81 71 3c
       -0.017594041 -0.005344229 0.0036157763 0.014740409
000090 24 c0 78 bc ae 47 6d bc 4f 72 30 3c 5b ec 21 bc
       -0.015182529 -0.014482422 0.010769441 -0.009883012
0000a0 30 77 1c 3c 7a ba 2c 3c ea c9 28 3b a1 26 2a bc
       0.009549901 0.010542506 0.0025755116 -0.010385186
0000b0 0a aa 63 bc 32 39 6d bc 2e d0 e7 bc b1 ac 49 bc
       -0.013895521 -0.014478968 -0.02829751 -0.012309239
0000c0 92 c1 ee 3c 75 98 c8 3b 5c 35 0d 3c 0c 1b c0 bc
       0.029145036 0.00612169 0.008618679 -0.023450397
0000d0 2f 40 13 3c 9f bd cd bc 2d 97 5a b9 15 d0 af bb
       0.0089874705 -0.025114832 -0.00020846417 -0.0053653815
0000e0 d2 d7 de 3c 88 b2 0c 3b 7e 77 11 3d ad 86 c1 3a
       0.02720252 0.0021468718 0.035514347 0.0014764868
0000f0 83 ee 53 bc a1 80 d7 3c 98 8c 84 bc d4 13 e2 bc
       -0.012935284 0.026306452 -0.016180322 -0.027597345
000100 ff e3 04 bc e3 ef 12 bc b3 1e 1b 3c 06 5f 9d 3c
       -0.008110999 -0.008968326 0.0094677685 0.01921035
000110 e0 04 81 3c 53 b1 98 3c a0 1a fe 3b 12 89 ba 3c
       0.015749395 0.018639242 0.007754639 0.022770438
000120 c7 97 c8 bb a2 29 b8 bc f2 29 1f 3d 0c 6f df 3c
       -0.006121609 -0.02248079 0.03885836 0.027274631
000130 ef c2 fa 3b 1f bf c3 3b 60 b5 a0 bc e6 5e c2 3c
       0.0076526324 0.005973711 -0.019617736 0.023726892
000140 5c 0b 89 3c 6e 87 71 ba 71 22 a1 3b 81 2e a4 bc
       0.01672905 -0.0009213601 0.004917436 -0.020041706
000150 ba e3 79 3c 02 cd a2 bb f6 f3 13 3b a3 68 12 bc
       0.015252048 -0.0049682865 0.0022575832 -0.00893608
000160 5e 3c dd 3c a0 22 cb 3b d4 43 c2 bb d4 fb d5 bc
       0.027006324 0.006199196 -0.005928496 -0.026121058
000170 a3 56 14 3d 08 5c 6a b8 79 8f 6f 3c 07 8d 2e 3c
       0.036215436 -5.587566e-05 0.014621609 0.010653741
000180 37 b1 44 3c fa 3a 78 3c 37 54 a8 bc 00 4c 7e bc
       0.012005142 0.01515078 -0.02054797 -0.0155210495
000190 2d 85 6f 3b 8c c5 88 3b 15 28 f7 3a 6a b3 a2 3c
       0.0036547885 0.00417394 0.001885655 0.019860942
0001a0 74 eb 01 bc 4a 0b 08 3c e2 58 92 3b 19 8f 87 3c
       -0.007929672 0.008303473 0.004466162 0.016547726
0001b0 ca ed 9e 3b 66 b4 40 3c 53 7e 94 3c 07 17 72 bc
       0.004850124 0.01176176 0.018126642 -0.014775998
0001c0 01 2e 10 bc 3c 82 98 3a 1d 59 b1 3b 2f 3c 05 3d
       -0.008800031 0.0011635493 0.0054122345 0.0325281
0001d0 7e cc 37 bc b1 13 c8 3b 28 f4 a6 3c b7 88 b1 b9
       -0.011218188 0.006105863 0.020380095 -0.0003386193
0001e0 4a 83 0b bb 7f 79 8d 3c b8 26 a8 bc 8f a9 97 3b
       -0.0021287971 0.017269848 -0.020526275 0.0046283673
0001f0 b2 47 ad 3b 89 37 84 3c df c3 04 3d be b0 86 3c
       0.0052880878 0.016139762 0.03241336 0.0164417
000200 4f 35 89 bc 5d 81 66 bb 6e 62 aa 3a 9c 6f 16 bc
       -0.016749052 -0.0035172321 0.0012999305 -0.009181883
000210 73 12 b1 bb 9a 60 e4 3b 79 59 df 3a 8a 75 84 3c
       -0.0054038106 0.0069695236 0.0017040215 0.016169328
000220 32 24 85 3b c0 3a 17 3d 4d 66 20 3c d6 3f 02 3d
       0.0040631527 0.036921263 0.009790015 0.03179916
000230 a6 5b 75 3c 96 a4 06 bd 94 74 dc 3c cc e4 8f 3c
       0.014975464 -0.032871805 0.026911058 0.017565154
000240 0f 08 74 bc 43 2e e8 bb 92 3b 82 3c e1 72 90 bc
       -0.014894499 -0.007085593 0.015897546 -0.017632904
000250 00 b3 25 bc 7d ce 45 3c ea 70 fe 3b 79 e6 25 3a
       -0.010113478 0.012073156 0.0077649252 0.00063285936
000260 98 99 69 bc 44 2e 00 3b be ae be 3b 49 bf fa ba
       -0.014257811 0.0019558826 0.0058191707 -0.0019130494
000270 2f 0c 18 3d 6c 49 0c bc 00 20 57 bc 62 31 cc 3c
       0.037120994 -0.008562427 -0.013130188 0.024925891
000280 e9 f8 de 3a b7 98 99 bc 50 5c 09 bd 72 12 58 3b
       0.0017011437 -0.018749578 -0.0335353 0.0032969979
000290 b7 89 7d bc 55 57 8e bc 8f 07 93 3c c9 2b 6c 3c
       -0.015474728 -0.017375628 0.01794794 0.014414736
0002a0 45 65 d9 bc dc 42 d8 bb 91 f1 4c 3c 2e be d0 bc
       -0.026537547 -0.006599767 0.012508766 -0.02548131
0002b0 dc 28 12 3c 3d b2 ec 3c 6a ea 29 3c b3 e3 34 3c
       0.008920874 0.028893584 0.01037083 0.011040616
0002c0 16 e9 90 3b e0 65 69 3c 11 a8 bb bc 06 6f 52 bb
       0.0044223173 0.01424548 -0.022907289 -0.0032109632
0002d0 da 94 8d 3c 7f 54 9a 3c 7a 87 03 3d 70 55 f7 bb
       0.017282892 0.018839119 0.032111622 -0.0075480267
0002e0 ee 07 5f 3c 54 6e 85 bc 1c d7 b5 bc 27 89 aa 3c
       0.01361273 -0.01628796 -0.022197299 0.020817352
0002f0 32 d4 40 bc 45 70 f3 3b 20 58 4b 3b e2 0a 91 3c
       -0.011769341 0.007429155 0.0031027868 0.017705385
000300 a7 4d 93 3c 28 61 49 3a cf 3a bf 3c 68 4a 94 3c
       0.017981363 0.0007682019 0.023343472 0.018101886
000310 94 ae 78 bc 71 11 ae 3a 1d d8 ab 3c fc 8c f5 3c
       -0.015178341 0.0013280344 0.020977074 0.029974453
000320 7f d7 68 bb 15 43 05 3c d5 c7 d2 3c af a4 25 3d
       -0.0035528836 0.008133669 0.025730053 0.040440258
000330 73 2f 89 3c 6a a2 ab 3b 7e 7d 68 3c 77 17 17 bc
       0.016746258 0.005237867 0.014190076 -0.009221903
000340 85 4e 31 bc be 0a 95 3c f2 9d 6e 3c 1e b3 a1 3c
       -0.010821943 0.018193599 0.014564024 0.01973873
000350 a2 ce e4 b9 56 ea e7 ba 1b bf 0a bd 15 09 fe 3b
       -0.00043641502 -0.0017693739 -0.03387366 0.0077525475
000360 22 d0 9c bb 8f f2 d9 3b c8 dd ed 3c de cb 40 bc
       -0.0047855536 0.0066512297 0.029036418 -0.011767356
000370 48 1f 83 3c 09 0a 4b 3c 2c be 96 3c 82 c4 78 bc
       0.016006127 0.012392529 0.018401228 -0.01518357
000380 23 aa aa bc 0a ed 2f bc 8a 9f 11 3c 76 a6 83 3b
       -0.02083308 -0.010737667 0.008888135 0.0040176464
000390 62 57 8d bc 52 68 e8 3b 60 7c 82 3c 14 49 5b 3c
       -0.017253581 0.007092514 0.015928447 0.013384122
0003a0 aa c7 e0 3c 05 3c 74 3c 19 f8 92 bb 24 45 18 3b
       0.027438957 0.014906888 -0.004485142 0.002323457
0003b0 72 00 a1 3b a1 e4 97 3c 12 fc a9 3b f2 5f 3e 3c
       0.004913383 0.018541636 0.00518752 0.011619555
0003c0 68 b1 9b bc 6b ee a7 3c 85 58 f7 3b 68 ac 2a bc
       -0.019005492 0.020499429 0.007548394 -0.010417081
0003d0 a6 d8 1b 39 95 40 0e bb 57 6f 37 3b e3 bf 0d 3d
       0.0001486266 -0.0021705974 0.0027989948 0.034606826
0003e0 7c 3d c2 bc 6e 7b 71 bb f6 ea ae 3a 00 2f 2b 3c
       -0.023710959 -0.0036847251 0.001334517 0.010448217
0003f0 dc a9 80 3c 74 f9 bb ba ac b8 5e bc d6 ad 11 3d
       0.015705995 -0.0014341311 -0.013593834 0.035566173

p_fc3.weight f4 [50, 256]
000000 33 bc 45 be d2 d5 df 3d 6b 53 9c 3d a1 62 13 be
       -0.19310074 0.10929455 0.07633098 -0.14393093
000010 14 77 70 bd 8b a3 d8 bc b3 a3 be 3d 26 03 c4 3d
       -0.05870731 -0.02644517 0.09308567 0.09570913
000020 3a 07 0a bd 9a ea ca bc 84 50 4c 3d f8 2b db bd
       -0.033698298 -0.02477007 0.049881473 -0.10701746
000030 d5 a9 70 3d 1f b6 6f bd a0 09 d3 3d f4 c5 17 3e
       0.058755714 -0.058523294 0.1030457 0.14821607
000040 1c 3c 81 bd e3 9f ff bd 20 e5 59 3e a9 ca ae bd
       -0.06310293 -0.12481668 0.2127881 -0.08534748
000050 2e be f3 bd 91 45 e9 bc 49 b6 27 be cc 1e 7a be
       -0.11901508 -0.028475555 -0.1637813 -0.2442581
000060 59 b1 20 3b 01 55 8a bc ff 29 4b bd e8 61 46 3e
       0.002451977 -0.016886236 -0.049600597 0.19373286
000070 9a 72 ea 3d 1e 16 19 3e ae a7 0c 3e 53 3f 4c 3e
       0.1144764 0.14949843 0.1373584 0.19946031
000080 bc 9c bc 3c b1 3a 35 3e b2 e4 12 be 65 da ba 3d
       0.023023956 0.1769817 -0.14345053 0.09123687
000090 06 21 94 bd db 44 f0 3d 38 9a 97 3d 69 b1 b6 bb
       -0.07232861 0.11731883 0.07402462 -0.005575348
0000a0 44 57 51 bd 8b 0c 92 bc 0d 43 fa bc 94 97 d4 3a
       -0.051108614 -0.017828247 -0.03054955 0.001621949
0000b0 cc cb e1 3c 23 fa ba 3b 5b 24 5e bd 3e e5 e0 3d
       0.027562998 0.005706088 -0.05423389 0.109812245
0000c0 c5 aa a0 3d e7 6c 0a be 77 45 e6 bc 82 13 15 bd
       0.07845072 -0.13518105 -0.028109295 -0.036395557
0000d0 48 d0 2b bc dc 8e 33 be 50 ad 21 3d f2 ca 0f bd
       -0.01048667 -0.17534965 0.039471924 -0.035105653
0000e0 98 cc 11 be 76 cb f8 bd 16 b3 65 bd 10 7a c7 bc
       -0.14238203 -0.12148182 -0.056078993 -0.024350196
0000f0 7b 37 8b 3d 2f 8a 2b be 6c 37 10 bd 4a 2e e5 3d
       0.067976914 -0.16751932 -0.035209104 0.111904696
000100 d3 58 96 3c da e1 f9 3c b2 89 db 3d 37 db d0 3d
       0.018352902 0.030503202 0.10719623 0.10198062
000110 2f 27 19 3e 01 22 46 3c 7e aa 15 3e db 03 94 3d
       0.14956354 0.012093068 0.14615819 0.07227298
000120 40 5b 8d 3d e9 33 d8 3d 6a e1 a5 3d 57 f4 24 bd
       0.0690217 0.10556776 0.08099635 -0.040272083
000130 ae 23 c3 bd ad f5 ae 3b 40 01 0e be f2 d8 37 3d
       -0.0952829 0.0053393454 -0.13867664 0.04488463
000140 32 de af bc fe 2c a1 3d 2c 58 e1 bd b7 00 44 3e
       -0.021468256 0.0786991 -0.110031456 0.19140898
000150 69 97 3d be e5 c6 31 3e 98 ee 86 bd 70 6b d3 bd
       -0.1851479 0.17361028 -0.06588477 -0.103232265
000160 4c f1 9a bc d5 7f 2d 3e 80 0a 81 3d b1 16 1d be
       -0.018913887 0.16943295 0.06300831 -0.15340687
000170 77 d7 9c 3d 3a f2 05 3e fb 42 24 3e 1a 87 a0 bb
       0.07658284 0.13080683 0.16041176 -0.004898918
000180 ee 7e 69 3d e8 3d 91 bd b1 06 9f 3d 56 d4 fb bd
       0.057005815 -0.07091886 0.07764948 -0.12296359
000190 92 91 7f 3d 68 d0 45 3d 3f 24 a9 3c b1 de 49 bd
       0.062394686 0.048294455 0.020647166 -0.04928464
0001a0 58 88 09 3e 69 d5 86 bc 90 6c ed bc 6c 53 01 be
       0.13430917 -0.016459184 -0.02898243 -0.12629479
0001b0 c7 06 c2 3c d9 c8 45 3e 5b 9a 44 be 1e ad ea 3d
       0.023684872 0.19314899 -0.19199507 0.11458801
0001c0 27 f1 4d be 85 be f0 3d e2 5d 86 bd 02 31 0d be
       -0.20111524 0.11755089 -0.065608755 -0.13788226
0001d0 2e 4e e0 bd eb 41 37 be d8 5c 24 bd 3a fe 43 3b
       -0.109524116 -0.1789624 -0.040127605 0.002990617
0001e0 a0 76 fa bd c3 d6 66 be 21 5e 09 3e 94 e1 6b bd
       -0.12229657 -0.22542863 0.13414814 -0.057588175
0001f0 0d 2e ca 3d b0 88 c8 3d d9 6a 36 be 8e 33 13 be
       0.09872065 0.09791696 -0.17814197 -0.14375135
000200 8f ae e0 3a a3 48 da bd 77 4c 2b bb f3 72 15 be
       0.0017141866 -0.106583856 -0.0026138106 -0.14594631
000210 2a 4f 52 bd 3c 65 69 3d 91 3f 00 3e 9f be 41 bd
       -0.051345028 0.05698131 0.12524249 -0.04730093
000220 87 79 48 be 2b 48 41 3d 28 11 a1 3a 57 a6 c7 bd
       -0.19577609 0.047187965 0.0012288438 -0.09748524
000230 99 5e 8c bd 88 5d 1e 3e 52 dd c4 bd d0 c0 20 bd
       -0.068539806 0.15465367 -0.09612526 -0.03924638
000240 a0 25 20 3d 95 f1 cd bd ba 10 c2 bb fd fd 78 3d
       0.039098382 -0.10055844 -0.005922404 0.060789097
000250 8e 79 ae bd 44 8d 6b 3c ae 64 63 3d 75 43 a5 3c
       -0.085192785 0.014376942 0.055515938 0.020173768
000260 af 47 f9 3d 6e 5e 0b be a9 00 0b 3d 2d ac a7 3d
       0.12171876 -0.13610241 0.033936176 0.08187137
000270 52 ac a1 3d c6 e7 64 bd 37 0d 9f 3d 53 8c 02 3e
       0.078941956 -0.0558851 0.077661924 0.12748842
000280 02 8b ec 3c e3 3c f1 bd 9a 39 6d 3d 4a 3b 74 3d
       0.028874878 -0.11779191 0.05791626 0.059626855
000290 24 ab fe bd 0d 6e 4f be ad 23 06 bd a1 83 48 bc
       -0.12434986 -0.20256825 -0.032748867 -0.012238414
0002a0 af fd cb 3d fb 6d 59 bd 54 63 21 be 31 49 10 3e
       0.09960496 -0.0530834 -0.15760547 0.1409042
0002b0 39 43 1e 3e f9 47 b3 bd 0f e5 0d bd b8 da 11 bd
       0.15455331 -0.08753962 -0.034642275 -0.035608977
0002c0 3a 12 8c bd 4e 6f 31 bd ca 2d 01 be 97 7e 20 3e
       -0.06839414 -0.04331904 -0.12615123 0.1567329
0002d0 e2 d1 9a bc 2d c5 26 be 81 6f 0c be d8 70 81 bd
       -0.018898908 -0.16286154 -0.1371441 -0.06320351
0002e0 af 1b 34 3e 9c f7 00 be aa b5 0e 3e b9 b7 d5 bd
       0.17588685 -0.12594455 0.13936487 -0.10435433
0002f0 40 ab 6c 3d fa 7b b4 3d c4 c7 35 be b8 11 a9 3d
       0.057780504 0.08812709 -0.17751986 0.08255333
000300 db c7 77 bd 4c 2b 05 be f6 c9 bb bc c6 1a cd bd
       -0.06049333 -0.13004798 -0.02292345 -0.10014872
000310 b6 65 93 bd 7d 95 8c 3d 04 13 ca bd f3 2d d4 bd
       -0.07197134 0.0686445 -0.09866908 -0.103603266
000320 9a b4 fe bd ca 03 6d 3c c5 5e d1 3d bc ca 05 3e
       -0.12436791 0.014466235 0.10223154 0.13065618
000330 c5 f6 37 bc 3b 85 2c 3b cd c2 2f 3e 21 a2 6a 3d
       -0.011228268 0.0026324529 0.17164154 0.057283524
000340 3a 50 b0 3d 11 c9 eb 3d 7a c2 0f 3e c5 66 9d bd
       0.08609052 0.1151296 0.1403903 -0.07685617
000350 1b 5e 0b be 08 2d 39 bd 40 e3 0b 3e 89 af a0 bd
       -0.13610117 -0.04520896 0.13660908 -0.07845981
000360 0e a9 11 3e 3f 3d 6d 3e e5 9a f7 3d b8 61 2d 3e
       0.14224645 0.23167895 0.12090091 0.16931808
000370 ce 57 4e 3e dd 07 23 3c 1e c2 e7 3c 69 9e ae 3d
       0.20150682 0.009950605 0.028290804 0.08526308
000380 ac ea 87 3d 6f 50 82 bc 3e ef 06 3d 23 d2 91 3c
       0.06636557 -0.015907494 0.032943003 0.017800396
000390 75 88 19 3c 24 f3 bf 3d 44 12 61 bd ec 6d 0f bd
       0.009370913 0.09372547 -0.05494906 -0.03501694
0003a0 f4 b4 4c 3e 02 26 58 bb 6a 4f 21 3e ef 83 ba bc
       0.19990903 -0.0032981639 0.1575295 -0.022767989
0003b0 c1 f5 76 3d 6b a3 a8 bd e3 44 03 be 80 a4 1b 3d
       0.060292963 -0.082342945 -0.12819247 0.037998676
0003c0 19 d4 40 3c a3 56 e4 bd 9c fc cb 3d 90 1f 4a 3c
       0.011769318 -0.11149337 0.09960291 0.012336627
0003d0 54 fa 94 bd 0b f5 2f 3e b2 dc c2 3c 67 ce 25 3d
       -0.07274309 0.1718332 0.023786876 0.040480044
0003e0 49 24 08 bd a4 88 bd 3d c2 d5 24 be 4e fd 89 bd
       -0.03323773 0.09254578 -0.16097167 -0.06737767
0003f0 f0 76 ef bd cc c4 96 bc c6 3f e4 3d c6 82 0d 3e
       -0.116926074 -0.018404387 0.11144976 0.13819417

p_fc3.bias f4 [50]
000000 34 42 1f 3b 6d fd 33 bc f6 17 52 3b 3c c1 d6 ba
       0.0024300935 -0.010985714 0.003205774 -0.0016384493
000010 8a f0 a9 3c 60 7f e4 3c 08 14 f2 bb f8 6b fd 3c
       0.02074458 0.027892768 -0.007387642 0.030935273
000020 43 ee 79 bc f7 53 ca bb 07 1e 88 bc 51 b1 0f 3d
       -0.01525456 -0.00617456 -0.01661588 0.03508121
000030 61 7c 8a bc f1 4c a0 3c cf e4 09 3d 50 58 57 3c
       -0.016905012 0.019567939 0.033665475 0.013143614
000040 80 e4 07 3c 0d 73 c3 bb 7e 4d 6b bb 75 cb 6f 3b
       0.008294225 -0.005964643 -0.0035904343 0.0036589776
000050 62 aa 97 3b e1 8c 86 3b d7 61 5f bc c1 e1 c9 bc
       0.0046284655 0.0041061495 -0.013634167 -0.02464378
000060 6a 65 f4 bc 99 d9 cc bc 8f ac 3d 3c a8 9e 45 bd
       -0.029833514 -0.025006102 0.011576786 -0.04824701
000070 f1 ab 7e 3b 09 5c 0a 3c 85 67 09 bb 3b f1 64 3b
       0.003885981 0.008444794 -0.0020966243 0.0034933824
000080 e6 79 98 3c 85 2b c5 bc 41 6c 96 bc be 7e 45 3c
       0.018612813 -0.024068603 -0.018362166 0.0120541435
000090 d1 43 03 bc b1 3c af bc d5 1b 3c 3b db 45 f7 3b
       -0.008011774 -0.021391245 0.0028703113 0.007546169
0000a0 ab 52 37 3b 79 17 f0 3c d0 d5 03 bd 56 32 d6 3c
       0.0027972858 0.029308068 -0.03218633 0.026147049
0000b0 ff 45 a3 3c 6b 8e 06 bc 60 08 b2 3c c7 0f f1 bc
       0.019930838 -0.008212666 0.02173251 -0.029426469
0000c0 36 dc a6 b9 96 df 0c 3c
       -0.00031826057 0.008598229

v_fc1.weight f4 [256, 136]
000000 ee 78 3f bd 36 73 77 3e d1 dd cc 3d 62 ff a9 3d
       -0.046746187 0.24165043 0.100032456 0.083006635
000010 a9 b5 86 3d 28 b1 8f 3d f5 4d f3 bc 9c d9 b6 3d
       0.06577618 0.07016212 -0.029700259 0.089282244
000020 c8 bc b5 3d 20 1a 06 be e6 9d 19 3e fe 55 d8 bc
       0.08873898 -0.13095903 0.1500164 -0.026408192
000030 a2 7e b1 3c 36 be 98 3d 09 f1 f3 ba ad 9f d1 bc
       0.021666829 0.07458155 -0.0018611263 -0.025588835
000040 b5 be bc bd 48 f3 f0 3d 91 45 1d bd bb ee 8e 3b
       -0.09216062 0.11765152 -0.03839642 0.004361955
000050 d4 6c 9a 3d e9 ce 8c 3d 96 3b d7 3d 85 ff 5c 3e
       0.075402886 0.068754025 0.10509412 0.21581848
000060 93 73 74 3d b8 73 e7 bd c8 40 47 3e e5 8f 3a be
       0.059680533 -0.113013685 0.19458306 -0.18218954
000070 88 c3 d9 3d 8b a3 33 3e d8 16 c0 3d 97 1e 04 3e
       0.10632998 0.17542855 0.09379357 0.12902294
000080 0c 55 54 3e f9 92 57 3d 95 6a a4 3d bc 6e b9 3e
       0.20735568 0.0526304 0.080281414 0.36217296
000090 8b 30 54 3d 1a 51 e7 bd 52 91 a9 3e 2a 79 b2 bd
       0.051804107 -0.11294766 0.33118683 -0.087145165
0000a0 69 50 ca bd a0 e4 7e 3e 05 44 79 bd 38 af a9 3d
       -0.09878618 0.24891901 -0.060855884 0.082853734
0000b0 3c f4 a0 3e 5e 1b 80 3c 11 05 a4 3d 50 df 0a 3e
       0.31436336 0.01563805 0.08008779 0.1356175
0000c0 be 5e cc bc 0f 1a 8f bc 6c c4 36 bc a8 9a 5f bb
       -0.02494752 -0.01746848 -0.011155229 -0.0034119282
0000d0 23 6e 1a bd 4c e6 ce 3d d2 a1 ec 3d a2 4e 9c bd
       -0.03770269 0.101025194 0.11554302 -0.076321855
0000e0 13 f1 83 3e 6a b0 03 3e bd 81 16 bd 68 0a b3 3e
       0.25769863 0.12860265 -0.03674482 0.34968877
0000f0 a3 70 01 3e 6c f3 3b 3d f8 8c 28 3e d4 c1 2c 3c
       0.12640624 0.045886442 0.16460025 0.010544259
000100 f8 76 2d 3e 9f 8b db 3d 80 a1 0c 3e df 91 f0 bd
       0.16939914 0.1071999 0.13733482 -0.11746573
000110 85 a7 1d 3e a6 04 74 3e ba 2f dc 3c 37 65 c0 bd
       0.15395935 0.23829898 0.026878227 -0.09394305
000120 af 8e 6a 3e 3c b3 8c bd 13 b0 2f be df 61 1d 3e
       0.22905992 -0.06870124 -0.1715701 0.15369366
000130 f5 ec 08 3e 7d 57 3f be 0e 3c a1 3b da 9f 91 3d
       0.13371642 -0.18685718 0.004920489 0.071105674
000140 ea d8 72 be 19 a7 fb 3d 5b 28 ba bd 2e 0f a9 3c
       -0.23715559 0.12287731 -0.090897284 0.020637121
000150 8f bd 34 3d 6e 12 56 bc 73 ca a1 3b 61 78 70 bd
       0.04412609 -0.013065917 0.004937464 -0.058708552
000160 77 4b 85 bc 3f 05 ac 3d a8 1a 8d 3d 9c 15 a0 bc
       -0.016271336 0.08399438 0.0688985 -0.019541554
000170 2a c0 14 be ff d9 0c bc a6 b9 c7 3d 8f 94 a0 3d
       -0.1452643 -0.008596896 0.097522065 0.07840835
000180 e6 34 2d bb aa 45 70 3d a7 d0 b0 3e e0 4b 32 bd
       -0.0026429235 0.058660187 0.3453419 -0.04352939
000190 27 6b 9a bd b5 db fc 3d eb 45 63 bd ee 1d 27 be
       -0.07539969 0.12346593 -0.0554866 -0.16320011
0001a0 ea e0 b4 3d 0d b2 10 3e 07 0d da bd 15 61 11 bc
       0.088319615 0.14130421 -0.10647016 -0.008873244
0001b0 30 81 08 3e e1 bb 91 bd 2c 51 a5 bb cb ab 15 3d
       0.13330531 -0.07115913 -0.005045077 0.036540788
0001c0 f2 44 96 bd 31 74 ae bc 38 38 01 3d 9f 05 05 3d
       -0.07337369 -0.021295639 0.031547755 0.032476064
0001d0 6a 0a a8 bc 43 59 1c 3c 1e 42 9e bc 5c 79 da 3d
       -0.020512778 0.009542766 -0.019318637 0.10667679
0001e0 89 23 4e bd db ae 36 bb 2a 56 1a bd 65 4e ee 3d
       -0.050326858 -0.0027875218 -0.03767983 0.11636046
0001f0 ea f6 11 3e c1 45 14 3d da 34 91 bd 75 69 11 3d
       0.14254346 0.036199335 -0.07090159 0.035500962
000200 76 df 39 3d 8e 41 ae 3d 99 9b b3 bd 4f 7e d2 3d
       0.045379125 0.08508597 -0.08769912 0.10277998
000210 ee 56 20 3d 88 f7 ab 3d 4d e4 78 3e c9 d7 92 bd
       0.039145403 0.08396822 0.2430584 -0.07170064
000220 da bc 56 bd 1c 34 81 bd 5f 67 97 bd 13 06 c6 3c
       -0.052426197 -0.06308767 -0.07392763 0.024172818
000230 ec cf e9 bc 90 24 00 3e 64 1c 62 3d 30 1a d3 3d
       -0.028541528 0.12513947 0.055202857 0.10307729
000240 4b ce 81 3d c3 bf 99 bd 95 c0 05 3d 2e 64 0a 3e
       0.063381754 -0.07507279 0.032654364 0.13514778
000250 59 21 12 bd ce 64 93 3a 14 da 8e bd 6c e9 58 bd
       -0.035676334 0.0011245252 -0.06975189 -0.052956983
000260 89 8c 7d 3c 61 a4 52 bd 47 30 1e bd 94 31 71 bd
       0.015475401 -0.051426295 -0.03862026 -0.058885172
000270 7c 84 89 3c ed 0c e0 bc 3b b9 d4 3d 2b e9 e9 3d
       0.016786806 -0.027349913 0.103868924 0.114214264
000280 03 00 80 3d 76 2f a2 bc aa 52 0d be d1 d4 bf bd
       0.06250002 -0.019798022 -0.13801065 -0.093667634
000290 18 7d 41 bd bc bf 9e bc a8 fd 39 be 41 f2 40 3d
       -0.04723844 -0.019378535 -0.18163168 0.04710603
0002a0 49 13 8e 3c 11 71 8b bd 5f af 5a 3d 1c 7c 90 3d
       0.01734318 -0.06808675 0.053389903 0.07054922
0002b0 5d 3a 1e bd 4b 90 fb bc 08 b1 e5 bd 8a 81 f2 3d
       -0.03862988 -0.030708453 -0.11215407 0.11841114
0002c0 5c 83 c4 bd f1 05 0a bc c2 50 b9 3d cc f5 af bd
       -0.09595367 -0.008424268 0.090486065 -0.08591804
0002d0 d2 1a b5 3c bc d7 9d bc 36 92 b5 3d 7a 74 a2 3d
       0.022107515 -0.01926791 0.08865778 0.079323724
0002e0 c2 26 ea bc ab 26 10 3b 74 90 2f be d7 eb d9 bd
       -0.028582934 0.0021995704 -0.17144948 -0.10640686
0002f0 f1 a8 5f be 08 7d 9f bb 61 04 8e 3d e1 41 98 3c
       -0.2184179 -0.0048672 0.06934429 0.018586101
000300 aa a8 ab bd 2a fe 78 bd e0 d4 c1 bd ba 78 87 bc
       -0.083817795 -0.060789265 -0.09464431 -0.01653706
000310 e0 55 6e 3d c7 bf bf bd dc 64 ce 3c 63 fb a0 3d
       0.058187366 -0.093627505 0.025194578 0.07860448
000320 94 69 1e bd b3 6b df 3a c3 99 df bd c1 da 86 bd
       -0.038674906 0.0017045647 -0.109179996 -0.06584693
000330 27 08 1c bd 31 2d 0d 3d 99 36 44 3d f5 da b8 3d
       -0.038093712 0.034466926 0.04790363 0.09026138
000340 3e 2d 6e 3e 72 fb b3 3c ea b6 ca 3d ca 68 09 3d
       0.23259446 0.021970484 0.09898169 0.0335472
000350 f9 21 09 3d bb 39 b0 bb 41 95 02 3e fa 2a ee bd
       0.033479664 -0.0053779758 0.12752248 -0.11629291
000360 1d d1 d4 bc 14 fa 9d 3d 1a ad ca 3d d3 25 f0 bd
       -0.02597862 0.07713714 0.09896298 -0.117259644
000370 e8 50 00 3e 9a fc 6b bc 33 70 4e 3e 80 76 d0 bd
       0.12530863 -0.014403487 0.20159988 -0.10178852
000380 db 21 61 bd 74 ee e0 bd 34 c3 fc 3c 07 99 ed 3d
       -0.054963928 -0.10982981 0.030854799 0.11601453
000390 22 62 75 3d 38 0c 2d 3d c5 8e 0e 3e fe 57 17 bc
       0.05990804 0.04224798 0.1392165 -0.009237288
0003a0 5f 90 bc bc 85 ea 4a bd 29 be 54 be c5 c7 d3 bd
       -0.02301806 -0.04954006 -0.20775665 -0.103408374
0003b0 a6 28 14 3e f2 94 44 be a0 db 20 be ca e4 d5 3c
       0.14468631 -0.19197443 -0.1570878 0.026110072
0003c0 91 07 06 bb 87 aa 0a be ec dd 57 3d 0d ee 23 3e
       -0.0020451287 -0.13541614 0.052701876 0.16008778
0003d0 0b 20 4f 3d 2b 5b 76 bc 86 e4 b4 3d e1 3a 9e bd
       0.050567668 -0.015036385 0.0883265 -0.07726074
0003e0 34 76 e0 3d 06 e2 12 3d 95 cd ea bd 4b c5 8a bc
       0.109600455 0.035860084 -0.11464993 -0.01693978
0003f0 b8 eb 18 3e 2a 2c d9 3d ee 5c 81 3d 5c bf f3 bd
       0.1493367 0.10604127 0.06316553 -0.11901733
