model/dance/max.pt (torch, 863294 bytes, 12 tensors)

log_std f4 [50]
0	0xbf3867c8	-0.7203336
1	0xbf1c2517	-0.60994095
2	0xbf3543fa	-0.7080685
3	0xbf20088f	-0.6251306
4	0xbec4df1a	-0.38451463
5	0xbe93722c	-0.28798044
6	0xbecc3ad5	-0.39888635
7	0xbeb801d2	-0.3593889
8	0xbdf65abd	-0.12029026
9	0xbf168edd	-0.5881174
10	0xbee3ec25	-0.445161
11	0xbf45a7be	-0.7720908
12	0xbf163c57	-0.5868582
13	0xbed29934	-0.4113251
14	0xbe991260	-0.29896832
15	0xbe5daeb0	-0.21648669
16	0xbe850ec7	-0.25987837
17	0xbe7e2858	-0.24820077
18	0xbf1cd350	-0.6125994
19	0xbf24a3ac	-0.64312243
20	0xbf3c070c	-0.7344825
21	0xbf017f2d	-0.5058468
22	0xbf2e2a8c	-0.6803367
23	0xbf1621a9	-0.5864511
24	0xbf02fdc7	-0.51168483
25	0xbe55d11f	-0.20880555
26	0xbef2676c	-0.4734453
27	0xbe7d135f	-0.2471442
28	0xbe8fd282	-0.28090292
29	0xbe93a075	-0.28833356
30	0xbf746ee4	-0.95481706
31	0xbf71862f	-0.9434537
32	0xbf7eda5b	-0.99551934
33	0xbf3ba7dc	-0.7330301
34	0xbf680322	-0.9062978
35	0xbf58a718	-0.84629965
36	0xbf37c6f2	-0.7178794
37	0xbe64c831	-0.22341992
38	0xbe56410c	-0.20923251
39	0xbe7e378d	-0.24825878
40	0xbf65b832	-0.89734185
41	0xbf68605e	-0.90772045
42	0xbf703c65	-0.93842155
43	0xbf33a154	-0.7016804
44	0xbf5d9230	-0.8655119
45	0xbf423ecd	-0.75877076
46	0xbf1c9978	-0.61171675
47	0xbe903707	-0.28166983
48	0xbe9a1172	-0.30091435
49	0xbe717edb	-0.23583548

p_fc1.weight f4 [256, 136]
0	0xbdf35aa7	-0.11882525
1	0x3d21d045	0.039505262
2	0xbbe708bc	-0.0070506018
3	0x3e02163b	0.12703793
4	0x3ce95931	0.028484913
5	0x3db837b1	0.08994997
6	0x3df0b782	0.11753751
7	0xbe118ad6	-0.14213118
8	0xbd7152ac	-0.058916733
9	0xbe06c09d	-0.13159414
10	0xbd7327c0	-0.05936408
11	0x3cc11f63	0.023574537
12	0x3cd2a339	0.025712596
13	0xbd92cee5	-0.07168368
14	0xbd4020e3	-0.046906363
15	0x3d8159a1	0.063159235
16	0x3d7887d8	0.060676426
17	0x3dfc87e2	0.12330605
18	0x3dc20986	0.09474473
19	0xbd3e14b9	-0.04640648
20	0x3e097a5e	0.13425586
21	0xbd27eb66	-0.040995978
22	0xbd93e172	-0.07220735
23	0x3e135c50	0.14390683
24	0x3d1e777e	0.038688175
25	0x3d7f46b6	0.062323295
26	0x3e0b7bfa	0.13621512
27	0xbd4af832	-0.049553104
28	0x3da68c98	0.08132285
29	0x3d3dbdc8	0.046323568
30	0xbdc3a54e	-0.09553014
31	0x3dafc38e	0.08582221
32	0xbe3342e5	-0.17505987
33	0x3da52520	0.08063722
34	0xbcc0ef0d	-0.023551488
35	0x3ca1a441	0.019731643
36	0x3d578392	0.05261571
37	0x3d4ce6f8	0.050024956
38	0x3d4aa904	0.049477592
39	0x3e2e1032	0.16998366
40	0xbd53e9a5	-0.051736493
41	0x3cefa6a0	0.029254258
42	0xbd2c52c3	-0.042071115
43	0xbdad3aa9	-0.08458454
44	0x3c874d16	0.01651625
45	0x3c47ed9a	0.012202645
46	0x3df29e51	0.11846603
47	0xbdf95a73	-0.12175455
48	0x3cb3d460	0.021951854
49	0x3d9551d1	0.07290996
50	0xbe0d1d9e	-0.1378083
51	0x3d457d4f	0.048215207
52	0xbe1dcb86	-0.1540967
53	0xbe10bf56	-0.14135489
54	0x3d8a4359	0.06751127
55	0xbddc4cc4	-0.107568294
56	0xbb63fdf6	-0.0034788824
57	0x3de5eeb3	0.11227169
58	0xbd900afb	-0.07033344
59	0xbdc2f0e2	-0.09518601
60	0xbe1e7586	-0.15474519
61	0xbd8128dc	-0.063066214
62	0x3d287175	0.041123826
63	0x3d58cb62	0.052928336
64	0x3e13c064	0.1442886
65	0x3de7fa69	0.11327059
66	0x3d527731	0.0513832
67	0xbe0d29fd	-0.13785549
68	0xbe144307	-0.14478694
69	0xbe1d98b0	-0.15390277
70	0xbe010b7a	-0.12602034
71	0x3d491913	0.04909618
72	0xbddd7cdd	-0.108148314
73	0xbe4fd246	-0.20295057
74	0x3d051d5e	0.03249871
75	0xbde31201	-0.11087418
76	0xbc3e9c88	-0.011634
77	0xbcc83f06	-0.024444114
78	0x3b8df816	0.0043325527
79	0xbe30ef2b	-0.17278735
80	0x39698792	0.00022271115
81	0x3cf906c8	0.030398741
82	0xbd29c929	-0.041451607
83	0xbe28f8c2	-0.16501144
84	0x3dfa1bde	0.122123465
85	0xbdb2b377	-0.087256365
86	0xbd6cdd9c	-0.05782853
87	0xbdf782ad	-0.12085471
88	0xbdc75bd9	-0.097343154
89	0xbc0fd4b0	-0.008778736
90	0x3dbc5ce2	0.091974035
91	0xbe3f43db	-0.18678229
92	0xbd29380a	-0.04131321
93	0x3e2b2f21	0.16717197
94	0xbe58d91a	-0.21176568
95	0x3d7dc8e1	0.06195915
96	0xb58d45ba	-1.0525612e-06
97	0xbd323148	-0.04350403
98	0xbd3287a1	-0.043586377
99	0x3deac0e1	0.1146257
100	0xbd68fb5c	-0.05688034
101	0xbe5ec7cf	-0.21755908
102	0x3cc86be0	0.024465501
103	0xbcc694ab	-0.024240812
104	0xbd8c0035	-0.06835977
105	0x3d9d6e13	0.076870106
106	0xbe1e8a3f	-0.15482424
107	0xbc097b30	-0.008391187
108	0xbd2586bb	-0.040411692
109	0x3d18f480	0.03734255
110	0xbe780351	-0.24220015
111	0x3d09b91b	0.033623796
112	0x3db16ef7	0.08663743
113	0xbe293faf	-0.165282
114	0xbcfe54bd	-0.031046266
115	0x3bcdb304	0.006277444
116	0xbd9c29a6	-0.07625131
117	0xbd856897	-0.065140896
118	0x3dab3571	0.083598025
119	0x3e32d732	0.17464903
120	0x3e11fb3c	0.14255995
121	0xbbff2880	-0.0077868104
122	0xbdb1708f	-0.08664047
123	0x3e25ca47	0.16190444
124	0x3d196978	0.0374541
125	0x3c252cb9	0.0100814635
126	0x3e1d4a01	0.15360261
127	0x3e1f05b2	0.15529516
128	0x3da52dea	0.08065398
129	0xbdd6dbad	-0.104911186
130	0x3dc7fcb5	0.09764997
131	0x3c64611e	0.01393917
132	0x3df534e3	0.11972978
133	0xbe007c4d	-0.12547417
134	0xbe3d1b32	-0.18467405
135	0x3bdd484e	0.006753004
136	0x3e08bec4	0.13354021
137	0x3d110351	0.035403553
138	0xbe0401c1	-0.12891294
139	0xbd36fc0b	-0.04467396
140	0xbd27321e	-0.04081928
141	0xbc143ad2	-0.009047227
142	0x3d99e12b	0.075136505
143	0x3db79feb	0.08966049
144	0xbda12336	-0.07868044
145	0xbe13aba1	-0.1442094
146	0xbda61515	-0.0810949
147	0x3e104c9e	0.14091727
148	0x3dbed90d	0.09318743
149	0x3d8268c2	0.06367637
150	0x3e50db3d	0.20396133
151	0x3d40fa0f	0.047113474
152	0x3d201f0d	0.039092112
153	0x3d1ecfda	0.03877244
154	0xbe30b435	-0.17256244
155	0x3d9f6bf8	0.07784265
156	0x3a90fa53	0.001106093
157	0xbe1751aa	-0.14777246
158	0x3c16aed9	0.00919696
159	0xbe016d7b	-0.1263942
160	0x3d8d9150	0.06912482
161	0xbcc1d043	-0.023658877
162	0xbdf17fc9	-0.11791951
163	0xbe37cb72	-0.17948702
164	0x3c9860fa	0.01860093
165	0xbda1e115	-0.07904259
166	0xbe86a513	-0.26297817
167	0xbda1e627	-0.07905226
168	0x3e2fab20	0.17155123
169	0xbe4e3137	-0.20135961
170	0xbd573ca7	-0.052548077
171	0x3ccb9621	0.02485186
172	0xbe45a8b8	-0.19302642
173	0xbd46192e	-0.048363857
174	0xbdf44b0f	-0.11928379
175	0xbe1ccdb0	-0.15312839
176	0xbd46c9cd	-0.048532296
177	0x3d7d3bf1	0.061824743
178	0xbe4e2efd	-0.20135112
179	0x3dd8accc	0.105798334
180	0xbd8dfa1f	-0.069324724
181	0xbda2b357	-0.079443626
182	0x3ae054a7	0.0017115072
183	0xbd3653f1	-0.044513647
184	0xbd994cef	-0.07485377
185	0x3c7d3eec	0.015456896
186	0x3d6e2a87	0.058146026
187	0xbd68fce1	-0.05688179
188	0xbe460375	-0.19337256
189	0x3d483597	0.048879232
190	0xbd4bccdd	-0.04975592
191	0x3c960e9f	0.018317519
192	0xbdd3113f	-0.10306024
193	0x3d90eaed	0.070760585
194	0x3dc8548e	0.097817525
195	0x3e053521	0.13008548
196	0xbba1a28f	-0.0049327086
197	0x3c0f4ab9	0.008745843
198	0x3cefa328	0.029252604
199	0x3e63c5a1	0.22243358
200	0xbec1ef7a	-0.3787802
201	0xbd73f771	-0.05956215
202	0xbc846a49	-0.016163962
203	0x3ddaa8ad	0.106767036
204	0xbd8c0400	-0.068367004
205	0x3d4e9e8a	0.050444163
206	0xbd81b544	-0.06333402
207	0x3ccb2e77	0.02480243
208	0x3defe9c4	0.11714509
209	0xbceeaec5	-0.029136071
210	0xbe067014	-0.13128692
211	0x3e7d74fd	0.24751659
212	0xbd87f9c7	-0.06639438
213	0xbe57cd4b	-0.21074407
214	0x3e1ce8cb	0.15323178
215	0xbda33705	-0.079694785
216	0xbe1a479c	-0.1506638
217	0xbdfdf750	-0.12400687
218	0xbd91be65	-0.07116393
219	0x3d4e54d1	0.050373856
220	0xbc31068a	-0.010804782
221	0x3d5963b9	0.05307362
222	0xbe6c4342	-0.23072532
223	0xbd327bbc	-0.043575034
224	0x3db091ec	0.086215824
225	0xbe796806	-0.24356088
226	0xbe34ce52	-0.1765683
227	0xbd91bdd6	-0.071162865
228	0xbd7afaff	-0.061274525
229	0xbdc568ff	-0.09639167
230	0xbb9a6248	-0.004711423
231	0xbe634860	-0.22195578
232	0x3dd4d3df	0.10391974
233	0xbaab3e2c	-0.0013064793
234	0xbdaf54a7	-0.08561068
235	0xbdf10891	-0.11769212
236	0x3de9df2d	0.114195205
237	0xbe610465	-0.21974333
238	0xbe397ecb	-0.18114774
239	0xbc865d99	-0.016402053
240	0xbe3fb047	-0.18719588
241	0xbd533b90	-0.051570475
242	0xbd991983	-0.07475569
243	0xbe72c1b1	-0.237067
244	0xbd6ee696	-0.058325373
245	0xbd9de62b	-0.07709917
246	0xbe6cbff2	-0.23120096
247	0x3d21956a	0.039449133
248	0xbe20d356	-0.15705618
249	0xbe8d04f9	-0.27542856
250	0xbde6954d	-0.112589456
251	0xbd9a2c9d	-0.075280406
252	0xbdde46f0	-0.10853374
253	0x3bbff39d	0.0058578984
254	0xbdd99323	-0.10623767
255	0xbe90df83	-0.28295526

p_fc1.bias f4 [256]
0	0x3c8852d1	0.016641052
1	0xbc2101d4	-0.009827096
2	0x3b1c5793	0.002385591
3	0xbb73d41a	-0.003720528
4	0x3bded61a	0.0068004252
5	0x3c2d52e1	0.010578842
6	0x3c6f348f	0.014599933
7	0xbb96a2b2	-0.0045970315
8	0x3b0b191b	0.002122468
9	0xbc0f387a	-0.008741492
10	0x3c9852cc	0.018594168
11	0x3c6a6fe6	0.014308905
12	0x3bdac118	0.0066758506
13	0x3ccce7c9	0.025012868
14	0x393d51bb	0.00018054892
15	0xbbfe237c	-0.007755695
16	0xbb52fc31	-0.0032193775
17	0x3b02fe73	0.001998809
18	0xb958d327	-0.00020678026
19	0xbbbb6c4a	-0.005719696
20	0xbb917133	-0.004438543
21	0xbbd3c52a	-0.006462713
22	0x3c2fe630	0.010736033
23	0xbc2916e3	-0.010320398
24	0x3bf9d4e8	0.0076242574
25	0xbb4c2fc8	-0.003115641
26	0xbc95dfd3	-0.018295204
27	0x3cc1ea1b	0.0236712
28	0xbacff65a	-0.0015866265
29	0xbcb7268e	-0.022357251
30	0x3d084c09	0.033275638
31	0xbadabc11	-0.0016688128
32	0x3cc9d3b6	0.024637084
33	0x3c456fc7	0.012050576
34	0x39d41bc3	0.00040456475
35	0x3c89183a	0.016735185
36	0x3c7bb47c	0.015362855
37	0x3c4c49a2	0.012468727
38	0x3c9ac46a	0.018892486
39	0x3bdf289d	0.0068102614
40	0x3a989fdc	0.0011644321
41	0x3b399acd	0.0028321028
42	0x39f7ef2e	0.00047289714
43	0x3c470e73	0.012149441
44	0x3c8c69ed	0.017140353
45	0x3bd41991	0.0064727743
46	0x3be886cf	0.0070961486
47	0x3ce99895	0.02851514
48	0xbc2647b2	-0.010148929
49	0xbce2e81e	-0.027698573
50	0xbc03b1b2	-0.008037971
51	0x3b46655d	0.003027282
52	0x3cad9023	0.021186894
53	0x3c5e11c2	0.0135540385
54	0xbbf945d3	-0.0076072006
55	0xbbed492c	-0.007241389
56	0xbc1d3f56	-0.00959762
57	0xbcc35f76	-0.02384923
58	0xbbd2887d	-0.006424962
59	0x3b4e821b	0.0031510654
60	0x3cd9d858	0.026592419
61	0x3cd8cef0	0.026465863
62	0x3a8310b9	0.000999949
63	0x3b92c714	0.0044792984
64	0x3baca714	0.0052689407
65	0xbcc29974	-0.023754813
66	0xba298bf0	-0.00064676907
67	0x3bbdd9fe	0.005793809
68	0xbc8c892b	-0.01715525
69	0x3ca6c951	0.020359667
70	0x3c55d9e4	0.013052437
71	0xbc795a7a	-0.015219325
72	0x3c07d5b9	0.008290702
73	0xbb654faf	-0.0034990122
74	0xba578161	-0.0008220878
75	0xbb794960	-0.003803812
76	0xba9f3529	-0.001214658
77	0x3ae3933f	0.0017362608
78	0x3cb9e079	0.022690045
79	0xbb0dbdd4	-0.002162804
80	0x3c485811	0.012228028
81	0xbb1b9506	-0.0023739948
82	0xbcf292d9	-0.029611038
83	0x3afad173	0.0019135907
84	0xbcbdd3de	-0.023172315
85	0x3a481a69	0.000763333
86	0x3cbfce07	0.023413671
87	0x3c882f56	0.016624134
88	0xbbb0c41f	-0.005394473
89	0x39951076	0.0002843176
90	0x3bff987e	0.007800161
91	0xbb83d977	-0.0040237266
92	0xbcc77926	-0.02434976
93	0xbb082ff3	-0.0020780533
94	0xbc8a9773	-0.01691792
95	0xbb63d36d	-0.003476347
96	0xbc3b5227	-0.011433161
97	0xbc361366	-0.011113023
98	0xbc6403bf	-0.013916909
99	0x3c9fab20	0.019490778
100	0x3b1cdece	0.0023936513
101	0xbc6673bc	-0.014065679
102	0xbcb18c60	-0.021673381
103	0xbc9b71d9	-0.018975185
104	0x3b036c23	0.0020053468
105	0x3c42e32c	0.011894982
106	0x3b7d103a	0.0038614408
107	0x3ce8f7c9	0.028438466
108	0x3c40f83f	0.0117779365
109	0x39ff96be	0.00048749702
110	0x3cb06457	0.02153222
111	0xbb39a1c7	-0.0028325187
112	0x3c50ae62	0.012736889
113	0xbbc35857	-0.0059614587
114	0xbc6c10ee	-0.014408333
115	0xbb36867f	-0.0027851162
116	0x3d121119	0.035660837
117	0x3b8b4697	0.0042503583
118	0x3c1de2fa	0.009636635
119	0xb9eac946	-0.00044781918
120	0xbb1a56a0	-0.0023550168
121	0x3c8eb9f7	0.01742266
122	0xba01f48e	-0.0004957401
123	0x3a6a6cfb	0.0008942631
124	0x3c39f3ae	0.011349602
125	0x3c5149ea	0.01277397
126	0x3a96f513	0.001151713
127	0xbd06dbaa	-0.03292433
128	0xbb0bf6f6	-0.0021356917
129	0x3c163bf4	0.009169567
130	0x3c4a4672	0.012345897
131	0xbbb57019	-0.0055370447
132	0x3c3d388f	0.011549129
133	0xb9577eaf	-0.00020551191
134	0xbcd89388	-0.026437536
135	0x3c6d4774	0.014482368
136	0xbc3005b1	-0.010743544
137	0xbbaa60f1	-0.0051995446
138	0x3bf91836	0.007601763
139	0xba2b8424	-0.0006542823
140	0xbc119619	-0.008885884
141	0xbc17543f	-0.009236394
142	0xbaf097af	-0.0018355752
143	0x3acc89fc	0.0015605087
144	0x3b936f6a	0.0044993656
145	0x3cc72bab	0.024312815
146	0xbbf8cb45	-0.007592591
147	0xbbde3e28	-0.006782312
148	0xbc78cfe0	-0.01518628
149	0x3c67b88c	0.0141431205
150	0xbc807705	-0.015681753
151	0xbc8beb56	-0.01707999
152	0x3c86b00e	0.016441371
153	0x3c97cb52	0.018529568
154	0x3d13b4d9	0.03606114
155	0x3d1d86bd	0.038458575
156	0xbcaa8da4	-0.020819493
157	0x3ccdc351	0.025117548
158	0x3ceae508	0.028673664
159	0xba4195e9	-0.0007384704
160	0xbb299c32	-0.0025880453
161	0x3c92ca28	0.017918661
162	0xbc0b544b	-0.008503984
163	0x3c332337	0.010933689
164	0x3c2cd127	0.010547913
165	0x3ba45758	0.005015295
166	0xbbe332ae	-0.0069335317
167	0x3bbf7315	0.0058425763
168	0xbc0ca36f	-0.0085838875
169	0xbc5b13e9	-0.013371446
170	0xbc2a1272	-0.010380374
171	0xbcff7fe5	-0.031188915
172	0xbd158b04	-0.03650953
173	0xbcf8aff3	-0.030357337
174	0x3ce3a428	0.027788237
175	0x3c15d6df	0.009145468
176	0x3c86071f	0.016360817
177	0xbbd1ec10	-0.0064063147
178	0x3c9f6790	0.019458562
179	0x3cc83701	0.02444029
180	0xbc17b91a	-0.00926044
181	0x3c08b6b4	0.008344341
182	0xb9797923	-0.00023791617
183	0x3c1c74aa	0.009549299
184	0xbbe2b1ca	-0.0069181668
185	0x3c89a676	0.016803008
186	0xbd099e91	-0.033598486
187	0x3be41abd	0.0069611953
188	0x3ca1f73b	0.019771209
189	0xba8f914a	-0.0010953334
190	0x3c61c4ba	0.013779813
191	0x3c145735	0.009053995
192	0x3c443639	0.011975818
193	0x3b5eac0d	0.0033977062
194	0xbc808de1	-0.015692653
195	0x3cddffdc	0.027099542
196	0x3c35d079	0.011097067
197	0xbbe20d29	-0.0068985415
198	0x3c073f70	0.008254871
199	0x3c67c3d3	0.014145809
200	0xbc537612	-0.012906568
201	0xbc11d45c	-0.008900728
202	0x3c9d8d87	0.019232525
203	0xbbf37e80	-0.0074308515
204	0x3ca26d37	0.019827468
205	0xbbdda7b5	-0.006764377
206	0xbcd4a621	-0.025958123
207	0x3c5d999b	0.013525392
208	0xbc20020b	-0.009766112
209	0xbc2f69c4	-0.010706369
210	0x3c2cde62	0.010551067
211	0x3c846aaa	0.016164143
212	0x3baf6336	0.005352403
213	0xba3e7879	-0.00072658766
214	0x3cc939d9	0.024563717
215	0xbc77bf29	-0.01512126
216	0xbb31c474	-0.0027125152
217	0x3c2d96b1	0.01059501
218	0xbcba98ae	-0.022777881
219	0xbc8478a6	-0.01617081
220	0xbc3aea9a	-0.011408472
221	0xbbd5bc4e	-0.006522692
222	0xbb92986d	-0.004473737
223	0xbbdcdf87	-0.0067405137
224	0x3c46a073	0.012123215
225	0xb8ba1e29	-8.874789e-05
226	0x3b07444f	0.002064008
227	0xbb17377f	-0.002307385
228	0x3b88202e	0.0041542267
229	0x3ba79e6e	0.005115322
230	0xbcc3e5df	-0.023913322
231	0xbae15fa5	-0.0017194642
232	0x3b8d1c00	0.0043063164
233	0xbc34edd1	-0.011043028
234	0xbb245d01	-0.0025079849
235	0x3bd40f1a	0.006471527
236	0x3c8ae5d0	0.016955286
237	0xbca26efe	-0.019828316
238	0xbcd16909	-0.02556278
239	0xbbd24cc7	-0.006417844
240	0xbcd246bf	-0.0256685
241	0x3c3256ed	0.0108849825
242	0x3c663a52	0.014051991
243	0x3c6dd3ed	0.014515859
244	0x3b2b4486	0.0026133372
245	0xb9ff6104	-0.00048709672
246	0x3c866455	0.016405264
247	0xbc78251b	-0.015145565
248	0x3a552bfa	0.0008131858
249	0xbb2b7e8b	-0.0026167955
250	0x3ba926df	0.0051621045
251	0x3c019c26	0.007910764
252	0xbc0858b7	-0.0083219325
253	0xbc3cf8f2	-0.011533963
254	0x3c5907ab	0.013246457
255	0xbbfbb558	-0.00768153

p_fc2.weight f4 [256, 256]
0	0xbe1cb76f	-0.1530435
1	0x3dfc62a9	0.123235054
2	0x3dc5d1c5	0.09659151
3	0xbc984f6f	-0.018592564
4	0x3ca5a4a5	0.02022011
5	0x3cae373f	0.021266578
6	0x3c60f39f	0.013729959
7	0xbc8a7cc2	-0.016905192
8	0x3d57786f	0.05260509
9	0xbcb8d791	-0.022563728
10	0x3d2150c3	0.03938366
11	0x3c8a9d84	0.016920812
12	0xbdf81b9f	-0.12114643
13	0xbe40332a	-0.18769518
14	0xbdf3d2df	-0.11905455
15	0xbd928195	-0.07153622
16	0xbd82eddf	-0.063930266
17	0xbb06e067	-0.0020580532
18	0xbccff102	-0.025383476
19	0xbadd87bf	-0.0016901417
20	0xbc49c33a	-0.012314612
21	0xbc5cc18c	-0.01347388
22	0x3ce98ed3	0.028510487
23	0xbd0bf89a	-0.03417263
24	0xbd77f6a3	-0.060537945
25	0x3e19e2cb	0.15027921
26	0x3d7f139d	0.062274564
27	0x3e221bdd	0.15830941
28	0x3da98264	0.08276823
29	0xbda0b0e7	-0.078462414
30	0xbd5f7e2e	-0.054563694
31	0x3ce2bd68	0.027678207
32	0x3d97a603	0.07404711
33	0x3d09aed4	0.033613995
34	0x3dede8c1	0.1161666
35	0xbe1857f3	-0.148773
36	0xbdb24fdf	-0.087066405
37	0xbd1cff27	-0.03832927
38	0xbc96dd10	-0.018415958
39	0xbda42002	-0.080139175
40	0x3d0f5596	0.03499373
41	0xbba4d466	-0.0050302027
42	0xbd014d76	-0.031568013
43	0xbde60763	-0.11231878
44	0xbde39b66	-0.11113624
45	0xbc3069f0	-0.010767445
46	0x3d3dcee8	0.0463399
47	0x3df4c43c	0.11951491
48	0x3d987fd3	0.074462555
49	0xbd6d8092	-0.057983942
50	0x3e22a858	0.1588453
51	0xbe1e4495	-0.1545585
52	0x3d92c34e	0.07166158
53	0x3c958db3	0.018256044
54	0x3c519809	0.012792596
55	0x3c689c52	0.014197426
56	0x3d97b9e8	0.07408506
57	0xbd995c1e	-0.07488273
58	0x3bcd888b	0.0062723807
59	0xbe1f9270	-0.15583205
60	0xbdbb6c87	-0.09151559
61	0xbdd70083	-0.104981445
62	0xbdfaa47f	-0.122384064
63	0x3ded7889	0.11595256
64	0xbe13e294	-0.14441901
65	0x3e01a80f	0.12661766
66	0xbc4a94a3	-0.012364539
67	0x3d68ba51	0.05681831
68	0x3cb20878	0.021732554
69	0x3d90881e	0.07057212
70	0xbe1d56c4	-0.1536513
71	0x3d6cc083	0.05780078
72	0xbdf19bc3	-0.11797287
73	0x3db1380b	0.086532675
74	0xbc80be48	-0.015715733
75	0x3c14dd39	0.009085947
76	0xbd5faa0d	-0.054605532
77	0x3d89afe8	0.067230046
78	0xbcd4b6a8	-0.025966004
79	0xbdcc2270	-0.09967506
80	0x3cca0bb2	0.02466378
81	0x3ddfb2e6	0.10922794
82	0x3d20c957	0.039254513
83	0xbe6c47c1	-0.23074247
84	0xbe356ab6	-0.17716488
85	0x3df520e9	0.11969168
86	0x3e1e5050	0.15460324
87	0xbd3785d6	-0.04480537
88	0x3c8920a0	0.01673919
89	0xbd5ea248	-0.054353982
90	0x3c7b890c	0.015352499
91	0x3e13380d	0.1437685
92	0x3c555ba7	0.01302234
93	0x3e105ea7	0.14098607
94	0x3d9937c4	0.074813396
95	0x3db17eef	0.08666789
96	0xbe06be74	-0.1315859
97	0x3dceca8c	0.100972265
98	0xbd7a38e6	-0.06108942
99	0xbca00927	-0.019535614
100	0xbddd6daf	-0.10811936
101	0xbc2a0a20	-0.010378391
102	0xbd04f115	-0.032456476
103	0x3d1d45cc	0.03839664
104	0xbcb6fa55	-0.022336164
105	0xbe612067	-0.21985017
106	0x3dc09da9	0.09405071
107	0x3d385a60	0.045008063
108	0xbcf96c74	-0.030447222
109	0x3de88134	0.113527685
110	0xbdc16526	-0.09443121
111	0xbe34def0	-0.17663169
112	0xbc9562a5	-0.018235514
113	0xbd5cc118	-0.053895086
114	0xbc6db7ff	-0.0145092
115	0xbcf5a72d	-0.029986942
116	0xbdc3faea	-0.095693424
117	0x3c93e706	0.018054496
118	0xbd0adb93	-0.03390081
119	0x3e0b39a5	0.13596208
120	0xbe43ba1a	-0.19113961
121	0x3d0d0b18	0.034434408
122	0x3df2b4b2	0.11850871
123	0x3c79f19a	0.015255356
124	0xbc8a91e7	-0.016915275
125	0xbd14af39	-0.036299918
126	0x392e2a4d	0.00016609691
127	0xbe07dd7f	-0.13268088
128	0x3d5eb239	0.054369185
129	0x3d9c958c	0.07645711
130	0x3d542917	0.051797
131	0x3d6a7ea9	0.0572497
132	0xbd0789c3	-0.033090364
133	0xbe0395a8	-0.12850058
134	0xbdb74a7b	-0.08949753
135	0x3d10b22b	0.035326164
136	0x3e0b5b74	0.13609105
137	0xbb37c371	-0.0028040076
138	0x3d8e53a6	0.069495484
139	0x3c8d75b5	0.017268041
140	0xbd1c0a32	-0.03809566
141	0xbda48890	-0.0803386
142	0x3dc32ef8	0.09530443
143	0xbce0b469	-0.027429776
144	0xbbdc1a55	-0.006717006
145	0x3d7f3148	0.062302858
146	0xbdb083c9	-0.08618886
147	0xbcfc067d	-0.030764813
148	0x3d44fe72	0.04809422
149	0x3e090c94	0.13383704
150	0x3e1bddf1	0.15221383
151	0x3daf6d3a	0.08565755
152	0x3de6c1e4	0.112674505
153	0x3e1fdf2f	0.15612482
154	0xbddee46c	-0.10883412
155	0x3d350f49	0.04420403
156	0x3d2857e6	0.04109945
157	0xbd922c3b	-0.071373425
158	0x3d1671e2	0.0367297
159	0x3d337adb	0.043818336
160	0x3d61b8d5	0.05510791
161	0x3dad337f	0.08457088
162	0x3d2f700c	0.042831466
163	0xbd0f379a	-0.034965135
164	0x3c84369b	0.01613932
165	0xbe05b388	-0.13056767
166	0xbdf21bbf	-0.118216984
167	0xbe0c9122	-0.13727239
168	0xbda9ab75	-0.08284656
169	0xbde66dbf	-0.11251401
170	0x3d905f2f	0.07049405
171	0x3dff291c	0.12459013
172	0xbd250d87	-0.040296104
173	0x3ce6d393	0.028177058
174	0xbdcb7d29	-0.09935982
175	0x3de9c6c5	0.114148654
176	0x3d278115	0.040894587
177	0x3d58ba05	0.052911777
178	0xbd3b1ded	-0.045682836
179	0xbd83303c	-0.06405684
180	0x3e04b207	0.12958537
181	0xbd57bcf7	-0.052670445
182	0xbd287a34	-0.041132167
183	0xbd357f89	-0.04431108
184	0xbdf4d04b	-0.11953791
185	0xbdc9f064	-0.09860304
186	0xbe4578c2	-0.19284347
187	0x3b511d7c	0.0031908443
188	0xbe192184	-0.14954191
189	0x3d0e6d1b	0.03477202
190	0xbcdb118b	-0.026741764
191	0xbd54a8ce	-0.051918797
192	0xbe034597	-0.12819515
193	0x3d142d01	0.03617573
194	0xbdb6ced1	-0.08926166
195	0x3ddd59e0	0.10808158
196	0x3db5560f	0.08854305
197	0x3d45ffe5	0.048339743
198	0xbd53fbd4	-0.051753834
199	0x3d8906eb	0.066907726
200	0xbd177452	-0.036976166
201	0xbb4003fe	-0.0029299255
202	0x3e0e16ec	0.13875932
203	0xbd0ddd65	-0.034634966
204	0xbd7b915d	-0.061417926
205	0x3c50f937	0.01275473
206	0xbdd1660c	-0.10224542
207	0x3de24435	0.11048166
208	0x3d07060f	0.032964762
209	0x3de82e02	0.113369
210	0xbdb11338	-0.08646244
211	0x3d99fdb2	0.07519092
212	0xbd843ab8	-0.06456512
213	0x3cd48da9	0.025946455
214	0xbbf80fbb	-0.0075702346
215	0xbc48a695	-0.0122467475
216	0x3dd66dca	0.10470159
217	0xbddce7e6	-0.107864186
218	0xbe136eb1	-0.14397694
219	0xba110497	-0.0005531995
220	0x3ca6c044	0.020355351
221	0x3df83d99	0.12121124
222	0x3d62c3c3	0.055362474
223	0xbe21ab87	-0.15788089
224	0x3e07f111	0.13275553
225	0x3e3eff4b	0.18652074
226	0xbd8594e5	-0.0652254
227	0xbdd997f1	-0.10624684
228	0x3dcf645f	0.10126566
229	0x3d53fb08	0.051753074
230	0xbdb19b5b	-0.0867221
231	0x3e3e9154	0.18610126
232	0x3dc6ea6c	0.09712681
233	0x3e2dcffa	0.16973868
234	0x3d96f9ce	0.07371865
235	0xbce3c51a	-0.027803946
236	0xbe216ded	-0.1576459
237	0xbd230e05	-0.039808292
238	0x3d168158	0.036744446
239	0xbd93e224	-0.07220867
240	0x3ca24d39	0.019812213
241	0xbe3ab71a	-0.1823391
242	0xbd4ec131	-0.05047721
243	0xbd67adb2	-0.056562133
244	0xbda3fd64	-0.08007315
245	0xbceff75b	-0.029292753
246	0x3e1ac956	0.15115866
247	0xbc0894cb	-0.008336256
248	0xbced864b	-0.0289947
249	0x39973166	0.0002883777
250	0xbdfd850a	-0.12378891
251	0x3d984e71	0.074368365
252	0x3de9b55e	0.11411546
253	0xbe1da5f6	-0.1539534
254	0x3e47eda9	0.19524254
255	0xbcf746d4	-0.03018514

p_fc2.bias f4 [256]
0	0xbc82e333	-0.015977478
1	0x3cde9ae7	0.027173473
2	0x3cbb1e88	0.022841707
3	0xbbc6ffdd	-0.0060729817
4	0x3d230570	0.039800107
5	0x3cd6715b	0.026177099
6	0x3cd339cd	0.025784397
7	0xba34f5e5	-0.0006903096
8	0x3ba3272d	0.0049790354
9	0x3ca98767	0.020694448
10	0xbc2e9355	-0.010655244
11	0xbc4d453d	-0.012528715
12	0x3c2b849f	0.010468631
13	0x3c9c60b5	0.019089082
14	0x3c610ae4	0.013735507
15	0xbc9dfbbf	-0.019285081
16	0x3c761ceb	0.015021543
17	0x3bd80c27	0.0065932455
18	0x3b1e6964	0.0024171704
19	0x3b035909	0.0020042083
20	0xbb728657	-0.0037006342
21	0x3a98bf89	0.0011653762
22	0x3bedc4a3	0.007256107
23	0x3ceffaf3	0.029294467
24	0x3aed179c	0.0018088701
25	0x3c050d81	0.008120895
26	0x3cc436ad	0.023951853
27	0x3cbb6da1	0.022879424
28	0x3c5cb75e	0.0134714525
29	0x3c6f1524	0.014592443
30	0x3b8fadb8	0.0043847226
31	0xbbe091c5	-0.0068533146
32	0x3ca91a87	0.020642532
33	0xbb896657	-0.004193108
34	0xbbcda641	-0.0062759225
35	0x3c882373	0.016618466
36	0x3b5857f8	0.0033011418
37	0x3bf865ef	0.007580511
38	0x3c30d87a	0.0107938
39	0xbb5c6a9d	-0.0033632882
40	0xbc83a6c4	-0.016070731
41	0xbc87d6c8	-0.016581908
42	0x3ceb9920	0.02875954
43	0xbc06688a	-0.008203635
44	0x3cba304b	0.022728106
45	0x3bca77b2	0.0061788196
46	0x3d08990b	0.03334908
47	0x3cee0bc3	0.029058343
48	0x3b53b999	0.003230667
49	0x3bef9cf3	0.007312411
50	0xbadc2efb	-0.0016798669
51	0x3cda96aa	0.02668317
52	0xbb8e7151	-0.0043470045
53	0x3bb444f9	0.0055013862
54	0x3cba452a	0.022738058
55	0xbd0213bf	-0.031757113
56	0x3c9fc7b6	0.01950441
57	0x3c6f8ffc	0.014621731
58	0x3b20595d	0.0024467327
59	0xbc44ca20	-0.012011081
60	0xbc1cdf10	-0.009574667
61	0xbba3c891	-0.0049982746
62	0x3d089b4b	0.033351224
63	0x3b09cec1	0.0021027776
64	0x3b7969fe	0.003805756
65	0x3c8d3b8b	0.017240306
66	0xbb99b659	-0.004690927
67	0x3c6af480	0.01434052
68	0x3c2a794e	0.010404898
69	0x3c83280c	0.016010307
70	0x3c109de5	0.0088267075
71	0x3b74bad2	0.00373428
72	0x3c762881	0.015024305
73	0x3abb5692	0.0014292768
74	0xbc06c2ca	-0.008225152
75	0xbb5ee5e4	-0.0034011537
76	0x3ca76caa	0.020437557
77	0xbc4ca454	-0.012490351
78	0x3cd1eead	0.025626505
79	0xbb972610	-0.0046126917
80	0x3bee5d1f	0.0072742845
81	0x3c47bc1e	0.012190847
82	0x3bbc6108	0.0057488717
83	0xbc023f6a	-0.007949689
84	0xbcb026a4	-0.0215028
85	0x3b8519b7	0.0040619033
86	0x3cdde5c6	0.027087104
87	0x3c8077ba	0.01568209
88	0x3cec532c	0.028848253
89	0x3c838120	0.016052783
90	0x3b44b91c	0.003001756
91	0x3cc5d3d7	0.024148865
92	0xbc943bd9	-0.018094944
93	0x3c13c3e7	0.009018875
94	0xbb2f9418	-0.0026791152
95	0xbb8723f5	-0.0041241595
96	0x3bef0273	0.007293993
97	0x3bc5a649	0.0060317856
98	0x3c2825ea	0.010262946
99	0x3c964cdb	0.018347194
100	0xbaf64ff7	-0.0018792142
101	0xbb06c6d6	-0.0020565293
102	0x3c5c95aa	0.013463417
103	0x3cdd88a3	0.027042693
104	0xbb6568d6	-0.0035005114
105	0xbb16ec32	-0.0023028967
106	0x3c62d469	0.013844588
107	0x3cb5fe95	0.02221612
108	0x3bc5dc9a	0.0060382606
109	0xbbfcdfcc	-0.0077171084
110	0xbc089aed	-0.008337718
111	0x3c957781	0.01824546
112	0x3c3ce095	0.011528154
113	0x3bb919e0	0.0056488365
114	0x3cbcdca2	0.023054425
115	0xbc43bd05	-0.011946921
116	0x3c66e5fa	0.014092917
117	0x3bf8036a	0.0075687664
118	0x3c56b21c	0.013103988
119	0x3c8444b0	0.016146034
120	0x3ad60875	0.0016329425
121	0xbbc1044d	-0.0058904053
122	0x3c7db5a9	0.015485206
123	0xbc6e30aa	-0.01453797
124	0xbc4d3f2c	-0.012527268
125	0x3cf6808c	0.030090593
126	0xbb446f3c	-0.0029973527
127	0x3ce93654	0.028468288
128	0x3b2fe3c1	0.0026838633
129	0xbc42e64a	-0.0118957255
130	0x3d3480bf	0.044068094
131	0x3cb3221c	0.02186685
132	0x3c9f33b9	0.019433843
133	0x3b9b9e51	0.0047490974
134	0xbb39bfe1	-0.0028343129
135	0x3bf6489b	0.0075159795
136	0x3c2185b8	0.009858541
137	0x3c574d01	0.013140918
138	0xbc20e988	-0.009821303
139	0x3c7f3041	0.0155754695
140	0xbc0752f5	-0.008259525
141	0xbc64e9da	-0.01397177
142	0xbc56d910	-0.013113275
143	0x3c1e0595	0.009644886
144	0xbc2b6b4b	-0.010462592
145	0xbbc6eb3d	-0.006070523
146	0x3c89c3b8	0.016816959
147	0xba7c5eb5	-0.00096271496
148	0xbcaa7199	-0.02080612
149	0x3c8a0226	0.016846728
150	0x3c8f6dc5	0.017508397
151	0x3d2a3a6a	0.041559614
152	0xbc10301a	-0.008800531
153	0x3c81ae32	0.015830133
154	0x3b2115c7	0.002457963
155	0x3cd9a399	0.026567267
156	0x3c89a8d8	0.016804144
157	0xbae4a229	-0.0017443347
158	0x3d054b5a	0.032542564
159	0x3c9c20ae	0.019058552
160	0x3cb28f64	0.02179689
161	0xbaaeef9b	-0.0013346554
162	0x3bb2881e	0.0054483553
163	0x3d10e4f8	0.03537461
164	0xbc4b5989	-0.012411484
165	0x3c9e7075	0.019340733
166	0xba4e5ae8	-0.00078718225
167	0xbb20f6c3	-0.0024561144
168	0x3c9a59fd	0.018841738
169	0x3c45da1f	0.01207593
170	0xbc2132a7	-0.009838737
171	0x3d0d8a44	0.03455569
172	0xbc29da2b	-0.010366957
173	0x3cafb670	0.021449298
174	0xbc12df63	-0.008964392
175	0x3c0401ab	0.008057038
176	0xbc9867b8	-0.018604144
177	0xbcdd1fed	-0.026992762
178	0x3d1757a8	0.03694883
179	0xbcb594cd	-0.02216568
180	0xbc208472	-0.009797202
181	0x3c44a593	0.012002367
182	0x3bf53b5b	0.0074838824
183	0x3c6f2e5b	0.014598454
184	0xbbd903dd	-0.006622775
185	0x3bb5d801	0.0055494313
186	0xbc13959b	-0.009007837
187	0xbcb03784	-0.021510847
188	0x3ca1ea4f	0.019765047
189	0xbc24b5ab	-0.010053079
190	0xbbcd3c8c	-0.0062633213
191	0x3b05951f	0.0020383073
192	0x3c73159a	0.014836693
193	0x3b383b06	0.0028111353
194	0xbb719030	-0.0036859624
195	0x3c85f200	0.016350746
196	0x3ccf06d0	0.025271803
197	0x3d1dc8e9	0.03852168
198	0xbc9899ae	-0.018627968
199	0xbb82fbbc	-0.003997294
200	0x3cc4a89e	0.024006184
201	0x3b99ff19	0.0046995995
202	0x3bcd1d82	0.006259621
203	0xbbc846ad	-0.006111941
204	0x3b273315	0.0025512625
205	0x3ba390aa	0.0049916105
206	0x398621e0	0.0002558371
207	0x3bc9ca5c	0.0061581563
208	0x3cc875e7	0.024470283
209	0xb985bd22	-0.00025508652
210	0x3c4c9171	0.012485848
211	0xbcddb60d	-0.027064348
212	0x3cd2a5ac	0.025713764
213	0x3caa131e	0.020761069
214	0xbab62c3c	-0.0013898681
215	0xbcc9f7df	-0.024654327
216	0x3c04da80	0.008108735
217	0x3d2b87e4	0.041877642
218	0x3c2b636b	0.010460715
219	0x3bc0636a	0.005871226
220	0xbc73de0e	-0.014884485
221	0x3d096e13	0.03355224
222	0x3a8bd921	0.0010669568
223	0x3cbaa527	0.022783829
224	0xbc147a0c	-0.009062301
225	0x3d2a0fcb	0.041518968
226	0x3bd1ff0f	0.006408579
227	0x3c23ceeb	0.009998064
228	0x3cdb5886	0.02677561
229	0x3b177073	0.0023107796
230	0x3b7f14c5	0.0038922292
231	0x39621359	0.00021560247
232	0x3ca76999	0.020436095
233	0x3cf1f4ce	0.029535677
234	0x3c4f43e9	0.012650468
235	0xbb9313cb	-0.0044884435
236	0xb9b2d60d	-0.00034110286
237	0xbab674d3	-0.0013920314
238	0x3bfd1915	0.0077239373
239	0x3cfc0dc3	0.03076828
240	0x3afe5a7c	0.0019405629
241	0x3cd4e035	0.025985816
242	0x3b919201	0.004442454
243	0xbc6c770e	-0.014432682
244	0xbbc60aa6	-0.00604375
245	0x3ccdbe40	0.025115132
246	0x3c848b95	0.01617984
247	0xbbe1b528	-0.0068880506
248	0x3c5c48d9	0.013445103
249	0x3b1876e0	0.0023264214
250	0x3c365289	0.011128076
251	0x3c43210e	0.011909736
252	0xbc8b56d1	-0.01700917
253	0x3c0e36f0	0.00868009
254	0x3bbb438e	0.0057148403
255	0x39b0eb62	0.0003374471

p_fc3.weight f4 [50, 256]
0	0x3aa5edb7	0.0012659346
1	0x3df034f6	0.117288515
2	0xbdb36f5f	-0.08761477
3	0xbd64d4f5	-0.055867154
4	0x3e1accd0	0.15117192
5	0x3d2193f5	0.039447743
6	0xbcf4adee	-0.029868092
7	0xbe1c8dca	-0.15288463
8	0xbd697c03	-0.057003032
9	0x3b496e57	0.0030735934
10	0x3d1474d6	0.036244236
11	0x3d0cf487	0.034412887
12	0xbdc9ca41	-0.0985303
13	0xbd15c5c0	-0.036565542
14	0x3e26f1fb	0.16303246
15	0x3d493fcb	0.049133103
16	0xbc46a09b	-0.012123252
17	0xbda9d0f9	-0.082918115
18	0x3e6be3e0	0.23036146
19	0x3dbd4bf9	0.09243006
20	0x3e25b223	0.16181235
21	0x3db0c8a5	0.0863202
22	0x3e31312d	0.17303915
23	0x3db15555	0.08658854
24	0xbd770103	-0.0603037
25	0xbcfe2d75	-0.031027535
26	0xbdcc7391	-0.0998298
27	0xbe1e1060	-0.15435934
28	0xbdfcbf81	-0.12341214
29	0xbe164151	-0.14673354
30	0xbd937892	-0.07200731
31	0xbda57c9e	-0.080804095
32	0xbdd1aac9	-0.10237653
33	0x3d624f14	0.055251196
34	0x3e17960d	0.14803334
35	0x3cff10a2	0.03113586
36	0xbe22edc3	-0.15911011
37	0x3e30e078	0.17273128
38	0x3d0130b8	0.031540602
39	0xbd7b7207	-0.06138804
40	0x3c704c51	0.014666633
41	0xbdb3636a	-0.08759196
42	0x3db8d816	0.0902559
43	0xbe223e49	-0.15844072
44	0xbe1c1fa3	-0.15246443
45	0xbddf3fd0	-0.10900843
46	0x3da38913	0.07985129
47	0x3dc4bffc	0.096069306
48	0xbd3f6008	-0.046722442
49	0x3e014fda	0.12628117
50	0x3e4d94f6	0.20076355
51	0xbdb92cf5	-0.09041778
52	0xbdc7972c	-0.097456306
53	0xbe207528	-0.15669692
54	0xbdd80f5e	-0.10549806
55	0x3dd96fe8	0.106170475
56	0xbe1ac36c	-0.1511361
57	0xbe14b0c8	-0.14520562
58	0x3e570fa1	0.21002056
59	0x3b0027d5	0.0019554992
60	0xbd61e7f1	-0.055152837
61	0xbe1ac5de	-0.15114543
62	0x3da34962	0.07972981
63	0x3ea0a2cd	0.31374207
64	0xbcd88c57	-0.026434107
65	0x3d5c0bcc	0.053722188
66	0xbd765857	-0.06014284
67	0x3df34ba2	0.1187966
68	0xbe1a3d87	-0.15062533
69	0xbb8614b4	-0.0040918235
70	0xbcf756f3	-0.030192828
71	0x3e00cb7c	0.12577623
72	0xbe1ad11e	-0.15118834
73	0xbe280174	-0.16406804
74	0xbe2778b4	-0.16354638
75	0x3b28d225	0.0025760022
76	0x3c3a58b9	0.011373692
77	0x3e808f3c	0.2510928
78	0x3ddb07a3	0.10694816
79	0x3d6e7913	0.058220934
80	0xbe1e3fb0	-0.15453982
81	0x3bdea2c9	0.006794308
82	0x3e47829c	0.19483417
83	0x3d96f145	0.07370237
84	0xbcf1b5b3	-0.029505586
85	0xbd0d11a0	-0.034440637
86	0xbd6b4f63	-0.057448756
87	0x3b4d7ffe	0.0031356807
88	0xbcf9940c	-0.030466102
89	0x3ddc39cd	0.10753212
90	0x3ea1d4ef	0.31607768
91	0xbde1e0bb	-0.11029192
92	0xbd093432	-0.033497043
93	0xbdc370f8	-0.095430315
94	0xbde292c8	-0.110631526
95	0x3daa6c4a	0.08321436
96	0xbb9d28ae	-0.004796109
97	0xbda58d90	-0.080836415
98	0x3dbfbb32	0.093618765
99	0xbca590b5	-0.020210603
100	0x3e194489	0.1496755
101	0xbd53a96f	-0.051675256
102	0x3e16c2b9	0.14722718
103	0xbd892602	-0.066967025
104	0x3e456c5a	0.19279614
105	0xbe0bdb19	-0.13657798
106	0xbdb6a466	-0.08918075
107	0x3ea25666	0.31706542
108	0xbcbf2110	-0.023331195
109	0x3d13c2bd	0.03607439
110	0x3d02158d	0.031758834
111	0x3dbaaea9	0.09115345
112	0xbe3bc279	-0.18335904
113	0xbdb9ccec	-0.09072289
114	0x3e0a8867	0.13528596
115	0xbe8ac98e	-0.271069
116	0xbe1eb90f	-0.15500282
117	0x3e1e5feb	0.15466277
118	0x3dc9de9b	0.09856912
119	0x3e86c21d	0.26319972
120	0x3e1a67c9	0.15078653
121	0x3de7a942	0.1131158
122	0xbc3b595b	-0.011434878
123	0xbd74659d	-0.05966722
124	0x3e29f347	0.16596709
125	0x3e07783c	0.1322946
126	0xbd9c3f40	-0.076292515
127	0xbe2e2ebb	-0.17010014
128	0x3b770682	0.0037693088
129	0xbdf0d77a	-0.11759849
130	0x3dcfb8db	0.1014268
131	0xbd68e7cb	-0.05686168
132	0xbd8f6032	-0.0700077
133	0xbe6741e6	-0.22583732
134	0x3e3b4403	0.18287663
135	0xbbc56a09	-0.0060246033
136	0x3ce6fd0b	0.028196832
137	0x3d2884f2	0.04114241
138	0x3d350475	0.044193704
139	0x3de57ac1	0.11205054
140	0xbe13e250	-0.144418
141	0x3deb0a3d	0.11476562
142	0xbe0ac091	-0.13550021
143	0x3df52ffd	0.11972044
144	0xbe150385	-0.14552124
145	0x3e941101	0.28919223
146	0x3dd32260	0.10309291
147	0x3e25acc7	0.1617919
148	0x3d40a5a6	0.047032975
149	0x3cb90317	0.022584481
150	0x3e02692f	0.12735437
151	0x3db2fff4	0.087402254
152	0x3dd21e06	0.10259633
153	0xbd511c53	-0.051052403
154	0xbe7b4d12	-0.24541119
155	0xbe107e0e	-0.14110586
156	0x3e29e097	0.1658958
157	0xbdfb796d	-0.122790195
158	0x3e147bd5	0.14500363
159	0x3b62b443	0.0034592308
160	0x3db0d15a	0.08633681
161	0x3e5f18ce	0.21786806
162	0xbdae88df	-0.085222
163	0x3cd7cdf6	0.026343327
164	0x3dbf200a	0.09332283
165	0xbd8adfe5	-0.06780986
166	0x3b8bda8a	0.0042679952
167	0xbd5dc5cf	-0.054143723
168	0x3d381f94	0.04495199
169	0x3e61f593	0.22066335
170	0x3c23163d	0.0099540325
171	0xbdc7195b	-0.09721633
172	0xbe59792a	-0.21237627
173	0x3ca5ca25	0.020237992
174	0xbd9341c9	-0.07190282
175	0x3e5a789d	0.21335073
176	0xbe05f266	-0.13080749
177	0xbd0f364b	-0.034963887
178	0x3c9b8730	0.01898536
179	0x3d5c8717	0.05383977
180	0xbd463190	-0.04838711
181	0x3cf883e4	0.030336328
182	0xbdb7322a	-0.08945115
183	0x3e157e75	0.14599021
184	0x3c7ddb0d	0.01549412
185	0x3c24958e	0.010045422
186	0xbe283940	-0.16428089
187	0xbda6ed7f	-0.081507675
188	0xbc3d94fe	-0.011571167
189	0xbc7ccbdb	-0.015429462
190	0xbe218364	-0.15772778
191	0xbd56a16c	-0.052400038
192	0xbda7c12d	-0.08191142
193	0xbd46fa80	-0.04857874
194	0xbcd76c08	-0.02629663
195	0x3e803ec2	0.2504788
196	0x3dc7252a	0.09723885
197	0xbdc45219	-0.095859714
198	0xbe4acfe3	-0.19805865
199	0xbc05076e	-0.008119447
200	0xbd932290	-0.07184327
201	0xbd5773f5	-0.05260082
202	0xbe3c8bf5	-0.18412764
203	0x3e05c342	0.13062766
204	0xbde4b25b	-0.11166831
205	0xbd9b43ef	-0.07581317
206	0xbd5f7330	-0.05455321
207	0x3d4442c9	0.047915254
208	0x3def7301	0.11691857
209	0x3da2da8a	0.07951839
210	0xbdd67e11	-0.10473264
211	0xbd893850	-0.06700194
212	0x3d90ffb1	0.07080019
213	0xbd693baf	-0.056941684
214	0xbda89db6	-0.08233206
215	0xbdac8f7d	-0.08425806
216	0x3e24d675	0.16097434
217	0x3c1f6b63	0.009730193
218	0x3c8d2253	0.017228281
219	0xbd5ca21c	-0.053865537
220	0x3cdc1b01	0.026868345
221	0xbe3443f8	-0.17604053
222	0x3e3243df	0.17408703
223	0xbdb91b3a	-0.09038396
224	0xbe33dfdd	-0.17565866
225	0xbd07b27d	-0.033129204
226	0xbdea3b75	-0.11437122
227	0xbd64a220	-0.055818677
228	0xbde412ba	-0.11136384
229	0xbdb6d760	-0.08927798
230	0x3e2a9606	0.16658792
231	0x3e426b94	0.1898635
232	0x3e31a839	0.17349328
233	0xbc8346b8	-0.016024932
234	0xbd487a65	-0.04894485
235	0x3dcf37f1	0.10118092
236	0x3e308766	0.1723915
237	0xbdabfef7	-0.0839824
238	0x3d47e7f9	0.04880521
239	0x3e18f144	0.14935786
240	0x3de8e3f7	0.11371606
241	0xbd5e18cb	-0.054222863
242	0xbd8c1ded	-0.068416454
243	0x3dff4e4b	0.12466105
244	0x3ca3ba47	0.019986285
245	0x3d49e078	0.049286336
246	0x3dff6bfa	0.12471767
247	0x3d72a528	0.059239537
248	0xbdbcc802	-0.09217836
249	0xbdfa9df0	-0.122371554
250	0xbddc8223	-0.10767009
251	0xbd2a2a4b	-0.04154424
252	0x3c549d47	0.012976951
253	0x3dd6360d	0.10459528
254	0x3dc1493b	0.09437796
255	0x3c868f9a	0.016425896

p_fc3.bias f4 [50]
0	0x3cc4e4f4	0.024034955
1	0xbc836c22	-0.016042773
2	0x3c008aec	0.007845622
3	0xbbad41da	-0.005287391
4	0xbc824706	-0.015903007
5	0x3caec1a7	0.021332575
6	0x3c5f66c9	0.013635346
7	0x3c91443e	0.017732736
8	0x3cbd81b4	0.023133136
9	0x3d052c19	0.032512758
10	0x3c633afd	0.013869044
11	0xbc158025	-0.00912479
12	0xbd01f393	-0.03172643
13	0x3c1d6714	0.009607095
14	0xbccbc43a	-0.024873842
15	0x3cef68fe	0.029224869
16	0x3d023256	0.031786285
17	0x3c624039	0.013809257
18	0xbce193e9	-0.02753635
19	0xbcfb01c6	-0.030640494
20	0xbca8cc99	-0.020605372
21	0xbca3ff93	-0.020019328
22	0xbc60b6bf	-0.013715445
23	0x3ba20bd8	0.0049452595
24	0x3bea7127	0.007154602
25	0x3c89bef0	0.016814679
26	0x3c488f81	0.012241245
27	0x3c71a429	0.0147486115
28	0xbb81fb6e	-0.0039667403
29	0x3b81c67b	0.0039604283
30	0xbc6e0b66	-0.014529085
31	0xbc19cbde	-0.009386985
32	0x3cc17ff3	0.023620581
33	0xbca39a02	-0.019970898
34	0xbc30a3ae	-0.010781212
35	0xbb8bc926	-0.004265922
36	0xbc9385fe	-0.018008228
37	0x3bebcf1c	0.00719632
38	0x3c316467	0.01082716
39	0x3bd6cf05	0.0065554404
40	0xbc3e68f4	-0.011621702
41	0x3a67cc0e	0.0008842357
42	0x3b8338a9	0.004004557
43	0xbc2f1bb9	-0.010687762
44	0xbc8bb5da	-0.017054487
45	0x3ba713da	0.005098802
46	0x3c3146af	0.010820075
47	0x3994c96e	0.00028378837
48	0x3c1d3f36	0.00959759
49	0x3c95e03d	0.018295402

v_fc1.weight f4 [256, 136]
0	0x3da8259f	0.08210301
1	0x3d169cf6	0.036770783
2	0x3dd25cf6	0.10271637
3	0xbd75af49	-0.059981618
4	0xbd8df037	-0.06930583
5	0x3d1e1929	0.038598213
6	0xbcc26760	-0.023730934
7	0xbda6584a	-0.081223086
8	0x3e290085	0.16504104
9	0x3d59b639	0.053152297
10	0x3caa2eea	0.020774323
11	0x3e0185ee	0.12648746
12	0x3d98b8a4	0.074570924
13	0xbdda0ef1	-0.10647381
14	0x3e19175c	0.14950317
15	0x3cb86913	0.02251104
16	0x3df5926f	0.119908206
17	0xbd7db181	-0.06193686
18	0x3bcb20e5	0.0061989897
19	0xbdd20740	-0.10255289
20	0x3d65b45d	0.05608021
21	0x3d98d2ba	0.07462068
22	0xbdbc6cf2	-0.09200467
23	0xbd61594f	-0.055016812
24	0x3d197bb7	0.0374715
25	0xbd735fdf	-0.0594176
26	0x3d78122e	0.060564213
27	0x3dd62c54	0.10457674
28	0x3d8d4078	0.06897062
29	0xbd3d323d	-0.04619049
30	0xbe23fde6	-0.16014823
31	0x3d888827	0.06666594
32	0x3e462cbd	0.19353004
33	0xbd75af54	-0.05998166
34	0xbe0ecdd8	-0.1394571
35	0x3d2b7a71	0.041864816
36	0x3de63fad	0.11242614
37	0xbdf66e56	-0.12032764
38	0x3e01b7f3	0.12667827
39	0xbc3aaac3	-0.011393252
40	0xbe00628c	-0.12537593
41	0x3cae8cee	0.021307435
42	0xbda7bcf5	-0.081903376
43	0xbdeb705e	-0.11496042
44	0x3d9151b0	0.07095659
45	0xbdbfcfda	-0.093658164
46	0x3de75616	0.112957165
47	0xbd136d74	-0.035993055
48	0xbd567e8e	-0.052366786
49	0xbda7d45b	-0.081948005
50	0x3c84903d	0.01618206
51	0x3d6f02d8	0.05835232
52	0x3d1a6979	0.037698243
53	0x3cdcc083	0.026947265
54	0xbdcd38fa	-0.10020633
55	0x3d01e97e	0.031716816
56	0xbcd1a804	-0.025592811
57	0xbd98f592	-0.07468714
58	0x3b4541bf	0.0030099002
59	0x3d35c26f	0.04437488
60	0xbc9a53ef	-0.01883885
61	0xbe2c09c8	-0.16800606
62	0xbe09679b	-0.13418429
63	0xbe176819	-0.14785804
64	0x3dc28150	0.09497321
65	0xbc87401b	-0.01651006
66	0x3b916aaa	0.004437764
67	0x3d2ac30f	0.04168993
68	0x3e1183bc	0.14210409
69	0x3e0bdb18	0.13657796
70	0xbdcee871	-0.101029284
71	0x3d01b09d	0.031662572
72	0x3d8b9035	0.06814615
73	0xbe2169ae	-0.1576297
74	0xbce3925b	-0.027779749
75	0x3db05180	0.08609295
76	0xbd06629f	-0.032808896
77	0x3de55d6c	0.111994594
78	0xbd23d1c2	-0.039994963
79	0x3d283d0f	0.041073855
80	0xbc6bc249	-0.014389583
81	0x3d28760c	0.041128203
82	0x3dcf4f73	0.101225756
83	0xbe3a8276	-0.1821383
84	0xbd16c4b0	-0.03680867
85	0x3d91e2b5	0.07123319
86	0xbe413305	-0.18867119
87	0xbcb145a6	-0.021639656
88	0x3dcc42cd	0.09973679
89	0xbe080af3	-0.13285427
90	0xbc8af57a	-0.016962755
91	0xbd2afe69	-0.04174653
92	0x3dbcbcce	0.09215699
93	0xbc826729	-0.015918331
94	0xbdc58316	-0.09644143
95	0xbc70028b	-0.014649044
96	0x3d6094c4	0.054829374
97	0x3cad7127	0.02117212
98	0xbbbaa6f7	-0.0056961733
99	0xbca155b5	-0.019694189
100	0x3ded68b7	0.115922384
101	0xbc84b803	-0.016201025
102	0xbdc48ae0	-0.09596801
103	0xbdbc4a20	-0.09193826
104	0x3da4533f	0.080236904
105	0x3dbd5c64	0.09246138
106	0x3dd0714c	0.1017786
107	0x3e07ac62	0.13249353
108	0xbd776770	-0.06040138
109	0x3cde50bc	0.027138107
110	0xbbcaa58d	-0.006184286
111	0xbda8bafd	-0.0823879
112	0xbcb46282	-0.022019628
113	0xbcf120c9	-0.029434578
114	0x3dc443f2	0.09583272
115	0x3d926f34	0.071501166
116	0xbc9b507e	-0.01895928
117	0xbd27766b	-0.040884417
118	0xbd645be5	-0.0557517
119	0x3e5cd583	0.21565823
120	0x3d328adc	0.043589458
121	0x3d356d7d	0.04429387
122	0x3d91f1bc	0.07126185
123	0xbd163aca	-0.03667716
124	0xbd60a60e	-0.054845862
125	0x3d65212b	0.055939835
126	0x3dd8ead3	0.10591664
127	0x3d107a83	0.035273086
128	0x3ddf6b3d	0.10909126
129	0x3beeced2	0.0072878385
130	0xbc082831	-0.008310364
131	0xbc4380f4	-0.0119326
132	0xbdb79839	-0.08964581
133	0x3db63bba	0.08898111
134	0xbe04efe4	-0.12982136
135	0x3d7995b5	0.060933787
136	0x3de3786a	0.111069515
137	0xbdf35226	-0.11880903
138	0xbdcaf30a	-0.09909637
139	0xbdf4b020	-0.11947656
140	0xbd739386	-0.05946686
141	0xbd40419b	-0.046937566
142	0xbdd0b35d	-0.10190461
143	0x3de9203a	0.113831
144	0x3ca6f4a3	0.020380324
145	0xbd160fe5	-0.036636252
146	0xbc4ee4dc	-0.0126278065
147	0xbd2a80b7	-0.04162666
148	0x3d26753e	0.040639155
149	0xbdef9cb4	-0.116998106
150	0x3d3fb0b9	0.046799395
151	0x3d0c698b	0.03428034
152	0x3cb253e4	0.021768518
153	0xbe2cb2d0	-0.16865087
154	0x3dd4f212	0.10397734
155	0x3b4757b1	0.0030417258
156	0xbddb6e44	-0.10714391
157	0x3d2244a5	0.039616246
158	0x3aedc13a	0.0018139251
159	0xbe322c61	-0.17399742
160	0xbd462e1a	-0.04838381
161	0x3df662aa	0.120305374
162	0x3c0ab960	0.008467048
163	0xbd96944a	-0.07352503
164	0x3dc14548	0.094370425
165	0xbdf5f505	-0.120096244
166	0x3e8254c9	0.2545531
167	0x3d8baded	0.06820283
168	0xbd9739c4	-0.07384065
169	0x3d84e8e9	0.064897366
170	0xbc077933	-0.008268642
171	0xbe000ec6	-0.12505636
172	0xbdc4fd77	-0.09618657
173	0x3c8083e2	0.015687887
174	0x3dc66938	0.09688038
175	0x3dc33038	0.09530681
176	0xbb51f899	-0.0032039045
177	0xbdf47878	-0.1193704
178	0xbdf9424c	-0.12170848
179	0xbd6f7c14	-0.05846794
180	0x3ca8cb08	0.020604625
181	0xbd0b9fea	-0.034088053
182	0xbdb6faa9	-0.089345284
183	0xbdef40b0	-0.1168226
184	0x3dbfee4e	0.09371625
185	0xbd1f9093	-0.038956236
186	0xbd282c50	-0.041057885
187	0xbdf844d5	-0.12122504
188	0x3de6dcc8	0.112725794
189	0x3bd8175b	0.006594581
190	0xbd90d95f	-0.0707271
191	0x3c843063	0.016136354
192	0x3d5687bf	0.05237555
193	0x3d952d5e	0.07284044
194	0xbdca73df	-0.09885382
195	0xbdc3b53f	-0.09556054
196	0xbd9a87b1	-0.07545412
197	0xbc8666b6	-0.016406398
198	0xbc54bf7e	-0.012985108
199	0x3ddd1f6d	0.107970096
200	0x3d8184d9	0.06324167
201	0xbc02e134	-0.007988263
202	0x3d97c4d3	0.07410588
203	0xbd07e472	-0.033176847
204	0x3d82531a	0.063635066
205	0x3d0aa8b6	0.0338523
206	0x3d0fb2fe	0.03508281
207	0xbcf822bf	-0.030290006
208	0x3c7a94aa	0.015294233
209	0x3c7cfe76	0.015441528
210	0x3e06c73c	0.1316194
211	0x3d99bb9c	0.07506487
212	0xbdb86884	-0.0900431
213	0x3c852de2	0.01625723
214	0x3e4d8299	0.2006935
215	0xbd8feff5	-0.0702819
216	0xbd641bb3	-0.05569048
217	0x3e17cb5c	0.14823669
218	0xbdbbffd9	-0.091796584
219	0xbd7cbea0	-0.06170523
220	0x3c0ae4fa	0.008477444
221	0xbe1498b4	-0.14511377
222	0xbdd41fc0	-0.10357618
223	0x3d01a5ca	0.03165225
224	0x3c348607	0.011018283
225	0xbd1f7e2b	-0.038938683
226	0xbd3b756e	-0.045766287
227	0x3e05b446	0.1305705
228	0xbdcc7ba7	-0.09984522
229	0xbd622bbb	-0.055217486
230	0x3de1a7ed	0.110183574
231	0x3cb20eb6	0.02173553
232	0x3e16683c	0.146882
233	0x3db2e68f	0.08735382
234	0x3da9805d	0.082764365
235	0xbcf2dc62	-0.029646102
236	0xbe08ac3d	-0.13346954
237	0x3dcf4098	0.10119742
238	0x3aec3a6c	0.0018022782
239	0x3d4d33a5	0.05009808
240	0x3db1a6cb	0.08674391
241	0x3db58950	0.08864081
242	0x3cf34f0d	0.02970078
243	0x3d1fb965	0.038995165
244	0xbdb8d497	-0.09024923
245	0x3da24d95	0.07924954
246	0xbbd009d3	-0.0063488274
247	0x3df11307	0.11771207
248	0xbdcc3282	-0.09970571
249	0x3d362a83	0.044474136
250	0xbdf58ad0	-0.11989367
251	0xbcbe5702	-0.023234848
252	0x3d9364a6	0.071969315
253	0xbe0c1ddb	-0.13683264
254	0xbde9f3a6	-0.114234254
255	0xbc9e1fe7	-0.019302322
