model/walk/max.pt (torch, 863294 bytes, 12 tensors)

log_std f4 [50]
-0.61597306 -0.6093372 -0.7263059 -0.7485281 -0.39103207 -0.36567837 -0.3689077 -0.49681482
-0.5188837 -0.6748257 -0.40702617 -0.7773705 -0.62853026 -0.66974324 -0.40719965 -0.3451941
-0.31221992 -0.29261267 -0.6381031 -0.80186284 -0.78483343 -0.66032237 -0.7651655 -0.72818726
-0.5457863 -0.29727638 -0.61324173 -0.262592 -0.48993695 -0.43207064 -0.7340243 -0.757356
-0.8348534 -0.42768538 -0.8187727 -0.677997 -0.6369332 -0.48813465 -0.500499 -0.24488208
-0.7266754 -0.74668247 -0.91968155 -0.6005175 -0.82982236 -0.73033494 -0.66178364 -0.5057428
-0.6214362 -0.5144637
00000000: 69b0 1dbf 86fd 1bbf 2fef 39bf 8a9f 3fbf
00000010: 5b35 c8be 323a bbbe 78e1 bcbe 835e febe
00000020: 90d5 04bf 61c1 2cbf bc65 d0be c101 47bf
00000030: 5ce7 20bf 4b74 2bbf 797c d0be 48bd b0be
00000040: 4adb 9fbe 54d1 95be ba5a 23bf e246 4dbf
00000050: d8ea 48bf e30a 29bf e3e1 43bf 7b6a 3abf
00000060: a7b8 0bbf 9c34 98be 69fd 1cbf 7572 86be
00000070: 04d9 fabe 5d38 ddbe 04e9 3bbf 15e2 41bf
00000080: f4b8 55bf 94f9 dabe 169b 51bf 3691 2dbf
00000090: 0e0e 23bf c9ec f9be b420 00bf 5ec2 7abe
000000a0: 6607 3abf 9526 3fbf 4070 6bbf 84bb 19bf
000000b0: 3d6f 54bf 3bf7 3abf a76a 29bf 5c78 01bf
000000c0: 7116 1fbf e5b3 03bf

p_fc1.weight f4 [256, 136]
-0.05970496 0.08163895 0.07853617 -0.035039254 0.011424332 -0.015913095 -0.12591091 -0.022286614
-0.19727847 -0.10395211 -0.0038492244 -0.17503431 -0.043766156 -0.10534011 -0.12051532 -0.003872632
-0.08443354 0.028780287 -0.051361993 -0.07593514 -0.002803546 -0.2648913 -0.0012501013 0.10864447
-0.10164773 0.047440942 0.026520923 -0.2444269 -0.10983288 -0.060518555 0.4342045 0.11276199
-0.06742983 0.3306016 -0.11713419 -0.0545604 0.10064883 0.04891957 -0.12602659 0.098575346
-0.08277005 -0.14820537 -0.029578514 0.054897808 -0.20015363 -0.04075942 0.007231827 -0.101813786
-0.0175606 0.10905858 -0.048087064 0.06785787 0.06892033 -0.19916858 0.11081268 0.0577544
0.054823145 0.035654224 0.02590618 0.12450777 0.057119343 -0.1417937 0.08769333 0.070822895
-0.03292021 -0.019932052 -0.17471458 -0.064443566 0.1330868 -0.057469007 0.011704798 0.15211129
-0.12327331 0.14876652 -0.050371848 0.051817447 0.20126876 0.030905351 0.04526772 0.22546394
0.0043394263 -0.11583881 -0.04801288 -0.027570063 -0.049694084 -0.008559174 -0.2713838 0.028399436
0.062136613 -0.2877713 -0.1060448 -0.07910402 -0.20532355 -0.07911084 -0.020474453 -0.17924032
-0.2881165 -0.046377588 0.03189628 -0.2773282 0.03806018 -0.06818989 -0.14483522 0.0354856
-0.044385146 -0.034171477 0.1275377 -0.14693376 -0.29779744 0.08873589 -0.04563224 -0.14749205
0.11166561 -0.11748422 0.052373417 -0.12071261 -0.049818847 -0.07262863 -0.23042989 -0.18089849
-0.10635874 -0.039672118 -0.032424178 -0.12478251 0.17249185 -0.026924752 0.0034020327 0.2960866
-0.03551239 0.09550158 0.14724372 0.030520717 -0.32028207 0.068890885 -0.009565143 -0.099851325
-0.07239902 0.024538295 -0.031607963 -0.096774176 -0.02904345 0.15836869 -0.042276755 -0.036703568
0.19618183 0.11581455 -0.009655958 0.12354498 0.104423024 -0.09767864 0.07300198 0.085960865
-0.04949371 -0.05456412 0.18049096 -0.057958636 -0.051190507 -0.0014465997 0.007336979 -0.032502588
0.01294559 0.048614867 0.056352384 0.14937036 0.094069846 -0.053833663 0.09711685 -0.09540859
-0.052530173 -0.1407985 0.014872831 0.013547364 -0.048763577 -0.056842502 0.03898603 -0.16583541
0.099891245 0.050856132 -0.0070047593 0.11033177 -0.016839258 0.023509363 -0.07412125 0.043151625
0.063722454 -0.1380335 0.07324581 0.04964994 0.029858064 -0.05948196 0.03215926 0.037863936
0.11602435 -0.10614781 0.09329137 -0.00789091 0.056801856 0.20367835 0.11193654 -0.014966783
-0.103849664 0.06637754 0.18809879 0.021027023 -0.0011431358 0.24720764 -0.15041766 -0.07166951
0.26438522 -0.090821646 0.008608654 0.322598 0.037886556 0.020679869 0.3905255 -0.04660613
-0.041428857 0.17837583 -0.21205693 -0.075601414 0.26638678 -0.23873629 0.0061904727 0.106612295
-0.10847209 -0.016852409 0.28373477 -0.10508009 -0.10269405 0.22942916 -0.05923098 0.03717653
0.30035123 -0.26392955 0.06434844 0.19133976 -0.234116 -0.16710505 0.17386086 -0.08360509
-0.0008272449 0.08678889 -0.24089664 -0.063973315 0.1223436 -0.22171065 -0.16305156 0.3469993
-0.16358201 -0.07496021 0.13122702 -0.14421143 -0.21655035 0.23459078 -0.24611396 -0.2532331
00000000: 308d 74bd 5232 a73d 92d7 a03d 5285 0fbd
00000010: 1f2d 3b3c 2e5c 82bc caee 00be 6b92 b6bc
00000020: 5e03 4abe d8e4 d4bd 4543 7cbb 323c 33be
00000030: 2444 33bd 8ebc d7bd bcd0 f6bd fccb 7dbb
00000040: 7eeb acbd a3c4 eb3c f460 52bd e283 9bbd
00000050: b2bb 37bb d59f 87be 70da a3ba fe80 de3d
00000060: af2c d0bd 6f51 423d 6842 d93c 0c4b 7abe
00000070: 10f0 e0bd 4ee2 77bd 0d50 de3e c2ef e63d
00000080: a718 8abd 9d44 a93e 0de4 efbd ba7a 5fbd
00000090: f920 ce3d e35f 483d 1d0d 01be dfe1 c93d
000000a0: 5883 a9bd 26c3 17be a44e f2bc 86dc 603d
000000b0: 13f5 4cbe 59f3 26bd f6f8 ec3b bf83 d0bd
000000c0: 3fdb 8fbc 1b5a df3d f1f6 44bd 11f9 8a3d
000000d0: 1a26 8d3d d9f2 4bbe c2f1 e23d e18f 6c3d
000000e0: 3c8e 603d 2a0a 123d 3239 d43c eefd fe3d
000000f0: f9f5 693d 5e32 11be 9098 b33d 980b 913d
00000100: 58d7 06bd 8b48 a3bc 61e8 32be fdfa 83bd
00000110: e847 083e 9f64 6bbd 7bc5 3f3c 10c3 1b3e
00000120: b876 fcbd 4056 183e b652 4ebd 883e 543d
00000130: 6619 4e3e 382d fd3c a56a 393d 05e0 663e
00000140: bf31 8e3b e63c edbd 27a9 44bd 9dda e1bc
00000150: 068c 4bbd c73b 0cbc d1f2 8abe efa5 e83c
00000160: f682 7e3d c356 93be 042e d9bd 4a01 a2bd
00000170: 5640 52be dd04 a2bd 0aba a7bc c68a 37be
00000180: 0284 93be 6df6 3dbd aca5 023d f6fd 8dbe
00000190: fee4 1b3d 24a7 8bbd af4f 14be 5959 113d
000001a0: 33cd 35bd 64f7 0bbd 3e99 023e ce75 16be
000001b0: e878 98be 2abb b53d dfe8 3abd 2808 17be
000001c0: f0b0 e43d 919b f0bd 8285 563d 2c38 f7bd
000001d0: d90e 4cbd 52be 94bd d0f5 6bbe 743d 39be
000001e0: 9cd2 d9bd 3b7f 22bd 37cf 04bd f98d ffbd
000001f0: b4a1 303e 4c91 dcbc a3f4 5e3b aa98 973e
00000200: 7175 11bd 5596 c33d 0fc7 163e 9506 fa3c
00000210: 03fc a3be aa16 8d3d 1eb7 1cbc da7e ccbd
00000220: f045 94bd 8904 c93c 5a77 01bd 8a31 c6bd
00000230: 87ec edbc 672b 223e 642a 2dbd 7b56 16bd
00000240: e4e3 483e 2e30 ed3d 0634 1ebc 2705 fd3d
00000250: bddb d53d bd0b c8bd 1082 953d 400c b03d
00000260: ebb9 4abd a07e 5fbd 9fd2 383e 0966 6dbd
00000270: 23ad 51bd d59b bdba 0a6b f03b 6f21 05bd
00000280: bd19 543c 6220 473d c2d1 663d 8bf4 183e
00000290: b1a7 c03d b080 5cbd 33e5 c63d 9465 c3bd
000002a0: e129 57bd 7b2d 10be 2dad 733c c3f5 5d3c
000002b0: 51bc 47bd afd3 68bd d1af 1f3d c2d0 29be
000002c0: c893 cc3d 854e 503d 2e88 e5bb 9ff5 e13d
000002d0: 7cf2 89bc b596 c03c e2cc 97bd c2bf 303d
000002e0: eb80 823d a758 0dbe e601 963d bc5d 4b3d
000002f0: e698 f43c 5ba3 73bd 6eb9 033d 3717 1b3d
00000300: 2d9e ed3d 0664 d9bd 8c0f bf3d e048 01bc
00000310: 10a9 683d 0f91 503e fc3e e53d 3d37 75bc
00000320: 22af d4bd f3f0 873d f89c 403e dd40 ac3c
00000330: 46d5 95ba 0024 7d3e 1607 1abe 77c7 92bd
00000340: 805d 873e b300 babd 500b 0d3c 912b a53e
00000350: ef2e 1b3d d468 a93c f5f2 c73e 12e6 3ebd
00000360: 4eb1 29bd 27a8 363e 7425 59be ead4 9abd
00000370: d963 883e 4977 74be 73d9 ca3b 8c57 da3d
00000380: 9d26 debd 100e 8abc af45 913e 3b34 d7bd
00000390: 4251 d2bd 7aef 6a3e 2f9c 72bd 6b46 183d
000003a0: a3c7 993e c621 87be 1dc9 833d 92ee 433e
000003b0: 1bbc 6fbe 961d 2bbe 9508 323e 2539 abbd
000003c0: 77db 58ba 60be b13d 9cad 76be 7104 83bd
000003d0: 488f fa3d 1e08 63be fdf6 26be e4a9 b13e
000003e0: 0b82 27be bd84 99bd 6060 063e 29ac 13be
000003f0: 60bf 5dbe 9138 703e 4c05 7cbe c5a7 81be

p_fc1.bias f4 [256]
-0.01070073 0.013946142 -0.027321093 0.019085478 0.013299199 -0.0024068253 -0.011282149 0.01880573
0.015643846 -0.030169304 0.0019442013 0.0031055484 0.001351226 -0.0007258871 -0.015312447 -0.026637526
0.005485464 0.0429534 0.020478662 -0.0052178386 -0.0027588236 0.011978972 0.029975893 0.017124271
-0.008012594 -0.00445977 0.001828387 0.01769165 -0.010934344 -0.011735874 0.021320963 0.017476073
-0.020112263 -0.0024032914 -5.9062244e-05 0.0046511926 -0.010534742 0.012258734 -0.00016023841 0.007731887
-0.009223359 -0.008775263 -0.03142892 -0.012585421 0.0013965844 0.02175243 -0.056377158 0.006816199
-0.001759457 -0.012875898 0.035843287 -0.0017745356 0.0039329072 -0.03306552 0.0008263515 -0.020903895
-0.025844863 0.011131363 -0.01539504 -0.00785085 -0.004776504 -0.026124384 -0.010014703 0.015761092
-0.01226327 0.009152375 0.022345584 -0.024672514 -0.0052233166 0.014774937 -0.0182182 0.023393735
0.021427466 -0.0027365526 -0.0028891678 0.010479221 0.026053477 0.006778604 0.02164523 -0.0013566123
0.0058135823 0.022445444 -0.003843628 -0.015291048 -0.025419896 -0.0018129747 -0.0026000382 -0.013018583
-0.002619951 -0.014206489 0.015771866 -0.010750745 0.0035527027 0.0383815 0.010701351 0.0027942234
-0.008334536 -0.0036927029 0.005966769 0.005649317 -0.0089845825 4.8551952e-05 -0.008125519 -0.010182445
-0.0069661327 0.0064581474 -0.024185997 -0.00246039 0.019217616 -0.014107555 -0.0014240193 -0.03191658
0.0026596773 0.021807464 -0.02899346 0.010405362 0.012729876 -0.0049979617 -0.0009187237 -0.009665592
0.01072215 0.031417515 -0.00522971 -0.044092894 -0.012562709 -0.006776885 0.017646223 -0.015496927
-0.02938674 -0.008523032 0.0006849082 0.03316326 -0.0079115555 0.016017156 -0.007033328 -0.00845246
-0.038300525 -0.022147212 0.0139259575 -0.011547249 0.003920301 0.009256723 0.005035349 -0.026386082
0.015337098 -0.0053830585 0.0040323143 -0.016842986 0.010311933 -0.012907044 -0.014845636 0.027985862
-0.027736353 0.007591845 0.0050967596 -0.008649586 0.005162259 0.005155946 -0.021617513 -0.0013024705
0.00655494 0.014857165 -0.025934247 0.009600189 0.0068558007 0.004193292 0.0063043204 0.03677266
0.024713907 -0.0029578789 -0.013381673 0.014769285 0.009513521 0.014554256 -0.0030654208 -0.04560702
-0.0027523164 0.019626176 -0.0036551405 -0.048169795 0.022616228 -0.014415503 0.0055919285 -0.031841442
-0.007265423 -0.00211157 -0.0021860423 -0.009092353 0.0005807742 0.017108131 0.007983106 -0.017826553
0.042855985 -0.02113229 0.0069075674 0.0029160678 -0.014105109 -0.023016606 -0.020526 0.0010518269
-0.0045109713 -0.007815454 -0.033923183 -0.010803872 -0.030365553 -0.0015448639 0.0014311839 -0.025796162
0.030706264 -0.004991752 -0.016090672 -0.0011008698 -0.0318103 0.002458849 -0.063756734 -0.039027654
0.0076676956 -0.002104213 -0.02212456 0.017695827 -0.010109393 0.021048428 0.0059478274 -0.027188148
-0.013168001 -0.02624284 -0.021617474 0.0044314326 0.019600432 -0.0039278 0.0051766816 -0.028251395
0.019650547 -0.005768018 0.00838624 0.015153881 -0.0044811093 -0.0016677142 0.001880324 -0.005483363
-0.0038882056 -0.0106336335 -0.024354415 -0.013477362 -0.0090877265 -0.0066225617 -0.02018037 0.0125729125
0.011114734 -0.000545943 0.009722064 -0.019133046 -0.00073573086 -0.029957287 0.026970157 0.0021888323
00000000: 1d52 2fbc 5c7e 643c 7cd0 dfbc 2659 9c3c
00000010: e2e4 593c d4bb 1dbb c3d8 38bc 790e 9a3c
00000020: 8627 803c 9e25 f7bc 92d4 fe3a 7586 4b3b
00000030: 9f1b b13a 7549 3eba 0fe1 7abc f136 dabc
00000040: 68bf b33b e8ef 2f3d dec2 a73c 67fa aabb
00000050: 61cd 34bb 7343 443c 0190 f53c 3348 8c3c
00000060: 4147 03bc 4323 92bb 7da6 ef3a 14ee 903c
00000070: f625 33bc d347 40bc 4da9 ae3c fb29 8f3c
00000080: 79c2 a4bc 8a80 1dbb 9ab9 77b8 0869 983b
00000090: e999 2cbc dbd8 483c ac05 28b9 c55b fd3b
000000a0: 921d 17bc 1fc6 0fbc 9cbb 00bd 1533 4ebc
000000b0: 990d b73a 2732 b23c bceb 66bd 6c5a df3b
000000c0: 959d e6ba 6ef5 52bc 69d0 123d 8997 e8ba
000000d0: 9edf 803b b66f 07bd 839f 583a a53e abbc
000000e0: 9bb8 d3bc 5260 363c 7a3b 7cbc daa0 00bc
000000f0: 3884 9cbb ce02 d6bc b514 24bc 681d 813c
00000100: e2eb 48bc d8f3 153c 160e b73c 031e cabc
00000110: 5b28 abbb 9412 723c 563e 95bc 38a4 bf3c
00000120: a788 af3c bc57 33bb 3158 3dbb 0ab1 2b3c
00000130: 1a6e d53c 0d1f de3b 5651 b13c 5bd0 b1ba
00000140: dd7f be3b 82df b73c 61e5 7bbb 4e87 7abc
00000150: 633d d0bc 56a1 edba 6765 2abb e54b 55bc
00000160: 7cb3 2bbb 55c2 68bc 0034 813c e523 30bc
00000170: 76d4 683b eb35 1d3d b854 2f3c 4a1f 373b
00000180: 948d 08bc 4601 72bb e384 c33b e81d b93b
00000190: 1234 13bc 43a4 4b38 e620 05bc 45d4 26bc
000001a0: 2844 e4bb de9e d33b b621 c6bc 7f3e 21bb
000001b0: 436e 9d3c 6023 67bc 29a6 baba f6ba 02bd
000001c0: fb4d 2e3b 91a5 b23c b183 edbc 407b 2a3c
000001d0: f890 503c f1c5 a3bb 81d6 70ba 6e5c 1ebc
000001e0: f5ab 2f3c a7af 003d fd5d abbb c09a 34bd
000001f0: d2d3 4dbc a210 debb d08e 903c d3e6 7dbc
00000200: 76bc f0bc 30a4 0bbc 698b 333a 33d6 073d
00000210: 789f 01bc 6936 833c d577 e6bb 307c 0abc
00000220: 03e1 1cbd 126e b5bc b329 643c ac30 3dbc
00000230: de75 803b 83a9 173c 92ff a43b a027 d8bc
00000240: 7448 7b3c 5e64 b0bb 8121 843b 4dfa 89bc
00000250: 62f3 283c 1178 53bc 1c3b 73bc 9b42 e53c
00000260: 5937 e3bc 03c5 f83b b802 a73b feb6 0dbc
00000270: 2b28 a93b 36f3 a83b 3617 b1bc a8b7 aaba
00000280: d2ca d63b 776b 733c 0f74 d4bc 1c4a 1d3c
00000290: a0a6 e03b e267 893b 7994 ce3b ee9e 163d
000002a0: d274 ca3c f9d8 41bb ce3e 5bbc dffa 713c
000002b0: 99de 1b3c f974 6e3c 3ae5 48bb 6dce 3abd
000002c0: 3560 34bb 13c7 a03c 158b 6fbb b14d 45bd
000002d0: ab45 b93c 002f 6cbc 7f3c b73b 2c6c 02bd
000002e0: c912 eebb 4462 0abb b443 0fbb 18f8 14bc
000002f0: 193f 183a 5a26 8c3c 93cb 023c fe08 92bc
00000300: c289 2f3d a01d adbc e058 e23b 801b 3f3b
00000310: 1d19 67bc 528d bcbc 2426 a8bc 74dd 893a
00000320: c5d0 93bb 640c 00bc 09f3 0abd b902 31bc
00000330: 2ec1 f8bc 087d caba 9096 bb3a 7952 d3bc
00000340: b48b fb3c da91 a3bb 96d0 83bc 104b 90ba
00000350: 844b 02bd a424 213b e492 82bd 76db 1fbd
00000360: 4b41 fb3b d6e6 09bb 913e b5bc d7f6 903c
00000370: dea1 25bc c16d ac3c fee5 c23b aeb9 debc
00000380: 99be 57bc 39fb d6bc 2117 b1bc 8d35 913b
00000390: 1691 a03c c6b4 80bb 27a1 a93b 786f e7bc
000003a0: 2ffa a03c a401 bdbb 7166 093c fc47 783c
000003b0: 45d6 92bb 3497 daba 3475 f63a c8ad b3bb
000003c0: 44d1 7ebb b138 2ebc e982 c7bc 27d0 5cbc
000003d0: b0e4 14bc 1302 d9bb 4e51 a5bc 9efe 4d3c
000003e0: 931a 363c 9d1d 0fba 4b49 1f3c e8bc 9cbc
000003f0: 10de 40ba fc68 f5bc 85f0 dc3c 8372 0f3b

p_fc2.weight f4 [256, 256]
0.0087624015 -0.20826827 -0.0019826286 -0.105501294 -0.008820433 0.13473764 -0.06874724 0.07020194
-0.055694714 -0.16179042 0.058286794 0.087544195 0.024981186 -0.08942847 -0.24746 -0.032242235
0.09284458 -0.05895571 0.017942265 -0.03743676 0.04588551 0.023581214 0.14134614 -0.029473094
-0.07624709 -0.057805944 0.10845119 -0.009787349 -0.07104404 -0.104720674 0.14188011 -0.0099281445
-0.027099164 0.1291341 0.06800885 -0.09644335 0.067965314 0.11166373 -0.035965018 -0.052664757
-0.107672036 -0.09430321 0.12587185 0.022508003 -0.082934536 -0.047570758 -0.029151894 0.006123655
-0.08431963 0.020188203 0.13513945 0.09229628 0.028557213 -0.040699277 -0.04972886 -0.019746644
0.19023342 0.12241954 -0.12503204 -0.07807027 -0.008468519 0.1032688 -0.07724993 0.15933385
0.042603 0.12998882 -0.024499048 -0.036616772 -0.19436067 0.15299171 -0.12820308 0.15366651
0.0074192765 0.00930468 0.015506335 -0.05789132 -0.08286849 0.006569335 -0.07728621 0.06860628
-0.025010351 0.12162172 0.079722434 0.11801746 -0.055734586 -0.112987876 -0.05773604 0.10280665
0.09057186 0.1593519 -0.03791981 -0.026528833 -0.047897868 4.175558e-05 -0.09468857 -0.12917346
-0.12433074 0.048251327 -0.046015613 -0.043008503 0.1338121 0.03921384 0.061407913 0.07302395
0.11739473 0.031451564 -0.20069572 -0.045528926 -0.034412164 -0.09298038 0.21951549 -0.10426076
0.15714644 0.087667 -0.0081424145 0.108568326 -0.07741418 0.015737334 -0.024907047 0.109688535
0.05451471 -0.035472922 0.015275744 0.0344854 -0.08440755 0.054981776 -0.013504459 -0.08557634
0.12944698 0.0057408754 0.12218123 -0.112256385 0.04068195 -0.11778556 -0.09749089 0.036274206
-0.065946355 -0.14827561 -0.06176881 -0.17108555 -0.12827507 -0.015437578 -0.09888297 -0.04343346
-0.08535278 0.009529422 -0.027677717 -0.031905513 -0.06222556 0.007443315 -0.039259557 0.13687208
-0.08253872 -0.16464843 0.0583471 0.12528941 0.13543357 0.03601256 0.07227172 -0.08660464
-0.06332509 0.095071554 0.09426532 -0.065943554 0.1881725 0.011018359 0.0945799 0.054409526
0.03094972 0.018554987 0.003933583 -0.017604792 0.10631339 -0.015047171 0.12938587 0.16243508
0.07690087 0.05488547 0.088337116 0.02402201 -0.005611349 0.06296781 -0.046401937 0.06655777
0.08416704 0.072466 0.0040464825 -0.09973918 -0.01650182 -0.07588384 0.1132166 -0.0047910283
-0.18360208 -0.13884221 0.11158522 0.13506259 0.13017522 0.068026215 0.013598328 0.04731832
-0.072764136 -0.020811895 -0.05875345 0.02155964 0.016248045 -0.13721426 0.050055 0.04213791
-0.03616372 0.1719166 0.11452504 0.006093607 -0.14148256 -0.09246974 0.0032203784 -0.11095265
-0.046381567 -0.08552871 0.11197561 0.0023255553 -0.108440764 -0.054949224 -0.026614778 0.027214194
-0.031686634 0.13860811 0.08513701 -0.022421986 0.03385676 0.054224268 -0.0096088415 0.054895032
-0.10226342 0.01428468 0.06325106 0.02679667 0.025106076 -0.13120434 -0.024721742 -0.09218052
-0.0029179803 0.008757279 -0.0569355 -0.058965076 -0.09872713 0.0707891 0.032262962 -0.17337602
-0.04250502 -0.09412797 -0.032073043 -0.09181229 -0.069865376 -0.07128633 -0.10122939 0.053376082
00000000: 2d90 0f3c 4744 55be fdee 01bb 1011 d8bd
00000010: 9483 10bc aaf8 093e 5acb 8cbd 09c6 8f3d
00000020: 2420 64bd 63ac 25be 22be 6e3d 5f4a b33d
00000030: 58a5 cc3c 4626 b7bd 2766 7dbe 6f10 04bd
00000040: 4d25 be3d 8b7b 71bd a8fb 923c 4a57 19bd
00000050: 72f2 3b3d 642d c13c 0bbd 103e 8f71 f1bc
00000060: 6f27 9cbd edc5 6cbd a81b de3d 1e5b 20bc
00000070: 8a7f 91bd cb77 d6bd 0549 113e a8a9 22bc
00000080: 11ff ddbc bb3b 043e 3948 8b3d 1784 c5bd
00000090: 6631 8b3d f4af e43d 0e50 13bd 00b7 57bd
000000a0: 2883 dcbd 0b22 c1bd 8de4 003e b462 b83c
000000b0: 95d9 a9bd 8ed9 42bd f4cf eebc f1a8 c83b
000000c0: c5af acbd bb61 a53c ff61 0a3e d505 bd3d
000000d0: d1f0 e93c 49b4 26bd 7db0 4bbd b7c3 a1bc
000000e0: 8dcc 423e 19b7 fa3d 6608 00be 4ee3 9fbd
000000f0: 8bbf 0abc 987e d33d 3635 9ebd 6a28 233e
00000100: 7c80 2e3d ca1b 053e 3ab2 c8bc 78fb 15bd
00000110: 7c06 47be dca9 1c3e ab47 03be c15a 1d3e
00000120: 671d f33b a872 183c 480e 7e3c 731f 6dbd
00000130: f4b6 a9bd 9343 d73b 3c48 9ebd 7381 8c3d
00000140: 82e2 ccbc cf14 f93d 8445 a33d 23b3 f13d
00000150: f349 64bd 3066 e7bd a07c 6cbd 4b8c d23d
00000160: bd7d b93d 252d 233e cd51 1bbd ff52 d9bc
00000170: 8e30 44bd b622 2f38 15ec c1bd 0c46 04be
00000180: 1da1 febd 2fa3 453d de7a 3cbd af29 30bd
00000190: 0a06 093e b19e 203d dd86 7b3d 958d 953d
000001a0: a66c f03d 5bd3 003d 2e83 4dbe 8a7c 3abd
000001b0: c5f3 0cbd 7f6c bebd abc8 603e aa86 d5bd
000001c0: ffea 203e c28a b33d c367 05bc 1259 de3d
000001d0: 538b 9ebd 95eb 803c dd09 ccbc 62a4 e03d
000001e0: d14a 5f3d 0e4c 11bd 1d47 7a3c 9040 0d3d
000001f0: dedd acbd 9234 613d ce41 5dbc a642 afbd
00000200: c08d 043e f41d bc3b 273a fa3d ade6 e5bd
00000210: 1ea2 263d 8e39 f1bd 4ea9 c7bd 4394 143d
00000220: e20e 87bd 90d5 17be 4b01 7dbd 0d31 2fbe
00000230: 8a5a 03be e5ed 7cbc 2883 cabd 49e7 31bd
00000240: 70cd aebd 4b21 1c3c 61bc e2bc 5baf 02bd
00000250: 3be0 7ebd 0de7 f33b a1ce 20bd 3228 0c3e
00000260: 0f0a a9bd 9999 28be 5efd 6e3d de4b 003e
00000270: 19af 0a3e e881 133d 3203 943d c65d b1bd
00000280: 96b0 81bd e0b4 c23d 2d0e c13d 6a0d 87bd
00000290: 4bb0 403e 5986 343c 1bb3 c13d 86dc 5e3d
000002a0: 448a fd3c a100 983c 49e5 803b ed37 90bc
000002b0: d6ba d93d 6988 76bc bb7d 043e 6255 263e
000002c0: 347e 9d3d 96cf 603d 17ea b43d cec9 c43c
000002d0: 68df b7bb 44f5 803d f50f 3ebd 714f 883d
000002e0: c55f ac3d 0e69 943d 5b98 843b 0e44 ccbd
000002f0: d32e 87bc fd68 9bbd 1bde e73d 0ffe 9cbb
00000300: 2f02 3cbe a72c 0ebe cb86 e43d d94d 0a3e
00000310: a74c 053e 5451 8b3d 86cb 5e3c dbd0 413d
00000320: 5d05 95bd b57d aabc 75a7 70bd d89d b03c
00000330: 9f1a 853c e581 0cbe 7906 4d3d cd98 2c3d
00000340: 6920 14bd e80a 303e 1b8c ea3d e1ac c73b
00000350: cee0 10be c660 bdbd fc0c 533b 253b e3bd
00000360: 99fa 3dbd ad29 afbd 7853 e53d 5868 183b
00000370: 3116 debd 7012 61bd 3c07 dabc 4df0 de3c
00000380: d8c9 01bd 49ef 0d3e 505c ae3d 50ae b7bc
00000390: 63ad 0a3d 441a 5e3d 676e 1dbc 9dd9 603d
000003a0: 7c6f d1bd 4a0a 6a3c c689 813d b184 db3c
000003b0: 42ab cd3c 6e5a 06be 4085 cabc 24c9 bcbd
000003c0: 963b 3fbb b17a 0f3c 3335 69bd 5d85 71bd
000003d0: 7331 cabd e0f9 903d 2b26 043d 7c89 31be
000003e0: be19 2ebd 2ac6 c0bd 065f 03bd 1508 bcbd
000003f0: 9415 8fbd 91fe 91bd 5b51 cfbd e1a0 5a3d

p_fc2.bias f4 [256]
0.022989113 -0.00033060813 0.013267247 -0.021099973 0.041830238 -0.028933886 0.012179751 -0.005157039
-0.03161792 0.04640614 0.017139265 -0.016694514 -0.017154904 0.02190429 0.049646113 -0.0021178718
0.0057719466 0.051211115 0.019204365 -0.0134665165 -0.012042056 0.035928186 0.028771391 -0.0046027866
0.01868722 0.0011058478 0.00092684146 -0.040289115 0.04960061 0.010778799 0.015182328 0.009781434
-0.05467549 -0.0013494871 0.02701212 0.016629629 -0.015709529 0.017943747 -0.052825525 0.015452019
0.03393466 0.035734415 0.017787639 -0.016336167 -0.021109262 0.022061098 0.029097077 -0.0020324835
0.00070138916 -0.00028741956 0.00026241658 -0.05460748 -0.021845235 0.031337038 0.02386801 -0.026851917
0.015075682 0.009958927 -0.025732825 0.02232799 -0.016128547 0.01873329 0.02674503 -0.006540754
0.013274734 -0.0066130115 0.038518697 0.047472626 -0.0017599382 -0.037566368 0.0060273493 -3.0359248e-05
0.019112958 0.030367741 -0.02055718 0.021607306 0.007896868 -0.025978405 0.016709717 0.0007088259
0.019591048 0.00446602 -0.0030522998 0.03647106 -0.0036604241 0.056385305 0.011615544 0.03329015
0.0046167914 0.017499223 -0.010733614 0.0099563785 -0.030425848 -7.435458e-05 0.016003689 -0.008307309
-0.019256657 0.01455856 -0.01745479 -0.013538526 -0.039978895 0.009619627 -0.010098797 0.0300898
0.013887617 0.009336876 0.027904151 0.03198985 -0.013022261 -0.0014400928 -0.003220551 0.033968512
-0.018684208 -0.03007342 0.0126533825 -0.011027561 0.042436182 -0.018806376 -0.0084845275 -0.02398533
-5.3862776e-05 -0.009342473 0.054356575 0.0028649403 0.035843562 0.015643531 0.008795978 0.02663724
0.046706527 0.0345065 -0.006998236 -0.00055381353 0.021729687 -0.017352724 -0.011508785 -0.003954025
0.024745855 0.004917038 -0.012231555 -0.016435465 0.002527477 0.006364307 0.008490183 0.007389149
-0.018593013 -0.031485368 0.023293233 0.044831593 0.01718993 0.007132108 0.030055758 0.025437623
0.022700077 0.008519294 -0.0004140836 0.0013925064 0.018504322 0.04272748 0.034733366 0.014143623
-0.0025240625 0.027459256 -0.025434276 -0.034112617 -0.010021065 0.016580174 -0.01846032 0.028524682
-0.024016941 0.029402927 -0.0021469698 -0.048330817 0.022880415 -0.014257284 0.013719803 -0.026587022
-0.02168195 -0.02742886 -0.025336156 0.016664863 0.02463198 0.011564419 0.010392278 0.0021544176
0.019488715 -0.029191 -0.004113022 0.0007116843 0.028203307 0.020051712 -0.0025397933 0.010496129
0.03586593 0.0099239545 0.020584686 -0.010082335 0.023008743 0.008832508 -0.01014721 0.0053339596
-0.024420172 0.011192033 -0.0058634784 -0.006659477 -0.014936591 -0.015349572 0.005042098 -0.024428235
-0.0041933884 0.050477248 -0.0013469912 -0.008383971 -0.013194117 -0.01773295 0.030599132 0.0023046574
0.0016298055 -0.025789307 -0.021176033 -0.02596714 0.046739116 0.016083289 0.001149838 -0.028758803
0.020473573 -0.022271235 -0.007231214 0.027475102 0.019827878 -0.03305015 0.03556187 -0.017492745
0.009613965 0.0099176075 -0.026392601 0.016853066 -0.010150896 0.03852579 -0.05202016 0.020388244
0.0099144485 0.0042730574 0.02105606 0.013203027 -0.0017743864 -0.014769514 -0.017716672 -0.00269988
0.043796994 0.012004304 -0.047728565 0.012083254 0.024310298 0.026075844 -0.03196259 -0.019421618
00000000: aa53 bc3c 7955 adb9 de5e 593c dad9 acbc
00000010: 2f56 2b3d c206 edbc 948d 473c 61fc a8bb
00000020: cb81 01bd 5d14 3e3d a567 8c3c efc2 88bc
00000030: 7188 8cbc a070 b33c b959 4b3d fecb 0abb
00000040: 9922 bd3b bfc2 513d 7952 9d3c aaa2 5cbc
00000050: 0b4c 45bc 6f29 133d fbb1 eb3c f9d2 96bb
00000060: f115 993c 18f2 903a 47f7 723a 3306 25bd
00000070: 022a 4b3d 8f99 303c 4dbf 783c 4f42 203c
00000080: 68f3 5fbd 46e1 b0ba 8548 dd3c dc3a 883c
00000090: 45b1 80bc c4fe 923c 945f 58bd 772a 7d3c
000000a0: 12ff 0a3d 405e 123d 62b7 913c 6dd3 85bc
000000b0: 55ed acbc 7ab9 b43c fe5c ee3c 6a33 05bb
000000c0: 6edd 373a cdb0 96b9 f594 8939 18ac 5fbd
000000d0: c7f4 b2bc 445b 003d d886 c33c 8df8 dbbc
000000e0: feff 763c c42a 233c a5cd d2bc 30e9 b63c
000000f0: 0420 84bc 8e76 993c 6518 db3c d253 d6bb
00000100: 457e 593c f6b1 d8bb c8c5 1d3d a872 423d
00000110: baad e6ba 31df 19bd 1281 c53b fdab feb7
00000120: c792 9c3c c5c5 f83c 8867 a8bc ce01 b13c
00000130: dd61 013c aad0 d4bc d1e2 883c 80d0 393a
00000140: 687d a03c b157 923b 1809 48bb ae62 153d
00000150: bae3 6fbb 47f4 663d 1f4f 3e3c 415b 083d
00000160: 7448 973b 885a 8f3c 0adc 2fbc 1420 233c
00000170: a13f f9bc d0ee 9bb8 2b1a 833c 611b 08bc
00000180: 23c0 9dbc 0787 6e3c 59fd 8ebc b2d0 5dbc
00000190: e9c0 23bd a49b 1d3c 6d75 25bc e27e f63c
000001a0: e388 633c b2f9 183c 3f97 e43c ca07 033d
000001b0: 525b 55bc 7fc1 bcba e10f 53bb 9122 0b3d
000001c0: a00f 99bc 885c f6bc 2250 4f3c f1ac 34bc
000001d0: 90d1 2d3d d40f 9abc b002 0bbc e27c c4bc
000001e0: b7ea 61b8 2c11 19bc 00a5 5e3d b9c1 3b3b
000001f0: b3d0 123d dd26 803c 011d 103c 5736 da3c
00000200: 584f 3f3d b056 0d3d 7551 e5bb cc2d 11ba
00000210: 7502 b23c 4d27 8ebc 588f 3cbc c490 81bb
00000220: d2b7 ca3c 1b1f a13b dc66 48bc aba3 86bc
00000230: 07a4 253b ad8b d03b 691a 0b3c ad20 f23b
00000240: 6050 98bc cdf6 00bd 73d1 be3c 55a1 373d
00000250: e5d1 8c3c 75b4 e93b 7e37 f63c 9062 d03c
00000260: 83f5 b93c 8294 0b3c 5c19 d9b9 c384 b63a
00000270: 6096 973c 0303 2f3d 9344 0e3d a8ba 673c
00000280: be6a 25bb 3cf2 e03c 8b5b d0bc acb9 0bbd
00000290: 652f 24bc 25d3 873c 193a 97bc 98ac e93c
000002a0: 2dbf c4bc 68de f03c 2db4 0cbb 89f6 45bd
000002b0: b56f bb3c 6297 69bc 06c9 603c 07cd d9bc
000002c0: 589e b1bc 7db2 e0bc c58d cfbc c084 883c
000002d0: 02c9 c93c b078 3d3c 6044 2a3c 2131 0d3b
000002e0: cca6 9f3c f721 efbc 87c6 86bb 5390 3a3a
000002f0: 9f0a e73c 7d43 a43c a972 26bb f5f7 2b3c
00000300: 27e8 123d 1598 223c 37a1 a83c 6130 25bc
00000310: d57c bc3c 39b6 103c 7c40 26bc 7fc8 ae3b
00000320: d00c c8bc ca5e 373c 6c22 c0bb be37 dabb
00000330: 9ab8 74bc c57c 7bbc 2f38 a53b b91d c8bc
00000340: b168 89bb 3bc1 4e3d 868d b0ba ec5c 09bc
00000350: 232c 58bc b144 91bc 08ab fa3c bc09 173b
00000360: 339f d53a 1944 d3bc 5c79 adbc 0ab9 d4bc
00000370: 8471 3f3d 1ac1 833c 29b6 963a 9597 ebbc
00000380: 32b8 a73c 2a72 b6bc d2f3 ecbb 7713 e13c
00000390: 136e a23c 985f 07bd 53a9 113d f24c 8fbc
000003a0: e483 1d3c 767d 223c 4c35 d8bc 710f 8a3c
000003b0: f24f 26bc 38cd 1d3d 1713 55bd 3f05 a73c
000003c0: 3670 223c 0105 8c3b c27d ac3c 8251 583c
000003d0: 8792 e8ba d5fb 71bc 8e22 91bc 78f0 30bb
000003e0: 7a64 333d b3ad 443c 077f 43bd d7f8 453c
000003f0: 6426 c73c 029d d53c 34eb 02bd 161a 9fbc

p_fc3.weight f4 [50, 256]
0.045751713 -0.25584692 -0.3365237 0.17367995 0.15766057 -0.13179265 -0.055431165 0.03372267
0.034406506 -0.03453493 -0.24029952 0.09804682 -0.121068045 -0.15783292 0.22869992 -0.13412942
0.33787808 0.114436015 -0.108957775 -0.16361934 -0.039662875 -0.1437785 0.042087525 -0.04828714
0.19526786 -0.08471662 0.04184132 -0.19930986 0.03010533 0.13036776 0.24876322 0.07554611
-0.043458935 -0.19333008 0.20102309 -0.1869615 -0.011814232 0.1459367 -0.021950101 0.05496508
0.17111953 0.13746133 0.10739297 -0.1933707 -0.10798642 0.2322356 -0.18427852 -0.19714507
-0.024340771 0.03663535 -0.045749318 -0.1431736 -0.17319825 0.2050012 0.05239288 0.105401196
0.053568393 0.098094776 0.30548564 -0.10609332 -0.021126376 -0.18740095 0.16077895 0.056875948
0.04264688 -0.011174091 0.091889784 0.09482368 -0.14951654 0.19106609 0.19365576 0.15334575
-0.018004434 -0.015010027 -0.15879275 0.13154279 -0.2752228 -0.107479736 -0.24092342 -0.23842695
-0.04005709 0.057703074 0.25811598 -0.17878829 0.16711053 0.16930567 -0.024064215 -0.0087506035
-0.20632325 -0.091973245 0.052591145 -0.060603976 0.001642902 -0.21355191 0.34307876 -0.077444285
0.15949313 -0.06799533 -0.0297928 -0.24850442 -0.13612582 0.15499802 -0.19395432 -0.085102946
0.2121832 -0.24443144 0.08618064 -0.24654005 -0.14026041 -0.11475921 0.07687841 0.036251426
0.044436563 -0.08903493 0.23532581 0.2828164 0.28913233 0.04105362 0.06556105 -0.3214392
0.11425331 0.15266405 -0.14192148 0.07579543 -0.02997509 0.13635401 0.24332556 0.03342644
0.18562198 0.28621405 0.20130344 -0.1724765 0.2431742 0.10782455 -0.18265447 -0.05209052
-0.06096411 0.19150148 -0.257632 0.027103562 0.1287959 -0.04375712 0.08228779 0.19769661
-0.09532504 -0.25906447 0.235331 -0.12977496 -0.12296894 -0.09405547 -0.12042573 0.31754312
-0.24444146 0.055042576 0.111967415 0.08858071 -0.14274625 -0.14546278 -0.20533606 0.080966935
-0.015037199 0.26969483 0.09934755 -0.04309403 0.055846516 -0.04078722 -0.29221612 0.19333202
0.11642221 0.035247184 -0.056100942 0.038858365 0.042217914 -0.17438889 -0.20443095 -0.07543471
0.0031315626 0.018919267 -0.13841006 0.06780455 0.26443908 0.12053871 -0.04221527 0.05770759
0.27228543 0.08249545 -0.074711606 -0.24785791 -0.17988959 0.09041317 -0.12732679 -0.10390481
-0.06296843 0.064744815 -0.07558559 -0.10864998 -0.023805326 0.084568456 -0.0815563 0.034499153
-0.10303468 0.1097432 -0.084459975 0.42839986 0.20098642 0.023863895 -0.13711463 -0.031528544
-0.07682883 0.060385052 0.056617368 0.015253991 -0.16882344 -0.04060537 -0.034900315 -0.13231932
-0.08992195 0.04663473 -0.21153042 0.027169444 0.19634554 -0.12478066 -0.21795009 -0.35556698
-0.12316941 0.15828237 0.07160065 -0.111032926 0.31503397 -0.07490603 0.2667963 -0.1098694
-0.1725726 0.10090277 -0.13977775 -0.15407073 0.15210716 0.2837258 -0.12709941 -0.04573318
-0.19223598 -0.04387884 -0.073534526 0.22461405 0.06230351 0.31483376 0.18721893 -0.07746618
0.19937775 -0.20039006 0.22394174 -0.12696186 -0.22071026 0.0551038 0.10631749 -0.030797761
00000000: 2666 3b3d 5efe 82be d64c acbe 28d9 313e
00000010: c671 213e a7f4 06be ca0b 63bd c820 0a3d
00000020: d6ed 0c3d 8074 0dbd 1411 76be c5cc c83d
00000030: 86f2 f7bd f49e 21be 5030 6a3e 3959 09be
00000040: 5bfe ac3e 6e5d ea3d 4125 dfbd d48b 27be
00000050: 8a75 22bd ac3a 13be f863 2c3d bcc8 45bd
00000060: 4cf4 473e e87f adbd ce61 2b3d e217 4cbe
00000070: 749f f63c 207f 053e c9bb 7e3e ebb7 9a3d
00000080: ff01 32bd 52f8 45be ffd8 4d3e d672 3fbe
00000090: 7b90 41bc 6e70 153e b3d0 b3bc 1023 613d
000000a0: f539 2f3e aac2 0c3e d8f0 db3d f802 46be
000000b0: fc27 ddbd 2bcf 6d3e 82b3 3cbe 66e0 49be
000000c0: 4c66 c7bc f30e 163d a363 3bbd 1a9c 12be
000000d0: e25a 31be d6eb 513e eb99 563d 95dc d73d
000000e0: 886a 5b3d eae5 c83d 9d68 9c3e 7447 d9bd
000000f0: 3911 adbc 09e6 3fbe 3da3 243e c1f6 683d
00000100: 7fae 2e3d 8913 37bc b630 bc3d eb32 c23d
00000110: dd1a 19be d4a6 433e b24d 463e ab06 1d3e
00000120: 097e 93bc 9eec 75bc 919a 22be 27b3 063e
00000130: 01ea 8cbe 561e dcbd a1b4 76be 3226 74be
00000140: e712 24bd 0f5a 6c3d c727 843e 4714 37be
00000150: 061f 2b3e 775e 2d3e 5122 c5bc b15e 0fbc
00000160: 6746 53be 785c bcbd d069 573d e03b 78bd
00000170: a556 d73a 5aad 5abe 05a8 af3e 1c9b 9ebd
00000180: 2b52 233e 2341 8bbd 0810 f4bc f177 7ebe
00000190: 9164 0bbe cdb7 1e3e f69b 46be 744a aebd
000001a0: 8e46 593e 3c4c 7abe 7a7f b03d ff74 7cbe
000001b0: 6da0 0fbe e006 ebbd 6e72 9d3d 607c 143d
000001c0: 1d03 363d f257 b6bd 40f9 703e 50cd 903e
000001d0: 2709 943e d727 283d df44 863d ae93 a4be
000001e0: a4fd e93d f753 1c3e dd53 11be a23a 9b3d
000001f0: 528e f5bc 63a0 0b3e 562a 793e 2aea 083d
00000200: b013 3e3e a68a 923e 7d22 4e3e ae9d 30be
00000210: a802 793e 1ed3 dc3d c609 3bbe de5c 55bd
00000220: 81b5 79bd f718 443e 57e8 83be 4a08 de3c
00000230: 13e3 033e aa3a 33bd 8086 a83d fb70 4a3e
00000240: c639 c3bd 19a4 84be 9cfa 703e bae3 04be
00000250: 24d7 fbbd 27a0 c0bd c4a1 f6bd 0395 a23e
00000260: dd4e 7abe 5374 613d 2c4f e53d ce69 b53d
00000270: 132c 12be 32f4 14be 9e43 52be fed1 a53d
00000280: 955e 76bc 7115 8a3e ba76 cb3d 5e83 30bd
00000290: 51bf 643d 8010 27bd 5a9d 95be d4f8 453e
000002a0: c56e ee3d 5a5f 103d 1aca 65bd f329 1f3d
000002b0: b1ec 2c3d 0093 32be 5956 51be 837d 9abd
000002c0: e73a 4d3b 94fc 9a3c 5ebb 0dbe 1ddd 8a3d
000002d0: 8f64 873e 00dd f63d ebe9 2cbd cb5e 6c3d
000002e0: ff68 8b3e 60f3 a83d 6602 99bd 77ce 7dbe
000002f0: fa34 38be 8a2a b93d f461 02be 0ccc d4bd
00000300: 98f5 80bd ee98 843d 9ecc 9abd e183 debd
00000310: 6303 c3bc 3a32 ad3d fd06 a7bd fc4e 0d3d
00000320: d903 d3bd 0bc1 e03d 5af9 acbd 3a57 db3e
00000330: 62cf 4d3e 377e c33c c767 0cbe 1324 01bd
00000340: 6f58 9dbd 5156 773d 9de7 673d e0eb 793c
00000350: 0de0 2cbe d151 26bd a2f3 0ebd b77e 07be
00000360: 0029 b8bd 0f04 3f3d 6e9b 58be 7492 de3c
00000370: ce0e 493e 018d ffbd 4f2e 5fbe e00c b6be
00000380: 3e40 fcbd c614 223e 5da3 923d 3b65 e3bd
00000390: 224c a13e 5568 99bd 8699 883e 3503 e1bd
000003a0: dfb6 30be 1da6 ce3d e621 0fbe b8c4 1dbe
000003b0: fbc1 1b3e 8244 913e 5926 02be b752 3bbd
000003c0: 82d9 44be 4cba 33bd 4599 96bd 3a01 663e
000003d0: f731 7f3d e431 a13e 52b6 3f3e 97a6 9ebd
000003e0: ae29 4c3e 0d33 4dbe fc50 653e 4a02 02be
000003f0: df01 62be 86b4 613d fcbc d93d 964b fcbc

p_fc3.bias f4 [50]
0.022497062 0.033113386 -0.0144282635 -0.032146707 -0.06701062 -0.011027554 0.028385201 0.00947135
0.0038605419 -0.068855256 -0.053664938 -0.015102148 0.0039375084 -0.012247037 0.005483992 -0.011608358
0.0135144275 0.010876972 -0.015247437 -0.027158037 0.016785188 0.023207137 -0.008113739 0.0007000458
-0.05627338 -0.010487103 -0.02182071 -0.011541792 -0.027158873 0.0013441042 0.010491357 0.025455032
0.032396425 -0.013927163 0.026124397 -0.038422655 0.021626608 -0.010167703 -0.040665794 0.018566363
-0.051953685 -0.036249906 -0.03481816 -0.014651503 -0.009312683 0.0044864155 0.048456084 -0.027885351
0.00088452036 -0.01188747
00000000: c24b b83c e7a1 073d 8664 6cbc 44ac 03bd
00000010: dd3c 89bd eaac 34bc 1588 e83c b92d 1b3c
00000020: 2501 7d3b fc03 8dbd c4cf 5bbd 006f 77bc
00000030: 3706 813b cca7 48bc 0fb3 b33b fb30 3ebc
00000040: 9e6b 5d3c 5435 323c 63d0 79bc 887a debc
00000050: 1781 893c e51c be3c 7def 04bc 4783 373a
00000060: ea7e 66bd 19d2 2bbc 58c1 b2bc c919 3dbc
00000070: 497c debc a72c b03a f1e3 2b3c 1287 d03c
00000080: 1db2 043d c12e 64bc d502 d63c 1361 1dbd
00000090: 492a b13c 7096 26bc 2d91 26bd 7c18 983c
000000a0: 63cd 54bd c87a 14bd 7d9d 0ebd dc0c 70bc
000000b0: 3994 18bc c802 933b e379 463d d26f e4bc
000000c0: 28df 673a aac3 42bc

v_fc1.weight f4 [256, 136]
0.017222485 -0.08244981 0.5091261 0.0060329298 0.053115726 0.16707155 -0.20223993 0.10446804
-0.038363606 0.15480693 0.09504863 -0.117745645 0.25404572 0.030471638 -0.10438588 0.13719554
-0.07393146 0.1971234 0.13573438 -0.047884457 0.21922304 -0.109572 -0.10241743 0.008909762
0.060580812 0.11851431 0.019022226 0.09491986 0.10972161 0.028311571 2.5133777 0.15571634
0.9568932 0.35039276 0.021459738 0.38894555 -0.08550062 0.035975892 0.015143848 -0.044791736
0.100827456 -0.12028156 -0.052151244 -0.0037002477 0.15538177 0.058614504 0.02789877 0.11708814
0.07538543 -0.2051213 0.2535888 -0.035864174 -0.12440999 0.16498509 0.25702503 0.042568978
0.113429956 -0.043259922 0.05324989 0.020642811 0.053441342 -0.30091006 0.17340912 0.045034625
-0.2388389 -0.18421662 -0.5684481 -0.07806929 -0.11526586 -0.15015881 -0.08187358 -0.09819939
0.007878297 0.14526792 -0.120251104 0.13463977 -0.024585068 0.03397963 -0.0214119 0.010194947
0.07418399 -0.24616767 0.16669282 -0.11304618 0.20850977 0.16841161 -0.05494353 -0.12735184
0.12704909 -0.11135035 -0.028543994 -0.15100424 -0.07925862 0.09045393 0.049911663 0.07541203
-0.7341486 0.05743744 -0.14373437 -0.49511507 -0.02393519 -0.06280516 -0.18062879 -0.18666239
-0.04363034 -0.047451936 -0.13871853 -0.06558884 0.008630034 0.091672964 0.05326406 -0.06778054
0.052075192 0.06986015 -0.1668587 0.10562567 -0.12366953 0.048123974 -0.079086676 0.02754549
-0.3175393 -0.23590417 0.024108825 -0.25112233 -0.02653962 -0.012366454 0.042302087 0.18247998
0.035654612 -0.11159793 0.087164275 -0.014639442 -0.5863757 0.031671282 -0.13438141 0.033437744
0.0018908962 -0.19875598 0.4983772 -0.17849627 0.1468477 -0.05379197 -0.36136174 0.13498826
-0.045637485 0.06331228 0.24400404 -0.3278276 0.053645983 0.2871111 0.04493534 0.29180747
-0.049342483 0.2308904 0.065862656 -0.023947796 0.33162382 -0.2699038 0.20864941 0.33937603
-0.0627511 0.13609625 0.104184896 -0.36462137 0.101986066 0.2800553 0.03522659 0.1496719
0.16834837 -0.3263641 0.04643739 0.2511607 -0.15853398 -0.13431926 0.033745352 -0.16455987
-0.06154951 -0.2923809 -0.17681462 0.13674374 0.26764488 -0.2177946 0.014705077 0.30530787
-0.0014282253 -0.15990223 0.23665975 -0.16659163 -0.13220903 0.16383581 0.17763478 0.047001954
0.0655325 0.11575165 0.19252266 0.13016768 0.14828558 -0.24932362 -0.19652662 0.143712
-0.04372964 -0.36443052 -0.6560535 0.1748419 0.14188382 -0.38555905 0.18312192 0.13631938
-0.3206243 -0.07787049 0.011713965 -0.17843144 -0.047009878 0.01694424 -0.2024762 -0.14414102
0.02631006 -0.2637057 -0.07452079 0.19978973 -0.05120725 -0.16454065 -0.043104243 0.02758222
0.019121021 0.07950316 -0.19151042 0.039739016 -0.0221968 -9.526408e-05 -0.10739101 0.032822788
-0.21397392 -0.01939104 0.05691212 -0.29476547 -0.113408394 0.1011736 0.10326547 -0.13085721
0.032245945 0.14735143 -0.031342164 0.052014116 -0.031578086 -0.07392654 -0.008550639 -0.17107205
0.1533189 0.1465861 -0.14001328 0.052959573 0.10868724 -0.026808916 -0.07410241 -0.100488074
00000000: 2b16 8d3c 72db a8bd 1756 023f e2af c53b
00000010: e08f 593d ce14 2b3e fc17 4fbe 57f3 d53d
00000020: 2823 1dbd b585 1e3e dba8 c23d a124 f1bd
00000030: 4812 823e a89f f93c 44c8 d5bd fd7c 0c3e
00000040: 6169 97bd b7da 493e f4fd 0a3e 7e22 44bd
00000050: 017c 603e 4967 e0bd 3bc0 d1bd 40fa 113c
00000060: 9623 783d a1b7 f23d 80d4 9b3c 5865 c23d
00000070: b9b5 e03d abed e73c 2edb 2040 1b74 1f3e
00000080: f4f6 743f ae66 b33e 55cc af3c df23 c73e
00000090: f31a afbd 755b 133d e71d 783c 8a77 37bd
000000a0: a07e ce3d 2e56 f6bd 8b9c 55bd db7f 72bb
000000b0: 661c 1f3e c315 703d f68b e43c e8cb ef3d
000000c0: ad63 9a3d 510b 52be 64d6 813e 50e6 12bd
000000d0: aaca febd daf1 283e c998 833e cf5c 2e3d
000000e0: f74d e83d 5131 31bd 8f1c 5a3d 1d1b a93c
000000f0: 4fe5 5a3d e210 9abe 2992 313e 3a76 383d
00000100: 2f92 74be 48a3 3cbe d185 11bf cbe2 9fbd
00000110: 8210 ecbd 3bc3 19be 56ad a7bd c31c c9bd
00000120: f913 013c 1dc1 143e 3646 f6bd 02df 093e
00000130: a066 c9bc 392e 0b3d 0268 afbc b508 273c
00000140: c7ed 973d 6113 7cbe 86b1 2a3e c184 e7bd
00000150: 9683 553e 1874 2c3e 780c 61bd 8568 02be
00000160: 2819 023e a70b e4bd 18d5 e9bc dba0 1abe
00000170: 5852 a2bd e93f b93d 2c70 4c3d 9f71 9a3d
00000180: 2af1 3bbf 8543 6b3d 1a2f 13be b97f fdbe
00000190: bb13 c4bc fe9f 80bd c1f6 38be 6d24 3fbe
000001a0: bab5 32bd f65c 42bd 3b0c 0ebe 7153 86bd
000001b0: fc64 0d3c 09bf bb3d 6a2b 5a3d 86d0 8abd
000001c0: cc4c 553d d712 8f3d 02dd 2abe 4552 d83d
000001d0: 7346 fdbd a51d 453d 32f8 a1bd 14a7 e13c
000001e0: 8394 a2be dd90 71be df7f c53c 1b93 80be
000001f0: 9e69 d9bc ab9c 4abc f444 2d3d 08dc 3a3e
00000200: 920a 123d 758d e4bd 2f83 b23d 45da 6fbc
00000210: b81c 16bf bfb9 013d 489b 09be 04f6 083d
00000220: f3d7 f73a b086 4bbe 4c2b ff3e bac7 36be
00000230: 3e5f 163e f854 5cbd 6804 b9be 5d3a 0a3e
00000240: 5fee 3abd dea9 813d 32dc 793e 05d9 a7be
00000250: e4bb 5b3d 3a00 933e 1e0e 383d ca67 953e
00000260: 581b 4abd 886e 6c3e 00e3 863d 2b2e c4bc
00000270: 99ca a93e d530 8abe 31a8 553e b2c2 ad3e
00000280: a683 80bd d15c 0b3e e45e d53d a7af babe
00000290: 12de d03d 6963 8f3e c249 103d 9743 193e
000002a0: 8463 2c3e 3219 a7be 2235 3e3d 2398 803e
000002b0: bb56 22be fd8a 09be 9138 0a3d 6282 28be
000002c0: 571b 7cbd f3b2 95be e40e 35be 8d06 0c3e
000002d0: c008 893e 8c05 5fbe 90ed 703c 5051 9c3e
000002e0: 4a33 bbba 69bd 23be ef56 723e ff96 2abe
000002f0: ce61 07be 93c4 273e e4e5 353e 1f85 403d
00000300: e735 863d 330f ed3d a924 453e ad4a 053e
00000310: 2dd8 173e b14e 7fbe 463e 49be 3d29 133e
00000320: da1d 33bd a396 babe 1ff3 27bf c109 333e
00000330: fe49 113e ff67 c5be 5084 3b3e 4f97 0b3e
00000340: de28 a4be 907a 9fbd eeeb 3f3c bbb6 36be
00000350: 6e8d 40bd a6ce 8a3c ec55 4fbe b499 13be
00000360: 3288 d73c 6f04 87be 5b9e 98bd ae95 4c3e
00000370: b2be 51bd 587d 28be 138e 30bd 1cf4 e13c
00000380: b0a3 9c3c 8ed2 a23d 4f1b 44be 61c5 223d
00000390: 10d6 b5bc 83c8 c7b8 d1ef dbbd 3071 063d
000003a0: fb1b 5bbe f5d9 9ebc af1c 693d 80eb 96be
000003b0: a942 e8bd 1b34 cf3d d97c d33d 6fff 05be
000003c0: 5314 043d 4be3 163e a460 00bd c10c 553d
000003d0: 0658 01bd cc66 97bd fb17 0cbc 832d 2fbe
000003e0: a1ff 1c3e ab1a 163e a45f 0fbe 23ec 583d
000003f0: 6a97 de3d 5f9e dbbc 01c3 97bd b1cc cdbd

v_fc1.bias f4 [256]
-0.029773692 -0.18083602 -0.024087843 -0.03605897 -0.010612916 0.0075307125 -0.011909544 0.0126627665
-0.11945407 -0.006118127 -0.0640607 -0.06869286 -0.011446253 -0.018520417 -0.0045440695 0.0101919845
0.027103761 -0.056442197 0.026646193 -0.020258188 -0.034043092 -0.0036831342 -0.044547435 0.112626925
-0.05591405 0.048860308 -0.084969774 0.05185284 -0.059551477 -0.026536543 0.08031025 -0.004985769
0.05634415 0.05527446 -0.091697484 -0.0035079375 0.11226264 0.011873942 0.056562047 0.033169832
0.0048806844 -0.23594563 0.06730634 -0.08681007 -0.12510261 -0.10753235 0.052465834 -0.108412646
-0.09541335 0.014383538 0.045249294 -0.022281531 0.052162826 0.029851474 -0.040465415 0.0069465046
0.082526766 -0.10658648 -0.02596521 -0.14312902 0.0031335633 -0.060930986 -0.051479176 -0.092650525
-0.04619156 0.028987153 0.01888617 0.09331837 0.0061888685 -0.13868389 -0.06537706 -0.026706863
-0.040390648 0.041051075 -0.09558955 -0.1424101 -0.07432346 -0.058262564 -0.1250072 0.07622404
0.00742456 0.048954062 -0.052732628 -0.10658382 -0.0018231705 -0.23123498 -0.010021106 0.014156607
0.07314593 -0.0023939705 -0.006442568 -0.015248948 0.10453111 -0.038883954 0.029734224 -0.28581667
0.018959254 0.12014515 0.019811329 -0.022365747 0.012138822 0.029382393 0.06415899 -0.01820583
-0.0030016988 -0.015223114 -0.08963608 -0.069436006 -0.040306102 -0.092255406 -0.05685552 -0.0070562833
-0.13791297 -0.056183744 -0.03193092 0.11648036 -0.1043994 -0.0049634045 0.02029849 0.0083214
0.023418492 0.01887175 -0.0013798315 -0.06997697 -0.086747326 -0.0144232735 0.12976979 0.00043341913
-0.01037122 0.02315696 0.10591904 -0.034247708 -0.026179507 -0.008435659 -0.18091714 0.022434685
0.06299199 0.36341935 -0.064287774 -0.13200943 -0.11953607 0.004089935 0.06603238 -0.038814135
-0.0022149682 0.023941364 -0.00886214 -0.12961482 -0.08625363 -0.01306381 0.081520975 -0.016200507
-0.04252092 0.059574693 -0.001157661 0.02047664 0.0039505456 0.07082311 -0.023833986 -0.006819017
0.00870242 0.058235914 -0.13422398 -0.1181679 0.028315093 -0.04484962 -0.058394264 -0.009485494
0.04806785 0.024536733 0.06455077 0.031831015 0.099433355 0.058805678 -0.08106118 0.061025217
0.10951319 0.039871875 -0.12590617 -0.0031306816 -0.031994186 0.080088526 0.045932125 0.15122323
-0.2182973 -0.01311996 -0.0023559844 -0.14975637 -0.085594684 0.0309572 -0.1086986 -0.014360443
-0.02704747 -0.09263617 -0.02846389 -0.014946143 0.051305555 -0.067870766 0.04887484 0.07406743
0.034821544 0.12303592 0.072624646 -0.12531403 0.08844725 0.0006070998 0.012898659 -0.13657105
-0.012446506 -0.059106667 0.040350724 0.06298133 -0.0019552296 0.0067443512 -0.096177965 0.008932254
-0.09222829 -0.0064390213 0.0043945536 0.005055554 -0.12021056 0.007368611 -0.23807053 0.09360702
-0.08435173 -0.11941795 -0.14208868 -0.08688015 -0.050650995 -0.16617228 0.0075206636 0.07273714
-0.06526624 0.026939427 0.061154347 0.012228083 -0.04199078 -0.0049153273 0.03408883 -0.028101036
0.036230627 0.022497812 -0.017735297 0.011625966 -0.114252515 0.05345478 0.020490097 -0.24231374
-0.008571957 -0.013177366 -0.0054507526 -0.008217438 -0.00731657 -0.111046486 -0.06515354 0.07543962
00000000: f5e7 f3bc 142d 39be de53 c5bc 92b2 13bd
00000010: cce1 2dbc 32c4 f63b 3f20 43bc 7e77 4f3c
00000020: 56a4 f4bd 927a c8bb 4232 83bd d8ae 8cbd
00000030: 1189 3bbc 21b8 97bc 6be6 94bb 48fc 263c
00000040: b508 de3c ef2f 67bd 1e49 da3c 80f4 a5bc
00000050: c570 0bbd bd60 71bb 5f77 36bd f2a8 e63d
00000060: 2206 65bd bf21 483d a204 aebd a563 543d
00000070: 40ec 73bd 2a63 d9bc b379 a43d a95f a3bb
00000080: 20c9 663d 7967 623d e4cb bbbd 6de5 65bb
00000090: f4e9 e53d ec8a 423c 9bad 673d 17dd 073d
000000a0: 26ee 9f3b bb9b 71be e8d7 893d 7ac9 b1bd
000000b0: e61a 00be ec39 dcbd 6ae6 563d 7307 debd
000000c0: 1368 c3bd eea8 6b3c 5357 393d c287 b6bc
000000d0: b0a8 553d 148b f43c 10bf 25bd 819f e33b
000000e0: cb03 a93d 034a dabd feb4 d4bc 6a90 12be
000000f0: 785c 4d3b c592 79bd d4db 52bd 8fbf bdbd
00000100: 5c33 3dbd 7776 ed3c 2bb7 9a3c b41d bf3d
00000110: fecb ca3b 2603 0ebe 68e4 85bd 5ac8 dabc
00000120: aa70 25bd 2c25 283d 74c4 c3bd f4d3 11be
00000130: e636 98bd baa4 6ebd e301 00be 591b 9c3d
00000140: b949 f33b 0e84 483d 2bfe 57bd 9e48 dabd
00000150: 73f7 eeba ddc8 6cbe 912f 24bc 1df1 673c
00000160: 89cd 953d 29e4 1cbb 2d1c d3bb b9d6 79bc
00000170: 6814 d63d c844 1fbd 3095 f33c 9056 92be
00000180: 7050 9b3c a90e f63d 5e4b a23c 5f38 b7bc
00000190: e9e1 463c 58b3 f03c ca65 833d 6524 95bc
000001a0: 26b8 44bb 5e6a 79bc 1f93 b7bd 7734 8ebd
000001b0: 0318 25bd 67f0 bcbd 55e1 68bd 6538 e7bb
000001c0: 0f39 0dbe ed20 66bd ffc9 02bd 418d ee3d
000001d0: 5acf d5bd 0ea4 a2bb 0549 a63c 7b56 083c
000001e0: 23d8 bf3c ee98 9a3c 76db b4ba 1650 8fbd
000001f0: 95a8 b1bd 984f 6cbc 5fe2 043e 883c e339
00000200: 0dec 29bc aab3 bd3c 15ec d83d 5347 0cbd
00000210: 6876 d6bc b835 0abc 5842 39be f2c8 b73c
00000220: f201 813d 1a12 ba3e 4fa9 83bd 7b2d 07be
00000230: 54cf f4bd dd04 863b fc3b 873d 92fb 1ebd
00000240: 0029 11bb ae20 c43c 8232 11bc bfb9 04be
00000250: bea5 b0bd 9709 56bc 78f4 a63d edb6 84bc
00000260: 6b2a 2ebd 9804 743d a8bc 97ba a0be a73c
00000270: 9473 813b b50b 913d 7e3f c3bc 1072 dfbb
00000280: 9894 0e3c c888 6e3d 0372 09be 0302 f2bd
00000290: 0ef5 e73c 3cb4 37bd d32e 6fbd 0c69 1bbc
000002a0: cbe2 443d 4201 c93c 3233 843d 3d61 023d
000002b0: b7a3 cb3d 39de 703d 6703 a6bd 94f5 793d
000002c0: 7448 e03d b150 233d 8ced 00be 1f2c 4dbb
000002d0: 560c 03bd 7405 a43d 5323 3c3d 43da 1a3e
000002e0: 5489 5fbe 1af5 56bc dc66 1abb bc59 19be
000002f0: 444c afbd f499 fd3c 5f9d debd 1048 6bbc
00000300: a892 ddbc 08b8 bdbd 1b2d e9bc abe0 74bc
00000310: c625 523d d4ff 8abd fc30 483d aab0 973d
00000320: 09a1 0e3d 42fa fb3d 3bbc 943d 5252 00be
00000330: d523 b53d c725 1f3a e654 533c 48d9 0bbe
00000340: 6eec 4bbc d519 72bd cd46 253d 5bfc 803d
00000350: 4f23 00bb b8ff dc3b f4f8 c4bd 9758 123c
00000360: 30e2 bcbd 6dfe d2bb 3000 903b 10a9 a53b
00000370: f430 f6bd 6474 f13b c3c8 73be 0ab5 bf3d
00000380: 9ac0 acbd 6691 f4bd b27f 11be 38ee b1bd
00000390: 6b77 4fbd 1129 2abe e66f f63b 36f7 943d
000003a0: 4eaa 85bd 13b0 dc3c fb7c 7a3d 4c58 483c
000003b0: 86fe 2bbd c110 a1bb bba0 0b3d 2534 e6bc
000003c0: 9166 143d 554d b83c 9d49 91bc d67a 3e3c
000003d0: 39fd e9bd 66f3 5a3d d9da a73c 1821 78be
000003e0: 6571 0cbc e1e5 57bc 3a9c b2bb 6fa2 06bc
000003f0: d6bf efbb 576c e3bd 386f 85bd 1680 9a3d
